examples/spiking_analysis/outputs/best_model.pth (torch, 32011 bytes, 8 tensors)

enc.lins.0.weight f4 [80, 39]
0	0xbe3ce4ba	-0.18446627
1	0x3e7c222d	0.24622412
2	0xbd992adb	-0.07478877
3	0x3ddb89f9	0.107196756
4	0xbee92201	-0.45533755
5	0xbd1b9a8b	-0.03798918
6	0xbd692530	-0.05692023
7	0xbdb75a5d	-0.08952782
8	0x3e3bb844	0.1833201
9	0x3dd8f552	0.10593666
10	0xbd89b71f	-0.06724381
11	0xbe33c5ea	-0.17555967
12	0xbdac7337	-0.08420413
13	0xbc9d4f4a	-0.019202847
14	0x3d0c9aa2	0.034327157
15	0xbd69b63f	-0.05705857
16	0x3e24350c	0.16035861
17	0xbdb7af25	-0.08968953
18	0x3e128a6f	0.1431062
19	0xbd9f86ee	-0.07789408
20	0x3ad1b6ae	0.0015999877
21	0x3db7acf1	0.08968533
22	0x3e007dfe	0.12548062
23	0x3de5595a	0.11198683
24	0x3dfaa1bc	0.1223788
25	0xbe3359b1	-0.17514683
26	0x3dbec3d2	0.093146935
27	0xbdb4dc30	-0.0883106
28	0x3dff7e33	0.124752425
29	0x3dec83e3	0.11548593
30	0xbc6cd6c0	-0.014455497
31	0x3d7ec51e	0.062199704
32	0x3d3ddf03	0.04635526
33	0x3da23fe4	0.079223424
34	0x3dd86c7f	0.10567569
35	0x3d0705df	0.032964583
36	0xbd4f8156	-0.050660454
37	0xbc176c61	-0.009242148
38	0x3d1e5984	0.038659588
39	0xbe86ac9d	-0.26303568
40	0x3c9a598a	0.018841524
41	0xbdc64fc2	-0.09683181
42	0x3dfc0e00	0.12307358
43	0x3e2e2abc	0.1700849
44	0x3b1bbab8	0.0023762416
45	0x3e0d9ae3	0.13828616
46	0x3bc0d545	0.0058847987
47	0x3dbe9c72	0.09307183
48	0x3daeec94	0.085412174
49	0xbe07bf43	-0.13256554
50	0xbe0442c0	-0.12916088
51	0xbd1cac46	-0.03825023
52	0x3d5d194c	0.053979203
53	0xbce7ff8c	-0.028320096
54	0xbd233043	-0.039840948
55	0x3df281bd	0.11841152
56	0x3e0cc27a	0.13746062
57	0x3d8738d3	0.06602635
58	0x3d28d5e5	0.04121961
59	0x3ddafd8a	0.1069289
60	0x3cb36097	0.021896644
61	0xbe1384a2	-0.14406064
62	0xbe20eae7	-0.15714608
63	0xbe17be90	-0.14818788
64	0xbe11ac5d	-0.14225908
65	0x3df4bec6	0.1195045
66	0xbc0b7873	-0.008512604
67	0xbde819e4	-0.11333063
68	0x3d051e37	0.03249952
69	0xbad4ac37	-0.001622564
70	0xbdcba81f	-0.09944176
71	0xbe1d838c	-0.15382212
72	0x3d101217	0.0351735
73	0x3b17109d	0.0023050674
74	0xbd6ac6d2	-0.057318516
75	0xbdb67bd7	-0.08910339
76	0xbd2aa34b	-0.041659635
77	0x3e0b6138	0.13611305
78	0xbe88940d	-0.26675454
79	0xbdb13850	-0.08653319
80	0xbd2ce70b	-0.042212527
81	0x3e344f02	0.17608264
82	0x3d31a480	0.04336977
83	0x3df94a2b	0.121723495
84	0xbc4cb1b9	-0.012493544
85	0xbc92ef98	-0.017936513
86	0x3dad2a3a	0.0845532
87	0xbd68a44a	-0.056797303
88	0x3dc76693	0.09736361
89	0x3e1d8145	0.15381344
90	0x3d652345	0.05594184
91	0x3dbb078b	0.09132298
92	0xbdfeff98	-0.124510944
93	0x3e14b012	0.1452029
94	0xbd3555d1	-0.044271294
95	0x3d9d8fa6	0.076934144
96	0x3d398928	0.045296818
97	0xbaa8310a	-0.0012831998
98	0x3db16ecf	0.08663713
99	0xbe232bbe	-0.15934655
100	0x3e1bd446	0.15217695
101	0xbbe5df69	-0.007015158
102	0x3e120235	0.14258654
103	0xb8b1185c	-8.444555e-05
104	0xbd84c316	-0.06482522
105	0x3dd5139b	0.1040413
106	0xbb6914b7	-0.0035565326
107	0xbdc6b402	-0.097023025
108	0x3c842ff3	0.016136145
109	0xbe272b7d	-0.16325183
110	0xbdcd0dea	-0.100124195
111	0xbe08538b	-0.13313119
112	0x3b7fbb86	0.0039021685
113	0xbdb3f4d6	-0.08786933
114	0xbb430de6	-0.0029762923
115	0xbdf86837	-0.121292524
116	0xbe0fc961	-0.14041664
117	0x3bc86669	0.006115724
118	0xbbb2e82a	-0.005459805
119	0x3e145479	0.14485349
120	0xbd89aec0	-0.06722784
121	0x3e56e967	0.20987473
122	0xbde6e4e8	-0.11274129
123	0x3cdd4733	0.02701149
124	0xbdec979d	-0.115523554
125	0x3e0143b1	0.12623478
126	0xbd53f57d	-0.051747788
127	0x3dcba68b	0.09943875
128	0x3d2490e4	0.04017724
129	0xbd9e7914	-0.077379376
130	0xbd4d7bfb	-0.050167065
131	0xbd67e83c	-0.05661796
132	0x3dc6663b	0.09687468
133	0x3da8bf9d	0.08239672
134	0x3e1e2de5	0.15447195
135	0xbd1b3b1b	-0.037898164
136	0xbd37b961	-0.044854525
137	0xbde90da1	-0.11379553
138	0xbc3727df	-0.01117894
139	0x3d0aff79	0.033935044
140	0xbc3e3d4a	-0.011611292
141	0xbddb6eb8	-0.10714477
142	0x3cce1e45	0.025160918
143	0xbc16cd03	-0.009204152
144	0xbe020427	-0.12696896
145	0xbd4897da	-0.048972942
146	0x3ad418af	0.0016181673
147	0xbe1def33	-0.15423279
148	0x3ca9ff55	0.020751635
149	0x3d271b02	0.04079724
150	0xbc8dee98	-0.017325684
151	0xbc963c0b	-0.018339178
152	0x3bf1fc0c	0.0073847827
153	0x3d207f1a	0.039183713
154	0xbd96fcd4	-0.07372442
155	0xbca51e46	-0.020156037
156	0x3e95e3b6	0.29275292
157	0x3d3e80b7	0.04650947
158	0x3cb47a90	0.022031099
159	0xbe9e1b14	-0.30880034
160	0xbe98181b	-0.2970589
161	0xbe001673	-0.12508564
162	0xbd9f3965	-0.07774619
163	0x3ea50e55	0.32237497
164	0xbd5292be	-0.051409476
165	0xbe368bb0	-0.17826724
166	0x3e0af597	0.13570248
167	0x3d809499	0.06278343
168	0x3dd171c7	0.102267794
169	0xbc015c1e	-0.007895498
170	0x3d079c12	0.033107825
171	0xbe195ee8	-0.1497761
172	0xbc8e53fa	-0.017374028
173	0x3d3024da	0.043003894
174	0xbdc19abf	-0.094533436
175	0xbd73f188	-0.059556514
176	0xbdfc82de	-0.123296484
177	0xbe1dd98e	-0.15415022
178	0x3dbafd5c	0.09130356
179	0x3dc40b9d	0.095725276
180	0x3e017b0d	0.12644596
181	0x3ddfd075	0.10928432
182	0xbddf9ad7	-0.10918205
183	0xbd099d13	-0.033597063
184	0x3d968453	0.073494576
185	0x3dc298cd	0.09501801
186	0x3e219ae8	0.15781748
187	0xbd6a36ce	-0.057181172
188	0xbb97ada2	-0.004628853
189	0x3ab6932c	0.0013929359
190	0x3dae54b8	0.085122526
191	0xbdc73239	-0.09726376
192	0x3dffec61	0.124962576
193	0xbd756b6d	-0.059916902
194	0x3d7e823d	0.062135924
195	0x3e033e18	0.12816656
196	0xbe297077	-0.16546808
197	0x3d6c6417	0.05771264
198	0xbdd17be2	-0.10228707
199	0x3e658fed	0.22418185
200	0x3e5d7660	0.21627188
201	0xbdb18cc3	-0.08669426
202	0xbe040620	-0.12892962
203	0xbdaa7270	-0.083226085
204	0x3e093fa4	0.13403183
205	0xbc85ab4e	-0.016317036
206	0xbe03c1b2	-0.12866858
207	0x3df81f67	0.121153645
208	0x3db33658	0.087505996
209	0xbc86d2c3	-0.01645792
210	0x3c3921bb	0.011299546
211	0x3bfaa567	0.007649112
212	0x3e31de3d	0.17369933
213	0x3dc8fda7	0.09814005
214	0x3d3834c6	0.044972204
215	0xbca03a92	-0.019559179
216	0x3d4cfb1f	0.050044175
217	0xbdec69f3	-0.11543646
218	0x3daabd58	0.08336896
219	0x3d8952fa	0.0670528
220	0x3d46ec23	0.04856504
221	0x3dc10212	0.09424223
222	0xbd102469	-0.035190973
223	0xbe12c104	-0.14331442
224	0xbdfa026a	-0.12207492
225	0x3e1b1e75	0.15148337
226	0xbd6b9e0b	-0.05752377
227	0xbde69413	-0.11258712
228	0x3e1bbd0f	0.15208839
229	0xbde0a12b	-0.1096824
230	0x3e15a1c0	0.14612484
231	0x3e168990	0.14700913
232	0xbc018a21	-0.007906468
233	0x3dce1c43	0.10063984
234	0x3e7d0e59	0.24712504
235	0xbe4a4c78	-0.19755733
236	0x3a2b911a	0.0006544754
237	0xbd4baccf	-0.04972535
238	0x3e6e0872	0.23245409
239	0xbe727550	-0.23677564
240	0xbe5261f4	-0.20545179
241	0x3e8166f1	0.2527385
242	0xbdde94b4	-0.108682066
243	0xbe1c2731	-0.15249325
244	0x3da31c70	0.079644084
245	0x3d1459e2	0.03621853
246	0xbdcc966a	-0.09989627
247	0xbdd29007	-0.10281377
248	0x3e33d1c1	0.17560484
249	0x3d13b8f2	0.03606505
250	0x3b01f623	0.0019830547
251	0xbd6461fb	-0.055757504
252	0x3e0fc29f	0.14039086
253	0xbdfbf79f	-0.12303089
254	0x3b0224a8	0.0019858275
255	0x3a97d868	0.001158488

enc.lins.0.bias f4 [80]
0	0x3d51839d	0.051150907
1	0xbdcb99f9	-0.09941477
2	0xbdd85389	-0.10562808
3	0x3d547c6f	0.05187648
4	0x3deac35d	0.11463044
5	0x3e56e696	0.20986399
6	0x3df17368	0.1178959
7	0x3d354b37	0.044261184
8	0x3c08fe6b	0.008361439
9	0xbbf75503	-0.007547976
10	0x3e57554d	0.21028633
11	0x3abbeb85	0.0014337158
12	0x3adfaa50	0.0017064307
13	0xbc1f16be	-0.009710012
14	0x3da10e70	0.07864082
15	0xbe22238a	-0.1583387
16	0x3d321043	0.04347254
17	0xbe21bf30	-0.15795588
18	0xbdc5331b	-0.09628888
19	0xbd97b260	-0.07407069
20	0x3cfbbe9d	0.03073054
21	0x3c9d146f	0.019174783
22	0xbe1e597c	-0.15463823
23	0x3c1d81ae	0.009613438
24	0xbbe58670	-0.0070045516
25	0x3e150ecf	0.1455643
26	0x3c8359eb	0.016034087
27	0xbdc23835	-0.09483377
28	0xbdca691f	-0.098833315
29	0xbdffdb5f	-0.124930136
30	0x3dfc869d	0.12330363
31	0xbc6dcfe3	-0.014514896
32	0xbe297027	-0.16546689
33	0x3c41e2b6	0.011833837
34	0x3d9a6f7b	0.075407945
35	0x3e40d041	0.18829443
36	0xbc78fad2	-0.015196519
37	0x3de22bf0	0.11043537
38	0x3e0c2d11	0.13689066
39	0xbe1aad0a	-0.15105072
40	0x3e06f774	0.13180333
41	0x3e2f1f5f	0.17101811
42	0xbe0b2a21	-0.1359029
43	0xbc9fd58a	-0.019511003
44	0x3d66224a	0.056185044
45	0xbcb4c8cc	-0.022068404
46	0xbd7f25ee	-0.062292032
47	0x3d398a90	0.04529816
48	0x3c9bdc13	0.019025838
49	0x3d5924d6	0.053013645
50	0xbe25379b	-0.16134493
51	0x3c56dc19	0.013113999
52	0x3e2babe4	0.1676479
53	0x3e4eea2a	0.20206514
54	0x3d1b4985	0.03791191
55	0x3df97a85	0.12181572
56	0x3e29c176	0.16577706
57	0xbb225981	-0.0024772587
58	0xbdf550b8	-0.119782865
59	0x3c18e668	0.009332277
60	0x3caae698	0.020861909
61	0xb92fd8f7	-0.00016770126
62	0x3e226349	0.15858187
63	0x3d4d8cd1	0.05018312
64	0x3e0886ad	0.13332625
65	0x3e0287b4	0.12747079
66	0x3e1bae8b	0.15203302
67	0x3c58fc1f	0.013243704
68	0xbda910d2	-0.08255161
69	0xbc5f60cd	-0.013633919
70	0xbe30e613	-0.17275266
71	0x3d724c85	0.059155006
72	0x3e39726e	0.18110058
73	0x3dc99ffe	0.09844969
74	0xbc4a8c09	-0.012362489
75	0xbe03348f	-0.12813018
76	0xbdcac691	-0.09901155
77	0x3c86c563	0.016451543
78	0x3b7b72d5	0.0038368006
79	0x3c34d4a4	0.011037026

enc.lins.1.weight f4 [5, 80]
0	0xbd22a5c1	-0.039708856
1	0x3cee97c4	0.029125102
2	0x3c224bd7	0.009905777
3	0x3df63dd1	0.12023509
4	0x3dc041a0	0.09387517
5	0xbd8292d5	-0.06375662
6	0x3e12c880	0.14334297
7	0xbb760b28	-0.003754327
8	0x3e1b907c	0.15191835
9	0x3e17deb8	0.14831054
10	0x3dc27337	0.09494632
11	0x3f0e8204	0.5566714
12	0x3ef9b214	0.48768675
13	0x3eae54f0	0.34049177
14	0x3d3b6603	0.045751583
15	0xbd59e428	-0.053196102
16	0xbc205b00	-0.009787321
17	0xbd3842f2	-0.04498572
18	0x3baafb89	0.0052179736
19	0xbd8bbf73	-0.068236254
20	0x3e0879cd	0.13327713
21	0xbe0ad2a8	-0.13556921
22	0x3c0ae9a4	0.008478556
23	0x3e065759	0.13119258
24	0xbbbc5980	-0.005747974
25	0x3bbccd1b	0.005761755
26	0x3e873f54	0.26415503
27	0xbcc1ee19	-0.023673104
28	0xbd54af39	-0.051924918
29	0x3d940417	0.072273426
30	0xbde76042	-0.112976566
31	0x3eef1cd6	0.46701688
32	0x3dcc91e1	0.09988762
33	0x3ec77eba	0.38963872
34	0x3e5ae2db	0.21375601
35	0xbea93a15	-0.33052126
36	0x3e4d83d6	0.20069823
37	0xbeba7277	-0.36415455
38	0x3d84feaf	0.064938895
39	0x3dc3f579	0.095683046
40	0x3e8f709b	0.280156
41	0x3ee53ec7	0.44774458
42	0x3df58b49	0.11989457
43	0x3e224358	0.15846002
44	0x3e36c94b	0.17850225
45	0x3df5a4e9	0.11994345
46	0xbdb17059	-0.08664007
47	0x3d3684be	0.044560187
48	0x3f29b105	0.66285735
49	0x3f277b58	0.6542258
50	0xbd8802ed	-0.06641183
51	0x3ec08fb6	0.37609643
52	0xbcd1f138	-0.025627717
53	0xbe8555ab	-0.26041922
54	0x3e45a00d	0.19299336
55	0xbdea308d	-0.114350416
56	0xbee9f50f	-0.45694777
57	0x3ed56ace	0.41683048
58	0xbdc6e8df	-0.097123854
59	0x3dea329b	0.114354335
60	0x3c98dec8	0.018660918
61	0x3e31bf7b	0.173582
62	0x3dcb4a28	0.099262536
63	0xbd84cb7f	-0.06484126
64	0x3e407d7a	0.18797866
65	0x3d3851b6	0.0449998
66	0xbe46be5d	-0.19408555
67	0x3e8c0e7f	0.2735481
68	0xbd3df383	-0.04637481
69	0x3edda8bc	0.43292797
70	0xbd50189a	-0.050804712
71	0xbd0e130b	-0.03468613
72	0xbe8a0c46	-0.2696249
73	0x3e396724	0.18105751
74	0x3e482fa5	0.19549425
75	0x3dcde59b	0.100535594
76	0x3daecc8e	0.085351095
77	0x3e1b2d00	0.15153885
78	0x3eb1ad1c	0.34702384
79	0x3e753587	0.239462
80	0x3d2e497d	0.042550553
81	0x3c95f489	0.01830508
82	0x3d6f27ca	0.058387555
83	0x3cf0a4c5	0.029375443
84	0x3d41c127	0.047303345
85	0xbdfa9ae2	-0.12236573
86	0xbbaeb98f	-0.005332179
87	0xbd5195fa	-0.05116842
88	0xbd92c799	-0.071669765
89	0xbe0e707c	-0.13910097
90	0x3e5c9ce8	0.2154423
91	0xbed02eca	-0.40660697
92	0xbd17ef9f	-0.037093755
93	0x3e2ed8f2	0.17074946
94	0x3d277c2f	0.040889915
95	0xbdec35e7	-0.115337186
96	0xbeb4b7cd	-0.3529648
97	0xbc38fc82	-0.011290671
98	0xbcf89677	-0.030345185
99	0x3d5fee23	0.054670464
100	0x3de8472e	0.113417014
101	0xbe328efb	-0.17437355
102	0xbd0010eb	-0.031266134
103	0xbe0b3997	-0.13596188
104	0xbe055f4d	-0.13024636
105	0x3e197eb1	0.14989735
106	0xbb67e960	-0.0035386905
107	0xbbf20027	-0.007385272
108	0x392e0601	0.0001659617
109	0xbdd2896f	-0.1028012
110	0x3e705b1f	0.2347226
111	0x3d1f47a1	0.03888667
112	0x3dd71f87	0.1050406
113	0x3c633f5c	0.0138700865
114	0x3e2e1879	0.17001523
115	0xbe55df8e	-0.2088606
116	0xbe286799	-0.1644577
117	0xbe43223c	-0.19056028
118	0x3dfb2185	0.12262253
119	0x3db75da3	0.08953407
120	0x3e90614f	0.2819924
121	0x3ee4ff48	0.44726014
122	0x3dc49f9b	0.09600755
123	0x3bf43062	0.0074520567
124	0x3d4b8757	0.049689617
125	0xbe4f81cd	-0.20264359
126	0xbd35bc95	-0.0443693
127	0xbd3e2c9a	-0.046429254
128	0x3df9ea96	0.12202947
129	0x3e813719	0.2523735
130	0xbd909a23	-0.07060649
131	0xbe841030	-0.257936
132	0xbe848060	-0.25879192
133	0xbd96cd6a	-0.073633984
134	0xbe8b9773	-0.27263984
135	0xbc99cc85	-0.01877428
136	0xbe9b9dd4	-0.3039385
137	0xbeebd9ca	-0.46064597
138	0xbc619b5b	-0.01376995
139	0xbe34dc92	-0.17662266
140	0xbe2c71a8	-0.16840231
141	0x3d457950	0.048211396
142	0xbe7faa55	-0.2496732
143	0x3cc4be34	0.024016477
144	0x3e7d0069	0.24707188
145	0x3df051ab	0.11734327
146	0x3e0492ec	0.12946671
147	0xbe960bca	-0.2930587
148	0x3d1ad848	0.037803918
149	0x3ba5f547	0.0050646397
150	0x3dab43a2	0.08362509
151	0xbe5d10c0	-0.21588421
152	0x3de43866	0.1114357
153	0xbd8519b3	-0.06499042
154	0xbd93647d	-0.07196901
155	0x3da2e2f3	0.079534434
156	0xbcf78a64	-0.030217357
157	0x3dfab3c4	0.12241319
158	0xbe845341	-0.25844768
159	0xbe65f868	-0.2245804
160	0xbe28703f	-0.16449068
161	0x3e77e97c	0.24210161
162	0x3e88923d	0.2667407
163	0xbb3aebf3	-0.0028521984
164	0x3ef92eef	0.4866862
165	0xbe6f2923	-0.23355536
166	0x3e22d970	0.15903258
167	0x3de393fa	0.11112209
168	0xbeaf78bf	-0.3427181
169	0xbe3974d0	-0.18110967
170	0x3f1fd51d	0.6243456
171	0xbefe9f23	-0.49730787
172	0xbe9a14b8	-0.30093932
173	0xbe8c1970	-0.27363157
174	0x3e9ed0f0	0.31018782
175	0xbab64877	-0.0013907094
176	0xbef4e0b9	-0.478277
177	0x3d67ab23	0.056559693
178	0x3e11e2aa	0.14246622
179	0x3e5e17c4	0.21688753
180	0xbe00091d	-0.12503476
181	0xbe3ed9d6	-0.18637785
182	0xbda7baed	-0.0818995
183	0xbdb30195	-0.08740536
184	0xbe78e7c5	-0.24307163
185	0x3f064e1e	0.5246295
186	0xbe3d4775	-0.1848429
187	0xbd8e5f8a	-0.069518164
188	0x3ea5924f	0.32338187
189	0xbb90c018	-0.0044174306
190	0x3e33cb26	0.17557964
191	0xbed724ee	-0.42020363
192	0xbcf86b6e	-0.030324664
193	0xbf05a4c6	-0.5220455
194	0xbce39367	-0.027780248
195	0x3f39abaf	0.72527593
196	0xbe9510f2	-0.2911449
197	0x3ec4a061	0.3840361
198	0x3ef8c5c3	0.4858838
199	0x3d8afcdb	0.067865096
200	0x3ec4b704	0.3842088
201	0x3ebd8565	0.37015834
202	0x3e9a5edf	0.30150506
203	0xbd986797	-0.07441633
204	0x3b905c76	0.0044055535
205	0xbec4e37d	-0.3845481
206	0x3d7e66b2	0.062109657
207	0xbd8bab3a	-0.06819768
208	0xbf1cfa92	-0.6131984
209	0xbf02fb27	-0.5116448
210	0x3d9c4fe3	0.07632425
211	0xbe52c847	-0.20584212
212	0x3cf8a794	0.030353345
213	0x3e67daf3	0.22642116
214	0xbd7b0eea	-0.06129352
215	0x3e3adfeb	0.1824948
216	0x3f126e07	0.5719914
217	0xbeba794b	-0.36420664
218	0x3d96c694	0.073620945
219	0x3ce191bc	0.027535312
220	0xbda55465	-0.080727376
221	0xbd7b8d4d	-0.06141405
222	0xbe6989b9	-0.22806443
223	0x3d8f4788	0.069960654
224	0x3ec3799c	0.38178718
225	0x3e0aa993	0.1354125
226	0xbd832987	-0.06404405
227	0xbf26a58a	-0.6509634
228	0xbd671883	-0.05641986
229	0xbf1debf0	-0.6168814
230	0x3ccbd1ff	0.024880407
231	0xbe147e22	-0.14501241
232	0x3eb5227f	0.3537788
233	0xbd2f4a82	-0.042795666
234	0xbe2040cc	-0.15649718
235	0x3cee2d30	0.029074281
236	0xbd7fa7d3	-0.06241591
237	0xbeae2939	-0.34015825
238	0xbe661d2c	-0.22472066
239	0xbf201e2f	-0.62546057
240	0x3e7c8e12	0.2466357
241	0xbd5d5649	-0.054037366
242	0xbdadff00	-0.08495903
243	0xbba1f912	-0.0049430216
244	0xbdfdc5ca	-0.12391241
245	0xbbbc9ad7	-0.005755763
246	0xbeb25c82	-0.34836203
247	0x3de3fedc	0.11132595
248	0x3d1c0246	0.038088106
249	0x3d0878c2	0.03331829
250	0xbedd3d2c	-0.43210733
251	0xbdeecfe2	-0.11660744
252	0xbe869f8d	-0.26293603
253	0xbe3896f5	-0.18026336
254	0xbd2aede3	-0.041730773
255	0x3d4d7428	0.050159603

enc.lins.1.bias f4 [5]
0	0xbefad825	-0.4899303
1	0x3e18b73f	0.14913653
2	0xbc66ea08	-0.014093883
3	0x3eac4646	0.33647364
4	0xbe9dd55a	-0.30826837

momentum_buffer f4 [80, 39]
0	0xbc84e2a0	-0.016221344
1	0xbc62e81f	-0.013849287
2	0x3c30a09e	0.010780482
3	0x3b4d44fe	0.003132164
4	0x3c50d4c8	0.0127460435
5	0x3cafe529	0.021471577
6	0xbb4fdb75	-0.00317165
7	0x3bb78c8b	0.005601471
8	0xb9381d88	-0.00017558609
9	0x3b385d53	0.0028131797
10	0x3c2372be	0.009976087
11	0x3b0d27d8	0.0021538641
12	0xb936075c	-0.00017359614
13	0xbb9ed688	-0.0048473515
14	0x39ae9b9a	0.00033303798
15	0x3b0f2ff3	0.0021848648
16	0xbb9c2d07	-0.00476611
17	0x3c4c6a8c	0.012476575
18	0x39c0e75a	0.00036793464
19	0x3c0ac718	0.008470319
20	0x3c61873f	0.013765155
21	0x3a58c3ab	0.0008268903
22	0x3a7e6004	0.00097036385
23	0xba808c94	-0.000980752
24	0x3af3fa17	0.0018613961
25	0x3b7dbf51	0.003871877
26	0xbb95a2e2	-0.0045665363
27	0x397fae6c	0.00024383672
28	0xbb81a8fe	-0.003956913
29	0x3b8f334d	0.004370129
30	0x3b6f9d86	0.0036562397
31	0x3b2dc03c	0.0026512286
32	0xba1ffa16	-0.00061026344
33	0x3af4123c	0.0018621157
34	0x3ba3439a	0.004982424
35	0x399bb51c	0.0002969884
36	0x39250de0	0.00015740795
37	0x3ac50dbc	0.0015034
38	0x3b9abfd8	0.0047225766
39	0x3cbc091e	0.022953566
40	0x3b4512c8	0.003007101
41	0xbb8173d4	-0.0039505754
42	0x3a12f45c	0.00056058704
43	0x3b63acc4	0.0034740428
44	0xbb920a86	-0.004456821
45	0x3a971bd8	0.0011528684
46	0xba6a428b	-0.0008936307
47	0xbade7f0e	-0.0016975121
48	0x3a873fe4	0.0010318724
49	0xbb0bd4be	-0.002133652
50	0x3ad0862e	0.0015909129
51	0xba510f62	-0.00079750095
52	0x393681c8	0.0001740522
53	0x3a0ad46a	0.00052959344
54	0xb9bc142f	-0.00035873192
55	0x39d5b196	0.00040758838
56	0xbb8a2b7a	-0.0042166086
57	0x3942e628	0.00018587022
58	0xbb02a637	-0.0019935498
59	0x39ab1c0e	0.00032636564
60	0xbacaecde	-0.0015481969
61	0x38213286	3.8432445e-05
62	0x3aa6cea6	0.0012726381
63	0xb9b02d80	-0.00033603236
64	0x3a1947ee	0.0005847205
65	0x398b1991	0.00026531194
66	0x3a836c12	0.0010026714
67	0x39e2c678	0.0004325395
68	0xba62bd81	-0.0008649454
69	0xb7c9d62e	-2.4060802e-05
70	0x38b40bbf	8.585257e-05
71	0x39dae21e	0.0004174867
72	0x390ae751	0.00013246878
73	0xb99dd924	-0.00030107156
74	0x3a016181	0.00049354887
75	0x39be167d	0.0003625638
76	0xb8f312b9	-0.0001159063
77	0xba9837a9	-0.0011613268
78	0x3cff2364	0.031144805
79	0x3ba86c27	0.005139846
80	0xbb627250	-0.0034553
81	0xba6464a5	-0.0008712507
82	0x3c4428fc	0.011972662
83	0xbbd39850	-0.006457366
84	0x388a62ed	6.598779e-05
85	0xbad5c829	-0.0016310263
86	0xba9260f4	-0.001116781
87	0x3a028b22	0.0004979839
88	0xbb2ed661	-0.0026678073
89	0x3b3f5675	0.002919582
90	0xbb44a601	-0.0030006173
91	0xba8c426e	-0.001070095
92	0x3b2ce97f	0.0026384292
93	0xbb00e274	-0.0019666227
94	0xba97089b	-0.001152295
95	0xbb4fe239	-0.0031720533
96	0x3a5527c9	0.00081312336
97	0xba7058fe	-0.00091685343
98	0x3b057c8e	0.002036843
99	0xbaae75fa	-0.0013310306
100	0x39abac84	0.00032744196
101	0x3a8c8e74	0.0010723607
102	0xb991b88c	-0.00027794053
103	0x3a46c772	0.000758282
104	0xb952a6b3	-0.00020089261
105	0x3a45401c	0.00075245067
106	0xb9a25201	-0.00030960146
107	0xbad8d39b	-0.0016542556
108	0xb9a9c1d2	-0.000323786
109	0xb9742de8	-0.00023286755
110	0x3a00890e	0.0004903235
111	0xb94e8282	-0.00019694309
112	0xb9b1e105	-0.00033927723
113	0x3a38d462	0.00070506905
114	0x39b3eba8	0.00034317118
115	0x391dd057	0.000150503
116	0xb9c58e0d	-0.00037680604
117	0x3b4d120c	0.0031291274
118	0x3ba89973	0.0051452457
119	0xbb68a8cc	-0.0035501001
120	0x3ae00239	0.0017090506
121	0xbb40dac7	-0.0029427276
122	0xba82c122	-0.0009975771
123	0x3920e560	0.00015344238
124	0xbb15bbab	-0.0022847455
125	0xba451428	-0.0007517957
126	0xbb57d50a	-0.0032933378
127	0xbb81bfd2	-0.0039596343
128	0x39000fbc	0.00012212893
129	0x38ad188b	8.253854e-05
130	0x3ae574dc	0.001750614
131	0xbab960bc	-0.0014143209
132	0x3ac38050	0.001491556
133	0x3ad1c1fa	0.0016003244
134	0xbaa3abb1	-0.0012487081
135	0xba873e70	-0.001031829
136	0xba815acd	-0.000986898
137	0xbb24fd64	-0.0025175447
138	0x3a8901b4	0.0010452778
139	0xb969d66a	-0.00022300487
140	0x3a12a557	0.00055940956
141	0xba8a3e1f	-0.0010547078
142	0xbb4202c4	-0.00296037
143	0x3a1c6c2a	0.00059670454
144	0xb92b375b	-0.00016328452
145	0x3a3a1486	0.0007098395
146	0xba8dbab3	-0.0010813087
147	0xb967bb03	-0.00022099544
148	0xba36a407	-0.0006967191
149	0xba2742d5	-0.0006380503
150	0xba73024a	-0.00092700555
151	0xbad78f1e	-0.001644585
152	0xbaedad1a	-0.0018133253
153	0xba52dc46	-0.00080436876
154	0xbab7e00b	-0.0014028562
155	0xb9a0f1dd	-0.0003069778
156	0xbd11b171	-0.035569612
157	0xbbcf8884	-0.0063334126
158	0xbc27f23c	-0.010250624
159	0xbc02e2f9	-0.007988685
160	0x3c6feb84	0.014643554
161	0xbba37c22	-0.004989163
162	0x3b347e36	0.0027541048
163	0xbae359fe	-0.0017345545
164	0xba335478	-0.0006840895
165	0x3b294b86	0.002583237
166	0xbb4eab24	-0.0031535113
167	0xbba553de	-0.005045398
168	0x3b834624	0.004006164
169	0x3b666f3e	0.003516152
170	0x3a77dd01	0.00094552344
171	0xbaf6a85c	-0.0018818486
172	0xbb911261	-0.0044272398
173	0xbc117e6b	-0.008880238
174	0xbb1628e1	-0.002291255
175	0xbc095c4a	-0.00838382
176	0x3a44ccd6	0.00075073296
177	0x39123af0	0.00013945601
178	0xbae3367f	-0.0017334967
179	0xbb653c64	-0.0034978623
180	0xb99d41ba	-0.00029994344
181	0x3bdee946	0.0068027107
182	0x3b21dd5b	0.0024698589
183	0xb9658d70	-0.00021891831
184	0x3aef4e25	0.0018257542
185	0xbb8e96ce	-0.0043514734
186	0xbb9b8ea5	-0.004747229
187	0xbb5d1bcc	-0.0033738492
188	0x3b375115	0.0027971913
189	0xbb59a606	-0.003321053
190	0xb9b2904c	-0.00034058315
191	0x3b75ae09	0.0037487766
192	0x3acd684e	0.0015671344
193	0x3a8f3e1c	0.0010928544
194	0xbb31abc3	-0.0027110435
195	0x3c26b83d	0.010175762
196	0x3ba5cafd	0.0050595985
197	0x3aec151d	0.0018011663
198	0x3a113404	0.0005539062
199	0xbc8502d1	-0.016236695
200	0xbbe0bd42	-0.006858499
201	0x3a61e0d8	0.0008616573
202	0xb7d9db40	-2.5970512e-05
203	0x3a98ced7	0.0011658323
204	0xbb029d42	-0.0019930159
205	0xbb013777	-0.0019716898
206	0x3af4786a	0.0018651609
207	0xb9c19510	-0.0003692289
208	0x3b739886	0.0037169768
209	0xbac41d59	-0.001496236
210	0x3b9174c0	0.0044389665
211	0x3ac20be3	0.0014804568
212	0xbab7bbd6	-0.0014017771
213	0xb998345c	-0.0002903071
214	0x3a13160a	0.0005610889
215	0xba6df2c6	-0.00090770086
216	0x3b0ea1ac	0.0021763844
217	0x39eff0b5	0.00045764973
218	0x39de26f0	0.0004237215
219	0xb9b616a7	-0.00034730622
220	0xbbcc8a82	-0.0062420974
221	0xba9f4f14	-0.0012154304
222	0xbacc634b	-0.0015593556
223	0xbb0980c5	-0.0020981294
224	0xb942d95a	-0.00018582252
225	0x3aea11a8	0.0017858045
226	0x3a858f1d	0.0010189746
227	0xbb1783a3	-0.0023119233
228	0x3aa90095	0.001289385
229	0xba21a385	-0.0006166029
230	0xbb224bce	-0.0024764421
231	0xbb0f89a2	-0.0021902104
232	0xbb1f10cc	-0.0024271486
233	0xb9ccdf08	-0.00039076083
234	0xbcaae6ed	-0.020862067
235	0x3c84da58	0.016217396
236	0xbc8402a5	-0.016114542
237	0x3b7b28aa	0.0038323798
238	0xbc35dc8e	-0.011099948
239	0xb634e800	-2.6957132e-06
240	0x3b64d511	0.0034917037
241	0xbb6f4bd6	-0.0036513708
242	0xbbd4bc2e	-0.0064921593
243	0xbb7cf4d3	-0.0038598075
244	0xbbdcdf82	-0.0067405114
245	0xbbcf6b78	-0.00632995
246	0x3afb6209	0.0019178997
247	0x3bff39b2	0.0077888602
248	0xba0780ad	-0.00051690155
249	0x3b58c06d	0.003307368
250	0xbb9f2306	-0.00485647
251	0xbb3a5270	-0.0028430484
252	0xbae163bf	-0.0017195864
253	0xbbc4401f	-0.005989089
254	0xbc2ef5a5	-0.010678683
255	0x3a7f632e	0.0009742257

momentum_buffer f4 [80]
0	0xbd32dda4	-0.043668404
1	0xbce618b2	-0.028087948
2	0xbd23e7fb	-0.040016156
3	0xbcbf815a	-0.02337711
4	0x3e0b3d81	0.1359768
5	0xbda7ddd2	-0.08196606
6	0x3d05e34e	0.032687478
7	0x3cd54ed8	0.026038572
8	0xbd7064c4	-0.058689848
9	0xbcfcbc1e	-0.03085142
10	0x3df5f740	0.1201005
11	0x3d4b9388	0.049701244
12	0x3c80ff13	0.015746629
13	0x3c870658	0.016482517
14	0x3d41695b	0.047219615
15	0xbadcd6aa	-0.0016848643
16	0xbdb5a17c	-0.08868691
17	0xba22fd47	-0.0006217551
18	0xb9b88168	-0.0003519163
19	0xbcdc280c	-0.026874565
20	0xbc9ce657	-0.019152803
21	0xbd23b428	-0.039966732
22	0x3ac5f213	0.0015102051
23	0xbbb20714	-0.0054329727
24	0xbc1de938	-0.009638123
25	0x3e022978	0.12711132
26	0xbd0bffbf	-0.034179445
27	0xb9fff3b2	-0.00048818957
28	0xbce744b4	-0.028231002
29	0xb88cc12b	-6.7117006e-05
30	0x3cbbd4de	0.022928651
31	0x3d026564	0.031834975
32	0x3710af50	8.623887e-06
33	0xbd9bcff6	-0.07608025
34	0xbcc1b786	-0.023647081
35	0x3db6c441	0.08924151
36	0xbc8badff	-0.017050741
37	0x3dfe91fd	0.12430189
38	0x3db97c43	0.09056904
39	0x3800a177	3.0667954e-05
40	0x3dcc1ef7	0.099668436
41	0x3dcb0211	0.099125035
42	0xbcba6cfb	-0.022757044
43	0xbc40a411	-0.0117578665
44	0x3b1bf196	0.002379512
45	0x3c85afea	0.016319234
46	0x3afa6610	0.0019103903
47	0xbc59ede5	-0.013301347
48	0xbde3252f	-0.110910766
49	0xbd66da44	-0.056360498
50	0x3910c5e5	0.00013806632
51	0xbaaec609	-0.0013334166
52	0xbd1c6e29	-0.038190994
53	0x3b9b39c0	0.004737109
54	0xbd020d52	-0.031750984
55	0x3b8e9db0	0.004352294
56	0x3d87526a	0.06607516
57	0xbac6e368	-0.0015173974
58	0xba6298ff	-0.0008644014
59	0xbb42a124	-0.0029698098
60	0xbd1af59c	-0.037831888
61	0xbba4e072	-0.005031639
62	0xbdbb2a9a	-0.09138985
63	0x3b9607fc	0.0045785885
64	0x3dc0c712	0.0941297
65	0xbca727cd	-0.02040472
66	0xbc81bb70	-0.015836447
67	0x3d93540a	0.071937636
68	0xb6d43e59	-6.3253506e-06
69	0xbd195840	-0.037437677
70	0x3a0edced	0.00054497906
71	0xbc78e3c2	-0.01519102
72	0x3d1ecaa0	0.038767457
73	0xbd306aaf	-0.04307049
74	0xbc0d889c	-0.008638527
75	0xb8b74fe7	-8.741003e-05
76	0xbaadc3a1	-0.0013257154
77	0xbdb3de75	-0.08782665
78	0xb9d9656c	-0.0004146503
79	0xbd723dd2	-0.059140988

momentum_buffer f4 [5, 80]
0	0x3c89397e	0.016751047
1	0x3aadcd3c	0.0013260017
2	0x3af2425e	0.0018482914
3	0x3b6452e6	0.003483945
4	0xbcd77bfa	-0.026304234
5	0x3c010fae	0.0078772735
6	0xbc53c70e	-0.012925876
7	0xbbf030b2	-0.0073300237
8	0x3a8bdc44	0.0010670503
9	0xbc5b35a6	-0.01337949
10	0xbcb50623	-0.022097653
11	0xbd08d8d7	-0.03340992
12	0xbca1ab57	-0.019735022
13	0x381b63c0	3.704778e-05
14	0xbb860d04	-0.004090907
15	0x3aca99a3	0.0015457164
16	0x3cbaa584	0.022784002
17	0xb7fede46	-3.0382664e-05
18	0xbabcde5a	-0.0014409528
19	0x3b6bb849	0.0035967997
20	0xbb5bfc61	-0.0033567178
21	0x3c018d24	0.007907186
22	0x3ab019e8	0.0013435455
23	0xbbfcc5d7	-0.007714014
24	0x3b2882b6	0.0025712675
25	0xbcd35940	-0.025799394
26	0x3bafcb7b	0.005364833
27	0xba331546	-0.0006831478
28	0x3a660fe7	0.00087761733
29	0xb85b6e87	-5.2316605e-05
30	0x3b3e9ce8	0.0029085223
31	0x3c814fe4	0.015785165
32	0xb41bf0a4	-1.4523044e-07
33	0xbbe0d756	-0.0068616075
34	0xbbd019a6	-0.006350714
35	0xbb793ea0	-0.0038031712
36	0xbc35d6bb	-0.011098559
37	0x3b25be40	0.00252904
38	0xbc8ee223	-0.017441815
39	0x378d582b	1.6849566e-05
40	0xbcdf4ef4	-0.027259327
41	0xbcaf6c79	-0.021414028
42	0xb9f337ba	-0.0004639009
43	0xbb977270	-0.0046217963
44	0xb9d48144	-0.000405321
45	0xbc06e173	-0.008232462
46	0xb9331117	-0.00017077137
47	0x3c3adbe2	0.011404963
48	0xbba379cc	-0.0049888846
49	0x3b453b1c	0.0030095046
50	0x3a5186ca	0.00079928024
51	0xbca10ef0	-0.019660443
52	0x3b2c30a0	0.00262741
53	0x3d0934d1	0.033497635
54	0xbb655a26	-0.003499636
55	0xba1f74f0	-0.00060827937
56	0xb9fc2480	-0.0004809238
57	0xbcfd4762	-0.030917827
58	0x394ba642	0.00019421524
59	0x38e1afc0	0.00010761572
60	0x3c16c1ab	0.0092014475
61	0xbbe41eb8	-0.00696167
62	0x3b8d5170	0.0043126866
63	0x3c28a6b8	0.010293655
64	0xbca1551d	-0.019693905
65	0x3b0ce93c	0.0021501323
66	0x3c9fce84	0.019507654
67	0x3cb77f5a	0.022399593
68	0xba27b652	-0.0006397712
69	0xbb249bbe	-0.0025117244
70	0xb7ead7c4	-2.7995447e-05
71	0x3ca9c62a	0.020724375
72	0x3ca2410c	0.019806407
73	0x3c370266	0.011170005
74	0x3b771891	0.0037703852
75	0x39da36e3	0.00041621094
76	0xb9f97ae0	-0.0004758453
77	0xba86c7ac	-0.0010282896
78	0xbcd38837	-0.025821788
79	0x3c21b750	0.009870365
80	0xbb8796fa	-0.004137871
81	0x3b039e31	0.0020083303
82	0x3aebadc7	0.0017980867
83	0xbb202d73	-0.0024441152
84	0x3c1b399e	0.009474186
85	0x3be6faa1	0.0070489203
86	0x3c32c6ec	0.0109116845
87	0x3c65ea70	0.014032945
88	0xbb938bc9	-0.0045027477
89	0x3be9eb0f	0.007138617
90	0x3c26bcd3	0.010176855
91	0x3cfe2886	0.031025182
92	0x3c663c7a	0.014052505
93	0xbc89ba18	-0.01681237
94	0x3bf93ae6	0.007605898
95	0x39e540a7	0.00043726453
96	0x3b87d9e2	0.0041458467
97	0xb84a4291	-4.8222548e-05
98	0x3a223eb0	0.0006189151
99	0x3b0ec84d	0.002178687
100	0xbba293a6	-0.0049614487
101	0x3bf2ddc2	0.0074116895
102	0x39a88afd	0.0003214701
103	0x3bf72c24	0.007543104
104	0x3bfb52ca	0.0076697813
105	0x3c349d63	0.011023852
106	0xbba2b223	-0.004965083
107	0x3a8187b0	0.0009882357
108	0x3af284fb	0.0018502766
109	0x39331146	0.00017077205
110	0xbc274bd4	-0.01021095
111	0xbc8be18b	-0.01707532
112	0x339ce0f2	7.3052334e-08
113	0xbca21d34	-0.019789316
114	0xbc263375	-0.010144104
115	0x3cc966dc	0.02458518
116	0x3c45a4b2	0.012063192
117	0x3c5cf130	0.013485238
118	0x3b18eaff	0.0023333428
119	0xb66aa167	-3.4962666e-06
120	0xbb61392a	-0.0034366348
121	0xbc05e854	-0.008173067
122	0x3b3a6aec	0.0028445078
123	0x3b13ad69	0.002253378
124	0xbb6066e4	-0.0034241015
125	0x3c45cd94	0.012072939
126	0x3a2dacd9	0.00066251826
127	0xbaf4e7f4	-0.001868485
128	0xbc7ed466	-0.015553569
129	0xbc86b50a	-0.016443748
130	0x397b6ddc	0.00023978151
131	0x3ccb3c72	0.024809096
132	0x3c90c81f	0.01767355
133	0xbbb8a7b4	-0.005635226
134	0x3caee786	0.021350633
135	0x3bcb701c	0.006208433
136	0x3cd77dc6	0.02630509
137	0x3d02a689	0.0318971
138	0xb9351a28	-0.00017271249
139	0x3bfd54fc	0.007731078
140	0xba3e8dae	-0.0007269037
141	0x3b80cdd1	0.003930785
142	0x3c3cadd2	0.011516051
143	0xba43d702	-0.00074706983
144	0xbb9208a7	-0.004456598
145	0xbb63d65f	-0.0034765226
146	0xbbc612b0	-0.006044708
147	0xbb8010a0	-0.003908232
148	0x3990b14d	0.0002759792
149	0xbc1e0c0e	-0.009646429
150	0xb63a6ef6	-2.7780748e-06
151	0x382de700	4.146155e-05
152	0xbc803510	-0.015650302
153	0x3be6acbd	0.007039635
154	0xbbd539a9	-0.0065071178
155	0x392d3a68	0.00016520324
156	0x398d86b3	0.00026993974
157	0xbc59a9d8	-0.013285123
158	0x3c9ddf49	0.01927151
159	0xbb35b31e	-0.002772517
160	0xb729c000	-1.0117888e-05
161	0xbc4400e7	-0.011963106
162	0xbc85b5ff	-0.016322134
163	0x3b8be2b4	0.0042689685
164	0x3c412132	0.0117877
165	0x3ce4c56a	0.027926166
166	0x3c054449	0.008133956
167	0xbafd80ac	-0.0019340715
168	0x3af93820	0.0019013919
169	0x3957b9d0	0.00020573218
170	0x3c85c566	0.016329478
171	0xbafb3404	-0.0019165282
172	0x3b64ec04	0.0034930715
173	0x3bf9ed60	0.0076271743
174	0x3b00be95	0.0019644846
175	0xbaf42007	-0.0018625268
176	0x3c160fe4	0.009159062
177	0x3958e747	0.00020685523
178	0xbc1116d0	-0.008855537
179	0xbc77094d	-0.015077901
180	0x3bc1adb8	0.0059106015
181	0x3a99f4cc	0.0011745929
182	0xbb006bfd	-0.0019595616
183	0x3b716c90	0.003683839
184	0xbbace848	-0.0052767135
185	0x3ca34078	0.019928202
186	0xb93d6980	-0.00018063746
187	0x3a93bd87	0.0011271694
188	0xbc835dce	-0.01603594
189	0x398c27d8	0.00026732567
190	0x3cfa844d	0.030580664
191	0xbc19d3b0	-0.009388849
192	0xb5f362cf	-1.8133668e-06
193	0x3c1d5e7b	0.009605045
194	0x3c346f57	0.011012874
195	0x3980da00	0.00024576485
196	0x3b9be439	0.004757431
197	0x3bb160ac	0.0054131355
198	0x3c8d1d95	0.01722602
199	0x37755f03	1.462526e-05
200	0x3c82b5ef	0.015955893
201	0x3ca9288b	0.020649215
202	0xbc09a490	-0.008401051
203	0x3c0661b3	0.008202004
204	0x3b8107d7	0.003937702
205	0xba1a15e8	-0.0005877898
206	0xb9901f53	-0.0002748916
207	0x3b0f9040	0.0021906048
208	0xbba20894	-0.0049448702
209	0x3b6751f8	0.003529666
210	0xbb0a13ca	-0.0021068924
211	0xba86976c	-0.0010268516
212	0x3cc4307c	0.0239489
213	0x3c8c33e6	0.01711459
214	0xbbc3981e	-0.0059690615
215	0x3ca3cfad	0.019996488
216	0x3ba42168	0.005008865
217	0x3b0ff472	0.002196577
218	0x39b74702	0.00034957385
219	0xbb8e896b	-0.0043498776
220	0x3ba5848a	0.0050512003
221	0x3bc3b474	0.0059724394
222	0x3ba7dee6	0.005123007
223	0x3bc2e646	0.005947861
224	0x3ca9a71b	0.020709565
225	0x3c9b7a86	0.018979322
226	0x3caa348f	0.020777015
227	0xbbf8f7e8	-0.007597912
228	0x3b8a5e21	0.004222647
229	0x3bf7ae60	0.007558629
230	0x386524fe	5.4632306e-05
231	0xb876b400	-5.881861e-05
232	0x3ce487f6	0.027896862
233	0xbb3f6860	-0.00292065
234	0xba6abf70	-0.0008954918
235	0xbab8411f	-0.0014057494
236	0x38d1c7b4	0.00010003094
237	0x3bc30ed6	0.0059526963
238	0x3b95ccda	0.0045715393
239	0x38dbdc00	0.00010483712
240	0xbc9e3f77	-0.019317372
241	0x3b87710c	0.0041333493
242	0x3bd01787	0.006350461
243	0xba9bbcf2	-0.0011881872
244	0x3c17b19f	0.009258657
245	0xbbc156e4	-0.0059002507
246	0x3c12df7e	0.0089644175
247	0x3b355e90	0.0027674772
248	0x3b9fdde1	0.004878745
249	0x3bc5b430	0.006033443
250	0x3c12a82e	0.00895123
251	0x3cb071d3	0.02153865
252	0x3c2896d2	0.010289865
253	0xbb815dca	-0.003947948
254	0x3b20e4f6	0.0024550534
255	0xb9f03544	-0.00045816053

momentum_buffer f4 [5]
0	0x3d97c68b	0.07410916
1	0xbcaae64c	-0.020861767
2	0x3e053f22	0.13012365
3	0xbdb01384	-0.08597472
4	0x3e2126d6	0.15737471
