examples/spiking_analysis/outputs/best_model.pth (torch, 133355 bytes, 8 tensors)

enc.lins.0.weight f4 [100, 155]
0	0x3d31415b	0.04327522
1	0xbe7e9602	-0.24861911
2	0x3e93661c	0.2878884
3	0x3d3e89f4	0.04651828
4	0x3ccc3364	0.024926849
5	0xbd07445d	-0.03302418
6	0x3cab6c2c	0.020925604
7	0xbbc45ec9	-0.0059927446
8	0xbb4f377b	-0.0031618762
9	0x3afc7c67	0.0019263149
10	0x3d9c8a3e	0.07643555
11	0xbc623710	-0.013807073
12	0x3d840fe9	0.06448347
13	0x3d890c82	0.06691839
14	0xbcad48d0	-0.021152884
15	0xbda2bf7e	-0.079466805
16	0x3da18fa5	0.07888726
17	0x3d0d5200	0.03450203
18	0xbdaedaff	-0.08537864
19	0xbd97a304	-0.0740414
20	0x3d33349e	0.04375135
21	0x3a6450ee	0.0008709569
22	0x3dbb9e1a	0.09161015
23	0xbd11a649	-0.035558973
24	0xbd5610a5	-0.052261967
25	0xbdf12c19	-0.11775989
26	0x3d89669e	0.06709026
27	0x3d2371c4	0.039903417
28	0xbbf52984	-0.0074817557
29	0xbbd730ae	-0.0065670824
30	0xbcc583e2	-0.024110738
31	0x3da2dcb5	0.07952253
32	0x3dbcdca9	0.09221775
33	0xbd9f52dd	-0.07779477
34	0x3d91c852	0.07118286
35	0xbb8f8fcc	-0.0043811556
36	0xbca2b5d1	-0.019862087
37	0x3c8d93ff	0.017282484
38	0x3b978d8d	0.0046250285
39	0xbd194eb3	-0.03742857
40	0xbc9f8b2b	-0.01947554
41	0x3d9e5fc2	0.07733108
42	0x3b0041b0	0.0019570403
43	0xbbde7393	-0.00678868
44	0x3d989639	0.07450528
45	0xbc6a11b1	-0.0142864445
46	0xbd87a5b8	-0.06623405
47	0xbd18c22a	-0.037294544
48	0x3d7e48a6	0.062081
49	0x3cf3e28e	0.029771116
50	0x3dc3f5a7	0.09568339
51	0x3cb5240c	0.022111915
52	0xb9f01579	-0.00045792366
53	0xbdab23ce	-0.083564386
54	0xbd64bf66	-0.055846594
55	0x3dcd756d	0.10032163
56	0xbc9af98b	-0.01891782
57	0x3d8d48bb	0.06898638
58	0xbcacd3b6	-0.021097045
59	0x3ccb0de2	0.024786893
60	0xbd8f939a	-0.07010575
61	0x3b9c073b	0.004761604
62	0x3d98784f	0.07444822
63	0xbd5ac9cb	-0.0534151
64	0x3d23f88a	0.040031947
65	0x3d2d31f5	0.04228397
66	0xbd7be127	-0.06149402
67	0x3da63e3e	0.081173405
68	0x3c6cae6d	0.014445883
69	0x3becec8c	0.007230347
70	0xbd5a45f8	-0.053289384
71	0x3c946c20	0.018117964
72	0xbcf6a1ab	-0.030106386
73	0x3d8ee05d	0.06976388
74	0xbd64ec85	-0.055889625
75	0xbd7b5529	-0.061360512
76	0xbd60b782	-0.054862507
77	0xbd96bb67	-0.07359963
78	0xbc2af6fc	-0.010434862
79	0xbcce2c59	-0.025167631
80	0xbc42e7ed	-0.011896116
81	0x3d196cb4	0.037457183
82	0xbc026ef5	-0.0079610245
83	0x3d060e3c	0.03272842
84	0x3bce83b0	0.0063023195
85	0xbcbb75d6	-0.022883337
86	0xbd656e3f	-0.056013342
87	0xbdbbf087	-0.09176736
88	0x3d93e292	0.07220949
89	0x3d8eab7c	0.06966302
90	0xbd174a58	-0.036936134
91	0xbd846188	-0.06463915
92	0xbc943f5e	-0.018096622
93	0x3d8cc56f	0.06873595
94	0x3ce6a9fa	0.028157223
95	0xbd97ec6a	-0.07418139
96	0xbc41f391	-0.011837856
97	0xbd7aa3e4	-0.061191455
98	0xbd63ab91	-0.05558354
99	0x3ce7e756	0.028308552
100	0xbc3988ee	-0.0113241505
101	0x3c4ca5b3	0.012490678
102	0xbb3c1c36	-0.0028703338
103	0xbd53fb82	-0.05175353
104	0x3c07bc6e	0.008284671
105	0xbc29a643	-0.010354581
106	0xbd4a0e9c	-0.04933034
107	0xbd43dbe7	-0.047817137
108	0xbd5e98c4	-0.054344907
109	0xbda3b2e8	-0.07993108
110	0x3d949e3b	0.072567426
111	0x3c95154e	0.018198635
112	0x3d55a3c3	0.05215813
113	0x3cda0564	0.026613899
114	0xbd8a5573	-0.067545794
115	0xbd8bf15e	-0.068331465
116	0xbd16b534	-0.036793903
117	0x3cfc5c33	0.030805683
118	0xbccb1546	-0.024790417
119	0x3cb0cc91	0.02158192
120	0x3d9b5905	0.075853385
121	0xbc4f54d9	-0.012654507
122	0xbd38ee90	-0.045149386
123	0xbd1bc46b	-0.038029116
124	0x3d1514c0	0.036396742
125	0xbb106cc6	-0.002203749
126	0xbcec5627	-0.028849674
127	0xbd81e637	-0.06342738
128	0x3bdf0ef7	0.006807204
129	0xbd9c9697	-0.0764591
130	0x3c43fc23	0.01196197
131	0xbda3d87d	-0.08000276
132	0xbdaf0381	-0.0854559
133	0x3d5fce5e	0.054640166
134	0x3d2ba6ba	0.04190705
135	0x3c92f3e2	0.017938558
136	0xba57b044	-0.0008227865
137	0x3d75c51b	0.060002428
138	0xbd5e51bc	-0.054277167
139	0x3d894fb7	0.067046575
140	0xbdab2910	-0.083574414
141	0x3cfee4b9	0.031114923
142	0x3d7d6255	0.061861355
143	0xbc576d05	-0.013148551
144	0x3c2a063c	0.010377463
145	0xbd263616	-0.040578924
146	0xbdc731f7	-0.09726327
147	0xbb9d01b9	-0.004791465
148	0x3d2cd4c6	0.042195104
149	0xbcb03c69	-0.02151318
150	0x3ccb44e7	0.024813129
151	0x3d21b098	0.039475054
152	0x3d0c12ad	0.034197498
153	0xbcf42c43	-0.029806262
154	0x3a3a1574	0.00070985337
155	0x3e932836	0.28741616
156	0x3d8760e2	0.06610276
157	0x3e64a89e	0.22329947
158	0xbe48b990	-0.19602036
159	0xbc7cbbd3	-0.01542564
160	0x3dc8f961	0.0981319
161	0x3d00325d	0.03129803
162	0xbddd2a3e	-0.10799073
163	0xbd27e54d	-0.040990163
164	0x3cf7aa9c	0.03023272
165	0xbd749e5c	-0.059721336
166	0x3dc9d794	0.098555714
167	0x3d8331aa	0.06405957
168	0x3cd26c6f	0.02568647
169	0xbd86b99a	-0.065783694
170	0x3cf06feb	0.029350242
171	0xbd9b4beb	-0.075828396
172	0x3d9a29c5	0.07527498
173	0x3b9747d5	0.0046167173
174	0x3d896dc1	0.06710387
175	0xbc71457e	-0.014726041
176	0x3c6d0fd4	0.014469106
177	0x3d3ae579	0.045629
178	0x3d6a2636	0.057165347
179	0x3d1804b8	0.037113875
180	0xbcc62109	-0.024185674
181	0x3d67629f	0.056490537
182	0xbc4bc45b	-0.0124369515
183	0x3d39f3ee	0.045398645
184	0xbdaba2df	-0.083806746
185	0xbca6f7a1	-0.02038175
186	0x3c8ae125	0.01695306
187	0xb9c0d8c9	-0.0003678261
188	0x3d2e1c9b	0.04250775
189	0xbdeb1f6a	-0.11480601
190	0xbd2670e3	-0.040635
191	0xbd8a6b0b	-0.06758698
192	0xbd832475	-0.06403438
193	0xbc30cc6b	-0.010790925
194	0xbcead5d9	-0.028666424
195	0x3d80c35a	0.0628726
196	0x3d375285	0.04475643
197	0xbd06fd07	-0.03295615
198	0x3d1c489a	0.038155176
199	0x3d8aa948	0.06770569
200	0x3c615f3f	0.013755619
201	0xbce531c8	-0.02797784
202	0xbc98fb21	-0.018674435
203	0x3d5e29d5	0.054239113
204	0x3d675053	0.056473088
205	0x3d3f7b2e	0.046748333
206	0xbd5d327d	-0.054003228
207	0x3d3d7ce4	0.046261683
208	0x3b96759f	0.0045916582
209	0xbd94c113	-0.072633885
210	0xbd4634f7	-0.048390355
211	0xbd909be0	-0.07060981
212	0x3d79e045	0.061004896
213	0xbb792667	-0.0038017274
214	0xbd902431	-0.07038153
215	0xbc1893ee	-0.009312613
216	0xbd9c625a	-0.076359466
217	0xbc8f891f	-0.01752144
218	0x3d94df42	0.072691455
219	0x3da6b10a	0.08139236
220	0xbd98a773	-0.074538134
221	0xbd96b0e4	-0.07357958
222	0xbd96dd98	-0.073664844
223	0xbd0449ab	-0.032296818
224	0xbd52e66f	-0.05148929
225	0x3d28f93e	0.04125332
226	0xbcf7bf08	-0.030242458
227	0xbd29ac5c	-0.04142414
228	0xbdd5fc16	-0.10448472
229	0x3d9f84f4	0.07789031
230	0x3c5a7459	0.0133334035
231	0xbd27794b	-0.04088716
232	0x3d507171	0.050889436
233	0x3d947963	0.07249715
234	0x3d409356	0.04701551
235	0x3cb9c9d2	0.022679243
236	0xbc93bb40	-0.018033624
237	0x3d77a89b	0.06046353
238	0x3d8a162d	0.06742511
239	0xbdabb0b4	-0.08383313
240	0x3ab8335c	0.0014053392
241	0x3d3b1a5c	0.045679435
242	0xbd876879	-0.066117235
243	0xbb67208b	-0.00352672
244	0xbd6aec9c	-0.057354555
245	0xbc4f5794	-0.012655158
246	0x3d7ef0af	0.062241253
247	0xbc7cebe3	-0.015437099
248	0x3d247686	0.040152095
249	0xbc545d73	-0.012961733
250	0xbd27cab2	-0.04096479
251	0x3d234fae	0.03987091
252	0x3d5ad9c6	0.05343034
253	0xbdba1948	-0.09086853
254	0xbd7b4c49	-0.061352048
255	0xbd897aeb	-0.06712898

enc.lins.0.bias f4 [100]
0	0x3dd03337	0.101660185
1	0x3d62e6c0	0.05539584
2	0x3e1c9b6f	0.15293668
3	0xbe8e54ca	-0.27799064
4	0x3e992067	0.29907534
5	0xbb8cdfb4	-0.0042991284
6	0x3dbc623e	0.09198426
7	0x3d9f4c03	0.0777817
8	0x3d67c42a	0.05658356
9	0xbc7205fe	-0.014771936
10	0x3d343e90	0.044004977
11	0x3d90c039	0.070679136
12	0x3df14ad1	0.11781848
13	0x3d40a113	0.047028612
14	0x3e3a7f57	0.18212639
15	0x3dc0607e	0.093934044
16	0xbce88cbc	-0.02838742
17	0x3c6214d2	0.013798909
18	0x3db42b1f	0.08797287
19	0x3e51795a	0.20456448
20	0x3e3e709a	0.18597642
21	0xbe017adc	-0.12644523
22	0xbcd63e7f	-0.026152847
23	0xbe7e1a32	-0.2481468
24	0x3db0b927	0.08629065
25	0x3d9b081d	0.07569907
26	0x3e6b6f2e	0.2299163
27	0xbd7708a0	-0.06031096
28	0x3cecbe92	0.028899465
29	0x3ea15a8f	0.31514403
30	0x3d844d20	0.06460023
31	0x3de0b75a	0.109724715
32	0x3da38c5e	0.07985757
33	0xbd81f552	-0.06345619
34	0x3d3646cb	0.044501107
35	0x3e186f7e	0.14886281
36	0x3d92caa4	0.07167557
37	0x3da3170a	0.07963379
38	0x3e2b597b	0.16733353
39	0x3e19441c	0.14967388
40	0xbdd5e9cf	-0.10444986
41	0xbd0a85bf	-0.033818956
42	0xbd11909b	-0.035538297
43	0x3c6c6f37	0.014430813
44	0xbcc3a2f3	-0.023881411
45	0xbdbe0fcd	-0.092803575
46	0x3e03a9c9	0.12857737
47	0x3e305ae6	0.17222175
48	0xbd10384f	-0.03520995
49	0x3dfcc392	0.123419896
50	0xbd79e17b	-0.06100605
51	0x3d9fcaf5	0.07802383
52	0xbe074653	-0.1321042
53	0xbdd3f365	-0.10349158
54	0x3dd941e8	0.10608274
55	0x3d3584a2	0.04431594
56	0x3d3e0689	0.04639295
57	0x3db112d7	0.086461715
58	0xbd639e61	-0.055570964
59	0xbc91912b	-0.017769417
60	0x3e34a5ad	0.17641325
61	0xbd5c330c	-0.05375962
62	0x3dabae94	0.083829075
63	0x3da829b0	0.08211076
64	0x3de5a1ad	0.11212478
65	0xbedd7dfe	-0.43260187
66	0xbd0e4c29	-0.0347406
67	0xbca6f4d9	-0.020380424
68	0x3e2e0433	0.1699379
69	0x3cdd8416	0.027040523
70	0x3d89e2cd	0.06732712
71	0x3dcf4d34	0.10122147
72	0x3daab83b	0.083359204
73	0x3d1cbb3e	0.038264506
74	0x3d4510a5	0.048111577
75	0x3df72655	0.12067858
76	0xbd541ee1	-0.05178726
77	0x3e18a497	0.14906536
78	0x3dec0643	0.11524632
79	0x3dba023a	0.09082456
80	0x3e3b0584	0.18263823
81	0x3df69267	0.12039643
82	0x3d5cb6cb	0.053885262
83	0xbc2cf2a0	-0.010555893
84	0x3db3d1f9	0.087802835
85	0x3e09c4cf	0.13453983
86	0x3e0df234	0.13861924
87	0x3cb0ea4e	0.0215961
88	0x3e05be11	0.13060786
89	0x3dac44f7	0.084115915
90	0x3df63991	0.12022699
91	0x3ce30992	0.027714524
92	0x3d5def13	0.054183077
93	0x3de0f861	0.109848745
94	0x3eadc62c	0.33940256
95	0xbcd8df26	-0.026473593
96	0x3d5b9a2e	0.053613834
97	0x3da4fe06	0.080562636
98	0x3e46379d	0.19357152
99	0x3d8fec9e	0.07027553

enc.lins.1.weight f4 [6, 100]
0	0xbc9b0eef	-0.01892802
1	0x3e89654c	0.26835096
2	0x3e17a3b4	0.14808542
3	0xbe89e9ee	-0.26936287
4	0xbe9b5bee	-0.30343574
5	0x3e9d9ab1	0.30782083
6	0x3eee73d9	0.4657276
7	0x3ecdcde9	0.4019616
8	0x3cb6a30a	0.02229454
9	0x3db982fe	0.09058188
10	0x3cf1d77b	0.029521694
11	0x3e599474	0.21248037
12	0x3e46f4a6	0.19429263
13	0x3d86c459	0.06580419
14	0x3e1c8de2	0.15288499
15	0x3eaffa16	0.34370488
16	0x3dde1f99	0.108458705
17	0xbe6561a6	-0.22400531
18	0xbe140b0e	-0.14457342
19	0xbe39dd28	-0.1815077
20	0xbc63af6b	-0.013896803
21	0xbcd7c529	-0.02633913
22	0x3e27859b	0.1635956
23	0xbeabcead	-0.3355612
24	0x3d5bbddd	0.053647865
25	0x3e266d28	0.16252577
26	0xbd240408	-0.040042907
27	0x3e625183	0.22101407
28	0x3dfc42cc	0.12317428
29	0xbeabce13	-0.3355566
30	0x3e89ca15	0.2691199
31	0xbe9a7236	-0.3016526
32	0xbe828d15	-0.25498262
33	0xbcfd0d86	-0.030890238
34	0x3e69cdfa	0.2283248
35	0x3ef4363e	0.47697634
36	0xbe2c9ec4	-0.1685744
37	0x3e03d45b	0.12873976
38	0x3e069dcf	0.13146137
39	0xbe219921	-0.1578107
40	0xbccce9d6	-0.025013845
41	0x3cd2b78e	0.025722291
42	0x3ddbbdd6	0.10729568
43	0x3ed4daea	0.41573268
44	0x3eb75f52	0.3581491
45	0xbddd7eeb	-0.10815223
46	0xbe817e83	-0.25291833
47	0x3f452672	0.7701179
48	0x3dfef7fe	0.124496445
49	0x3e2b192f	0.16708826
50	0x3e4504f1	0.19240166
51	0x3e301415	0.1719516
52	0x3d47c80a	0.048774756
53	0x3e8861a7	0.26637003
54	0x3d3e5e31	0.046476547
55	0xbcb666a8	-0.022265747
56	0x3e0acc3f	0.13554476
57	0x3e36a764	0.17837292
58	0xbd3789ae	-0.044809036
59	0xbdb9b92e	-0.09068523
60	0xbe6ea44b	-0.2330486
61	0x3db3c6be	0.087781414
62	0x3e972d1c	0.29526603
63	0xbe70e981	-0.23526575
64	0xbd5b431f	-0.05353081
65	0xbec5ee4f	-0.38658378
66	0xbc5aa08a	-0.01334394
67	0x3c8eb334	0.017419435
68	0x3e7b619a	0.24548951
69	0x3de7cb5e	0.11318086
70	0x3e80f4d1	0.2518678
71	0xbe91cee9	-0.28478172
72	0x3da0f4b7	0.07859176
73	0x3f0ad7e3	0.54235667
74	0x3ea5ba8f	0.32368895
75	0x3e76f2ce	0.2411606
76	0x3ea5846d	0.32327595
77	0x3e5df963	0.21677165
78	0xbd93e8e8	-0.07222158
79	0x3bd23ada	0.006415707
80	0xbea26185	-0.31715026
81	0x3d88e9e4	0.06685236
82	0x3e6bd10b	0.23028962
83	0x3d310bd8	0.043224186
84	0x3f012004	0.50439477
85	0xbe9ab606	-0.30216998
86	0x3e327034	0.17425615
87	0x3ec000c6	0.3750059
88	0xbdd6efa2	-0.10494925
89	0x3f04477b	0.5167157
90	0x3ee3592d	0.44403973
91	0xbe8161ea	-0.25270015
92	0x3e4ff169	0.20306934
93	0xbe9db7ae	-0.308042
94	0xbe4e0b2a	-0.20121446
95	0x3d3e58a9	0.04647127
96	0x3d54487c	0.05182694
97	0x3d93c830	0.07215917
98	0xbdd026aa	-0.101636246
99	0x3eaf5663	0.34245595
100	0xbe554dec	-0.20830506
101	0x3e61b13f	0.2204027
102	0x3d894c78	0.067040384
103	0xbdba4847	-0.09095817
104	0xbe20c6c9	-0.1570083
105	0x3ea9b4b6	0.33145684
106	0xbdbb3dba	-0.09142633
107	0x3d778cf8	0.060437173
108	0x3e872b2a	0.2640012
109	0x3e0ffb0f	0.14060615
110	0x3ee47993	0.44624004
111	0xbd92746e	-0.071511135
112	0x3b9a67e0	0.00471209
113	0x3c368d06	0.011142021
114	0xbe4956b7	-0.19661985
115	0x3d415f8d	0.047210265
116	0x3de090a3	0.10965087
117	0x3de9c6c1	0.114148624
118	0xbdb845b2	-0.08997668
119	0xbee101db	-0.43946728
120	0xbe90e00b	-0.2829593
121	0x3db6a42b	0.08918031
122	0x3ea79db5	0.32737508
123	0x3eb95e6d	0.36204854
124	0x3ee79927	0.45234033
125	0x3e7998e9	0.24374737
126	0xbe69a9ba	-0.22818652
127	0x3e0c80ad	0.13720961
128	0x3e5ff803	0.21871953
129	0xbe8b9504	-0.27262127
130	0x3eb09cc5	0.34494606
131	0x3ea6ca1a	0.32576066
132	0x3e6b197e	0.22958943
133	0x3c48fcf3	0.012267339
134	0x3df3a382	0.11896421
135	0xbe68c532	-0.22731474
136	0xbdbf29b9	-0.0933413
137	0x3dc8315c	0.097750396
138	0xbd9c697f	-0.07637309
139	0xbe8934e2	-0.2679816
140	0x3eb115ed	0.3458704
141	0x3ddb246e	0.10700308
142	0x3e7d59b1	0.24741246
143	0x3e7553b0	0.23957705
144	0x3e597a37	0.21238028
145	0x3d63eff7	0.05564877
146	0xbce02c90	-0.027364999
147	0x3e5328da	0.20621052
148	0x3e3fca4e	0.18729517
149	0xbe477605	-0.19478615
150	0x3eb76db5	0.35825887
151	0xbdd3017c	-0.103030175
152	0x3d00f20e	0.03148084
153	0x3e98bf77	0.29833576
154	0xbc450eb7	-0.012027434
155	0x3df976a9	0.12180836
156	0x3d4fb87f	0.05071306
157	0xbe3c9132	-0.18414763
158	0x3de72316	0.11285989
159	0x3d95a391	0.073065884
160	0x3e08adc9	0.13347544
161	0x3c726ef6	0.014796963
162	0x3e4adfbf	0.19811915
163	0xbdefe4e9	-0.11713583
164	0xbd9c7773	-0.07639971
165	0xbaa1e6fd	-0.0012352165
166	0xbd4f8d2d	-0.050671745
167	0x3dc880a4	0.09790161
168	0xbe51d1b1	-0.20490147
169	0x3e55e58a	0.20888343
170	0x3da213ea	0.079139546
171	0xbdad0193	-0.08447566
172	0x3e04df35	0.12975772
173	0x3eef2de7	0.46714708
174	0xbd52c7f7	-0.051460233
175	0xbe7e3c93	-0.24827795
176	0x3e4fe1f9	0.20301045
177	0xbe98e62f	-0.29863116
178	0x3e1b3551	0.15157057
179	0xbce57ecd	-0.028014565
180	0xbf0b346c	-0.54376864
181	0x3ddeead8	0.10884637
182	0x3baddd82	0.005305947
183	0xbd935e82	-0.0719576
184	0x3ca559a6	0.02018435
185	0xbebb73d8	-0.3661182
186	0xbe964a3a	-0.29353505
187	0x3da592a8	0.08084613
188	0x3ed75b76	0.42061967
189	0x3cd54f67	0.026038839
190	0x3dbc0524	0.09180668
191	0x3d975972	0.07390107
192	0xbd6e1899	-0.058128927
193	0xbe8aa260	-0.27077007
194	0xbea3f558	-0.3202312
195	0x3ea28b70	0.31747007
196	0x3ebc6a78	0.3679998
197	0xbdadda83	-0.084889434
198	0xbd67f79b	-0.05663262
199	0xbe268553	-0.16261797
200	0x3e0edfba	0.13952532
201	0xbd153308	-0.03642562
202	0x3e1c56c3	0.15267472
203	0x3cae5ceb	0.021284541
204	0xbe837db3	-0.25681838
205	0x3d8e3354	0.06943384
206	0xbc38786e	-0.011259181
207	0xbed460ff	-0.41480252
208	0x3e3ada8c	0.18247432
209	0x3f0f2da2	0.55929005
210	0xbe05f7a6	-0.13082752
211	0x3da312cc	0.079625696
212	0x3c257fe7	0.010101295
213	0x3d16a18d	0.03677516
214	0xbd0ee534	-0.034886554
215	0xbd96fd45	-0.07372526
216	0x3dd6a023	0.104797624
217	0x3e7b2fca	0.24529949
218	0x3eaffbd4	0.34371817
219	0xbef3ac81	-0.47592548
220	0x3eca5b2b	0.3952268
221	0x3c394e76	0.01131021
222	0xbe3b275f	-0.18276738
223	0xbe01279b	-0.12612765
224	0x3ebe341b	0.37149128
225	0xbdc9dc5d	-0.09856484
226	0x3e56a30a	0.20960632
227	0xbb954b0b	-0.004556065
228	0xbd65bfb8	-0.05609104
229	0x3e3929f6	0.18082413
230	0xbecdbb17	-0.401818
231	0x3ec086e2	0.37602907
232	0x3e6530d3	0.22381906
233	0xbc98d2c2	-0.018655185
234	0xbe674003	-0.22583012
235	0xbe6cf7fe	-0.23141477
236	0x3e1160fb	0.14197151
237	0x3e9f128d	0.3106884
238	0xbe976fa7	-0.2957737
239	0xbc97e21d	-0.018540436
240	0x3d9b6ef5	0.07589523
241	0xbd3d9e26	-0.0462934
242	0x3eb0a722	0.34502512
243	0x3e8c11f8	0.2735746
244	0x3d854bb5	0.065085806
245	0xbc90d1b4	-0.01767812
246	0x3bcabf28	0.0061873384
247	0xbdfb8efb	-0.12283131
248	0x3cfad801	0.030620577
249	0x3e71c732	0.23611143
250	0xbdab5915	-0.083666004
251	0x3dc28be1	0.09499336
252	0x3c55c62a	0.013047734
253	0xbd8a4336	-0.06751101
254	0xbe5263d5	-0.20545895
255	0x3e035828	0.12826598

enc.lins.1.bias f4 [6]
0	0xbf0f3937	-0.5594668
1	0xbec58a2e	-0.38581985
2	0xbee9ced9	-0.45665625
3	0xbf0e2dbf	-0.55538553
4	0x3f0eabcb	0.55730885
5	0xbed69400	-0.4190979

momentum_buffer f4 [100, 155]
0	0xbd38cf2e	-0.045119457
1	0xbb3f09c0	-0.0029150099
2	0xbb64ef24	-0.0034932578
3	0xba0df200	-0.0005414784
4	0xbb7df041	-0.0038747939
5	0x3c4ab0a0	0.012371212
6	0x3c2a782e	0.01040463
7	0xb9f31e39	-0.0004637109
8	0xbb919153	-0.004442373
9	0x3bdcf9e3	0.006743656
10	0x3b2f7d2c	0.002677749
11	0xbba1e606	-0.004940751
12	0xbb5cccfd	-0.0033691518
13	0xbb4d3271	-0.0031310583
14	0xba110f40	-0.00055335835
15	0x3b384b72	0.002812114
16	0x3baeb21a	0.00533129
17	0xbad2523c	-0.0016046236
18	0xb9f4aadc	-0.00046666607
19	0x392d80d0	0.00016546552
20	0xba6e155a	-0.0009082161
21	0xba33a456	-0.0006852796
22	0xbb5021d5	-0.0031758447
23	0xbb3466b0	-0.0027527027
24	0xbb152748	-0.002275901
25	0x3b2584b8	0.0025256108
26	0x3b49f519	0.0030816256
27	0xbb027c76	-0.001991061
28	0x3b1c9e51	0.0023898075
29	0xba180929	-0.0005799705
30	0xba359a5a	-0.0006927602
31	0xbae3a289	-0.0017367165
32	0x3b8d7e0d	0.004318005
33	0x3b9b3887	0.004736963
34	0x3b701040	0.003663078
35	0xbb136b46	-0.002249436
36	0x3b1b101a	0.002366072
37	0x3b75986c	0.0037474884
38	0xb97e8e20	-0.00024276273
39	0xb84f0310	-4.9355498e-05
40	0xba38699e	-0.0007034781
41	0xbb13a65a	-0.0022529573
42	0xbc2b492a	-0.010454455
43	0x3c0a88b0	0.00845544
44	0x3c8367c6	0.016040694
45	0x39d973cc	0.0004147574
46	0xbba48979	-0.005021271
47	0x3c2f6db2	0.010707306
48	0x3b16f2b2	0.0023032841
49	0xbb0b2f95	-0.0021238078
50	0xba4f55fd	-0.00079092366
51	0xbb9cae54	-0.0047815237
52	0x3c6dfd8c	0.014525782
53	0xba8c6860	-0.0010712259
54	0xbb3871b8	-0.0028143954
55	0x39e8fb56	0.00044437748
56	0x3af4559a	0.0018641234
57	0x3a81092e	0.0009844655
58	0x3b9da3b1	0.0048107733
59	0x3b14f3d1	0.0022728334
60	0xb9552e04	-0.00020330405
61	0x3b6b68d1	0.003592063
62	0x3bb6918c	0.0055715498
63	0xbb73b9f6	-0.0037189699
64	0xb98b09f6	-0.00026519567
65	0xbab01388	-0.0013433555
66	0x3acb0ca5	0.0015491439
67	0xbb1d305c	-0.0023985123
68	0x3b69f552	0.00356992
69	0x3bde75a2	0.0067889253
70	0x3b8593d1	0.004076459
71	0xbb59a2b3	-0.0033208549
72	0x3b59dbca	0.0033242577
73	0x3a43de88	0.00074718194
74	0xba5e3018	-0.00084757945
75	0x3ad93058	0.0016570194
76	0xba3b00ca	-0.00071336015
77	0x3b9fe5d6	0.0048796935
78	0x3b452223	0.0030080162
79	0x3a0051d8	0.0004895008
80	0xbaaa7769	-0.0013005558
81	0x39afc0d7	0.00033522278
82	0x3af8c6d4	0.0018980154
83	0x3a17554f	0.0005772905
84	0xbab0dc98	-0.0013493476
85	0xba2e2844	-0.0006643573
86	0x3b9d76ba	0.004805413
87	0x39c702d4	0.00037958345
88	0xb9da915b	-0.00041688498
89	0x3abbdd3e	0.0014332903
90	0x3acc5266	0.0015588521
91	0xb959a700	-0.00020756945
92	0x38a5cd54	7.9060585e-05
93	0xb981452d	-0.00024656337
94	0x3a22766a	0.00061974546
95	0x38a34c14	7.786616e-05
96	0x3aa2a10e	0.0012407617
97	0x3a66d640	0.00088057294
98	0x3ac5a3a2	0.0015078674
99	0xba4aa972	-0.0007730938
100	0xba100fdc	-0.00054955273
101	0x3898c06c	7.283766e-05
102	0xb9c461ce	-0.00037456903
103	0x39b19cfc	0.00033877033
104	0x3b2b51fc	0.0026141396
105	0xba82f7d4	-0.0009992071
106	0xb9999f15	-0.0002930096
107	0xba5277b1	-0.00080286997
108	0xb9e51a20	-0.00043697748
109	0xbac3a956	-0.0014927785
110	0xba012954	-0.0004927118
111	0xbc0180c2	-0.007904233
112	0xbb0cb4ec	-0.0021470143
113	0x396377e0	0.00021693064
114	0xbbcabc1b	-0.0061869747
115	0xbb1e0532	-0.0024111983
116	0xbbac1340	-0.005251318
117	0x3ac164f3	0.0014754817
118	0x3b1438e2	0.0022616913
119	0xbaa7ca5e	-0.0012801399
120	0x3a3da582	0.00072344404
121	0xba8fe29e	-0.0010977571
122	0xba25b86f	-0.0006321733
123	0xba9e599b	-0.0012081148
124	0xbb11eeb6	-0.0022267527
125	0x3aaaf1e6	0.0013042062
126	0xbb7046ef	-0.0036663373
127	0xbaa04c27	-0.0012229726
128	0xb9dd7464	-0.00042239123
129	0xba2d1c28	-0.0006603622
130	0xba07acb9	-0.0005175579
131	0x3aa40b82	0.0012515637
132	0xb7b699b0	-2.1767657e-05
133	0xba485a80	-0.000764288
134	0x39c003f2	0.00036624033
135	0x38a0abd7	7.661402e-05
136	0x3ae526d8	0.001748289
137	0xba32816c	-0.00068094465
138	0xbad34779	-0.0016119323
139	0xbae6434c	-0.0017567663
140	0x39ff92c6	0.00048746745
141	0xbae382f4	-0.0017357753
142	0x3abdc41d	0.0014478002
143	0x3aab8d92	0.0013088456
144	0x38150fb0	3.553898e-05
145	0xb9fd98c8	-0.0004836975
146	0xba94f862	-0.0011365528
147	0x3a606332	0.0008559703
148	0x3a6980e2	0.00089074497
149	0xbaea99e0	-0.0017898642
150	0x3a0fa4ef	0.0005479594
151	0xb97de630	-0.00024213712
152	0x3a364f28	0.0006954544
153	0xbad5db86	-0.0016316033
154	0x3ac1797a	0.0014760934
155	0xbc906e5c	-0.017630748
156	0x3c44ca89	0.012011179
157	0xba7a2af0	-0.00095431414
158	0xba5013f8	-0.0007937546
159	0xbc05415e	-0.0081332605
160	0x3bc06078	0.005870875
161	0xbc2e7c82	-0.010649802
162	0x3aa73d77	0.0012759407
163	0x3c3f5c82	0.01167977
164	0x3b257cbc	0.002525135
165	0xbb156c35	-0.0022800092
166	0xbb95bdf6	-0.0045697642
167	0x3b826c9d	0.003980233
168	0x3ad07cae	0.0015906298
169	0xbb252363	-0.0025198094
170	0x3b012264	0.0019704336
171	0xba9dd1c9	-0.001204067
172	0xbb4d13ab	-0.003129224
173	0xba4bcd54	-0.0007774432
174	0x39821734	0.0002481282
175	0xbb265200	-0.0025378466
176	0x3ab2cf30	0.0013642069
177	0x39e554f0	0.00043741567
178	0x3a9ff472	0.0012203588
179	0xbb306364	-0.002691471
180	0x3adb1e61	0.0016717428
181	0x3911fd14	0.00013922557
182	0xbb5ee995	-0.0034013737
183	0x3a9d611c	0.001200709
184	0x3926f34c	0.00015921629
185	0xbb769bb6	-0.0037629432
186	0x3a7283be	0.00092511985
187	0x3b6742dc	0.0035287654
188	0xbb96f638	-0.0046069883
189	0xbb3edbb6	-0.0029122657
190	0xb9b978a1	-0.00035375825
191	0x3b317a59	0.0027080982
192	0xba8c8d3b	-0.0010723242
193	0xbb78e5f0	-0.003797885
194	0x38bea518	9.090657e-05
195	0xb938ee48	-0.00017636374
196	0xbb4a945f	-0.003091119
197	0xba9fc553	-0.0012189545
198	0xbb138e63	-0.002251529
199	0x3ba29cc8	0.0049625374
200	0xba203674	-0.000611163
201	0xbadf0e69	-0.0017017844
202	0x3b63dfc4	0.0034770826
203	0xbb978d6c	-0.004625013
204	0xbbcf3042	-0.0063228915
205	0x38ad114e	8.252506e-05
206	0xbb06df84	-0.0020580003
207	0x3bbf91ce	0.0058462387
208	0xbb5cd528	-0.0033696387
209	0xbbb79934	-0.00560298
210	0x39c2dd70	0.00037167547
211	0x3a262984	0.0006338584
212	0x3a41d354	0.0007393856
213	0xbb3636ee	-0.0027803737
214	0x3afd5953	0.0019328989
215	0xbae82678	-0.001771166
216	0x3ae19656	0.0017210941
217	0xba2f2fb4	-0.00066828285
218	0xbb8e4bbc	-0.0043425243
219	0x3abd8d1d	0.0014461611
220	0x3a891f14	0.0010461533
221	0xbaa35c28	-0.0012463378
222	0x3af3fada	0.0018614188
223	0xbb4e5d98	-0.0031488892
224	0xbaf25781	-0.0018489213
225	0xbad3203c	-0.0016107629
226	0xbafac502	-0.0019132199
227	0xba96a807	-0.0011494168
228	0x3ad47240	0.0016208366
229	0xbab18d7b	-0.0013546193
230	0x3b3ddaa4	0.0028969431
231	0x3a1cc154	0.0005979736
232	0xb9a55ef0	-0.00031541986
233	0x3aa65217	0.001268926
234	0xbb415596	-0.0029500476
235	0x3a07f1fe	0.0005185901
236	0xb9d6f639	-0.0004100071
237	0xba888966	-0.0010416924
238	0xbadd81e1	-0.0016899669
239	0x3adc15ba	0.0016791143
240	0xb9afca94	-0.00033529534
241	0x39068aac	0.00012830895
242	0xba0d993e	-0.0005401558
243	0xb98e2fec	-0.00027120055
244	0x3a017ce9	0.00049395725
245	0xbb195ccc	-0.0023401259
246	0xbb35e9b0	-0.0027757697
247	0x3b220ad1	0.0024725685
248	0x3aca87d8	0.0015451862
249	0xbad37098	-0.0016131578
250	0xbb1d82b0	-0.0024034195
251	0xba838bfa	-0.0010036223
252	0x3a10abcb	0.0005518763
253	0x3aca135e	0.0015417149
254	0xba132aba	-0.0005613972
255	0x3a9f2d4c	0.0012144237

momentum_buffer f4 [100]
0	0x3d572a3e	0.05253052
1	0x3d4f4e54	0.05061181
2	0x3d9b1b01	0.0757351
3	0x3d9cecb4	0.07662335
4	0xbe15e546	-0.14638242
5	0x3d35b51e	0.04436218
6	0x3dc02067	0.0938118
7	0x3d6edbf6	0.05831524
8	0x3ca922c8	0.020646468
9	0x3e19ed18	0.1503185
10	0xbda16ea6	-0.07882433
11	0x3d9bc428	0.07605773
12	0x3d3bbc6e	0.045833997
13	0x3d7b220a	0.06131176
14	0x3c854f50	0.01627317
15	0x3daec4c4	0.08533624
16	0x3cc82bed	0.024435008
17	0xbc152d42	-0.009105029
18	0x3e5cc64b	0.21560018
19	0xbd9b1b8a	-0.07573612
20	0x3dc23318	0.094824016
21	0xbc3f83a0	-0.011689097
22	0xbd6383c2	-0.055545576
23	0xbe42fec0	-0.19042492
24	0xbd981f55	-0.07427851
25	0xbd0991f5	-0.03358646
26	0x391e7c00	0.00015114248
27	0x3d97f42b	0.07419618
28	0x3d0e0d16	0.03468045
29	0xbd19d172	-0.03755326
30	0xbe48c1f8	-0.19605243
31	0xbd6e75a1	-0.05821765
32	0xbdb01d09	-0.08599288
33	0xb956286e	-0.00020423692
34	0x3d35e7fe	0.044410698
35	0x3e535056	0.20636114
36	0xbd772c50	-0.060344994
37	0xbda35f43	-0.07977154
38	0xbd178735	-0.036994178
39	0xbd91757a	-0.07102485
40	0xbe18fe3e	-0.14940736
41	0xbc2d4acf	-0.010576918
42	0x3e0bbb0a	0.13645568
43	0x3d721e2e	0.059110813
44	0x3d909406	0.07059483
45	0x3ca1e4f3	0.019762492
46	0xbdf6e8d6	-0.12056129
47	0xbaf223e0	-0.0018473826
48	0xbc0f5572	-0.008748399
49	0x3e1026bc	0.14077276
50	0x3d42b86d	0.047539163
51	0x3e2a6fc4	0.16644198
52	0x3cf1a4c6	0.029497515
53	0xbc87b198	-0.016564175
54	0xbe17ce08	-0.14824688
55	0x3bda4be6	0.00666188
56	0xbd317c1c	-0.04333125
57	0x3ddfbefa	0.10925098
58	0xbb290de8	-0.0025795642
59	0xbc3efa31	-0.01165633
60	0x3cb8f860	0.022579372
61	0x3ac810d8	0.0015263809
62	0xbdb8933c	-0.09012458
63	0xbd83b664	-0.064312726
64	0x3da2e276	0.0795335
65	0x3d679c9c	0.05654584
66	0xbbb81b2b	-0.005618473
67	0x3c6b65b9	0.014367514
68	0x3e083e73	0.13305072
69	0xbdbe4f81	-0.09292508
70	0x3cede8c9	0.029041665
71	0xbe5d40f6	-0.21606812
72	0x3db95bab	0.090506874
73	0xbb88ec90	-0.004178591
74	0x3df053f0	0.1173476
75	0x3e220b98	0.15824735
76	0x3d8ee1ed	0.06976686
77	0x3d9ac359	0.07556791
78	0xbe070395	-0.1318496
79	0x3e2a6055	0.1663831
80	0x3bfb6970	0.0076724812
81	0xbe61e395	-0.22059472
82	0x3d59d348	0.05318001
83	0xbd2ab9da	-0.041681148
84	0x3e2a94aa	0.16658273
85	0xbe103331	-0.14082028
86	0x3e0a63b1	0.13514592
87	0x3d4f821e	0.0506612
88	0xbe8395d2	-0.2570024
89	0x3e5d56e3	0.21615176
90	0x3e1cbf85	0.15307434
91	0xbcac236d	-0.021012986
92	0x3de474f6	0.11155121
93	0x3d97049e	0.073739275
94	0xbe2d2910	-0.16910195
95	0x3ccf28d8	0.02528803
96	0xbe57bee6	-0.21068916
97	0xbd108984	-0.035287395
98	0xbd64e466	-0.05588188
99	0x3d705ab0	0.058680236

momentum_buffer f4 [6, 100]
0	0x3c9e4612	0.019320522
1	0x3ca1c01d	0.019744927
2	0x3d265403	0.040607464
3	0x3c8ba6a2	0.01704723
4	0x3d9265fc	0.07148358
5	0x3ca263a4	0.019822903
6	0x3d0a6686	0.03378918
7	0x3cbaa33c	0.022782914
8	0x3d10362c	0.035207912
9	0x3d3a1cda	0.04543767
10	0x3cf4d72d	0.02988776
11	0x3c486171	0.012230263
12	0x3cd9f592	0.026606355
13	0x3c81fd7e	0.015867945
14	0x3cb7cdec	0.022437058
15	0x3c963bbd	0.018339032
16	0x3cb5ec7c	0.022207491
17	0x3d12a264	0.0357994
18	0x3d93289e	0.071854815
19	0x3d5a0708	0.05322936
20	0x3d74a74e	0.059729867
21	0x3c8cbdcb	0.017180344
22	0x3c82ce60	0.015967548
23	0x3d7940b0	0.060852706
24	0x3d8d2526	0.06891851
25	0x3ce96299	0.028489398
26	0x3d614bfb	0.0550041
27	0x3c0fd931	0.00877981
28	0x3d09f362	0.033679374
29	0x3dadae1a	0.08480473
30	0x3ba39840	0.004992515
31	0x3da7513f	0.08169793
32	0x3d65d0f2	0.05610747
33	0xbaa6ed77	-0.0012735565
34	0x3c9b7764	0.018977828
35	0x3cda5850	0.026653439
36	0x3d73f66e	0.059561186
37	0x3d4408ea	0.047860064
38	0x3ca55bae	0.020185318
39	0x3d0d34f9	0.034474347
40	0x3d61e00a	0.0551453
41	0xbbc494a4	-0.0059991647
42	0x3d155662	0.036459334
43	0x3d0c79a4	0.034295693
44	0x3c0d8e0a	0.008639822
45	0x3bc058d2	0.005869963
46	0x3d0913fd	0.033466328
47	0x3d31907b	0.043350678
48	0x3b6d7e50	0.0036238618
49	0x3cec049e	0.028810795
50	0x3ca641e4	0.020295091
51	0x3cb0ab48	0.021566048
52	0x3c7ab04a	0.01530082
53	0x3cbf199f	0.023327647
54	0x3cfb2dfe	0.03066158
55	0x3cb6dabd	0.0223211
56	0x3b9a4922	0.004708425
57	0x3d175066	0.03694191
58	0x39d58bce	0.00040730688
59	0x3b436584	0.0029815147
60	0x3daa578e	0.08317481
61	0x3b4042ed	0.0029336766
62	0x3c0240e1	0.007950039
63	0x3d6e37b0	0.058158576
64	0x3d09b83a	0.033622958
65	0x3cceaf22	0.025229994
66	0x3b630267	0.0034638883
67	0x3c3ebfc4	0.0116424
68	0x3c84f0ca	0.016228098
69	0x3cb4ee7f	0.02208638
70	0x3c9f382e	0.019435968
71	0x3d2fb711	0.042899195
72	0x3d32c18a	0.043641604
73	0x3cc528c6	0.024067294
74	0x3d122e7c	0.035688862
75	0x3cd0292e	0.025410261
76	0x3c763fd4	0.015029866
77	0x3d3bbfc7	0.04583719
78	0x3d0b71d0	0.034044087
79	0x3d672caf	0.056439098
80	0x3d40e00b	0.047088664
81	0x3c305537	0.010762504
82	0x3c31d92c	0.0108550005
83	0x3bc23274	0.0059264246
84	0x3c9696fe	0.018382546
85	0x3ce36a19	0.027760552
86	0x3d7ef6d8	0.062247127
87	0x3c4dcf6a	0.012561658
88	0x3d429615	0.04750641
89	0x3c930cbc	0.017950408
90	0x3d0a9afe	0.03383922
91	0x3d4e5ede	0.05038344
92	0x3c4f71dc	0.0126614235
93	0x3d467992	0.048455782
94	0x3d8b9bbb	0.068168126
95	0x3cd48120	0.025940478
96	0x3cae1ea4	0.021254845
97	0x3cf2c2b9	0.029633867
98	0x3d3855db	0.045003753
99	0x3c3f8392	0.011689084
100	0xbc9240df	-0.017853199
101	0xbcbc8abd	-0.023015374
102	0xbc93c112	-0.018036399
103	0xbc5f81a5	-0.0136417495
104	0xbd0e5b59	-0.034755085
105	0xbc0e474a	-0.008683989
106	0xbd0ac40d	-0.033878375
107	0xbd0e4ed9	-0.034743164
108	0xbcc20ca5	-0.02368767
109	0xbccf9adc	-0.025342397
110	0xbc8c05a0	-0.017092526
111	0xbc03779a	-0.008024121
112	0xbc9d132a	-0.019174177
113	0xbcb1fdd2	-0.021727476
114	0xbc842f5d	-0.016135866
115	0xbcb48387	-0.022035373
116	0xbcc39338	-0.02387391
117	0xbc958af1	-0.018254729
118	0xbd3d9e24	-0.046293393
119	0xbc30bc2a	-0.010787049
120	0xbc46e27a	-0.012138957
121	0xbd235528	-0.039876133
122	0xbcaa8101	-0.020813467
123	0xbd907140	-0.07052851
124	0xbba40cd4	-0.005006412
125	0xbc99d6a1	-0.0187791
126	0xbc9b1e59	-0.01893537
127	0xbc69f3dc	-0.014279332
128	0xbcc5124d	-0.024056578
129	0xbd01da21	-0.031702165
130	0xbd2e7c07	-0.04259875
131	0xbc1e07c0	-0.009645402
132	0xbbc36dd4	-0.0059640203
133	0xba1a9641	-0.00058970234
134	0xbd1c28fb	-0.03812502
135	0xbcc802ae	-0.02441534
136	0xbcf7ecc6	-0.03026427
137	0xbce584fc	-0.028017513
138	0xbc5f68db	-0.013635839
139	0xbcabca62	-0.020970527
140	0xbd961406	-0.07328038
141	0xbc0e31d3	-0.008678871
142	0xbcc306dd	-0.023806984
143	0xbd192a90	-0.037394106
144	0xbc022a2e	-0.007944627
145	0xbc783829	-0.015150108
146	0xbc97e805	-0.018543253
147	0xbd1f18c3	-0.038841974
148	0xbc4a86dc	-0.012361255
149	0xbc9e284d	-0.019306326
150	0xbd00811c	-0.03137313
151	0xbcdf40ee	-0.02725264
152	0xbc81e784	-0.015857466
153	0xbcf27782	-0.029598001
154	0xbbc27840	-0.005934745
155	0xbc5c1e11	-0.013434903
156	0xbc62585e	-0.013815014
157	0xbd0b9462	-0.034077056
158	0xbb0f83bf	-0.0021898595
159	0xbba3faec	-0.0050042775
160	0xbc9b510c	-0.018959545
161	0xbb36f131	-0.0027914757
162	0xbc964c90	-0.018347055
163	0xbc2717a9	-0.010198512
164	0xbc540b6f	-0.012942179
165	0xbd1e83a8	-0.038699776
166	0xbb88179c	-0.004153205
167	0xbca1fb3a	-0.019773114
168	0xbcb1304c	-0.021629475
169	0xbc843540	-0.016138673
170	0xbc363b04	-0.011122469
171	0xbb202884	-0.0024438212
172	0xbc6ea782	-0.014566304
173	0xbcddde2b	-0.027083477
174	0xbc826bfd	-0.015920633
175	0xbc83989f	-0.016063986
176	0xbc72113e	-0.014774619
177	0xbd2c6bef	-0.04209512
178	0xbce99e96	-0.028518002
179	0xbc3545cd	-0.011064005
180	0xbcdddc52	-0.027082596
181	0xbc9a3629	-0.018824654
182	0xbce53ef0	-0.027984113
183	0xba9f03d1	-0.0012131875
184	0xbcae431e	-0.021272238
185	0x3b84d27f	0.0040534134
186	0xbd8e2070	-0.06939781
187	0xbcb93c89	-0.022611873
188	0x3bc09228	0.005876798
189	0xbcbb6f5c	-0.022880249
190	0xbd561f78	-0.052276105
191	0xbd04ab74	-0.032390073
192	0xbc6151ad	-0.013752383
193	0xbc2c142a	-0.010502854
194	0xbcb3cc66	-0.02194805
195	0xbcec42b2	-0.028840397
196	0xbd819c3e	-0.06328629
197	0x3ba7185a	0.0050993385
198	0xbd0219c0	-0.03176284
199	0xbb519db6	-0.0031984872
200	0x3c599684	0.013280515
201	0x3cae2399	0.021257209
202	0x3d69b3a4	0.057056084
203	0xbac9a449	-0.0015384044
204	0x3d3e5f7c	0.04647778
205	0x3d0e801e	0.03479015
206	0x3cbb3d11	0.022856267
207	0x3d4a7004	0.049423233
208	0x3cce346e	0.025171485
209	0x3c51ce86	0.012805587
210	0x3ce54cf3	0.027990794
211	0x3caceea7	0.021109892
212	0x3ca3c204	0.019989975
213	0x3c3bc76a	0.011461118
214	0x3d146373	0.036227655
215	0x3cfeddbf	0.031111596
216	0x3ca8906e	0.020576682
217	0x3c20b694	0.009809155
218	0x3d150f5d	0.036391605
219	0x3ca2b799	0.019862937
220	0x3cd40898	0.025883004
221	0x3c9e7c13	0.019346273
222	0x3d0c25fd	0.034215916
223	0x3ca41692	0.020030294
224	0x3d2fe493	0.042942595
225	0x3d15539c	0.03645669
226	0x3d0e47d0	0.034736454
227	0x3c953265	0.018212507
228	0x3cf646ce	0.03006306
229	0x3d67ef1c	0.056624517
230	0x3cf76acc	0.030202292
231	0x3d5b3e98	0.05352649
232	0x3d1c5231	0.03816432
233	0x3af59012	0.0018734953
234	0x3ca4d2f1	0.020120116
235	0x3d18b8c2	0.037285574
236	0x3bbc5e67	0.0057485583
237	0x3c926886	0.017872106
238	0x3cc3ba31	0.023892494
239	0x3c13f03f	0.009029447
240	0x3d09992a	0.033593334
241	0x3af99509	0.0019041608
242	0x3cd0d3e4	0.025491662
243	0x3d0e2ef3	0.034712743
244	0x3c15aa4e	0.009134842
245	0x3b7591b2	0.0037470874
246	0x3c9b2de2	0.018942777
247	0x3d0534b7	0.032520976
248	0x3c3397d9	0.010961496
249	0x3c9ac988	0.018894926
250	0x3d149a64	0.03628005
251	0x3cb2d8df	0.021831928
252	0x3b12a6ec	0.0022377325
253	0x3d120b90	0.035655558
254	0x3c87baf4	0.016568638
255	0x3c6aee07	0.014338977

momentum_buffer f4 [6]
0	0x3eb561cd	0.3542618
1	0xbe49b1f2	-0.19696787
2	0x3e8702c6	0.26369303
3	0x3e02bacf	0.12766574
4	0x3e9241c6	0.28565806
5	0x3e96cc64	0.29452813
