examples/RNN_scripts/dms_retrained_2pop.pt (torch_old, 149635 bytes, 11 tensors)

gaussian_basis f4 [7, 4096]
00000000: a82f a5be d8b4 9ebf f530 e73e c9d3 fc3f
00000010: 34e6 af3d 45cb 70be f666 a43c e773 27bf
00000020: 30f8 d5be c2e2 493f 88e5 76bd 1f97 f33f
00000030: 2fbf 54bf cbae 26c0 f60e a8be 7bdc 073e
00000040: 0cbe a1be b9d9 7ebf 0040 653e c5c8 2bbf
00000050: 170e 893f 5696 e23e a5fc 7a3e 36da 9cbf
00000060: 2dc4 2c3e e396 80bd a086 42bf 03e2 85bf
00000070: 31d5 5e3f 61b5 94bf ddc6 13bf 66f7 02bf
00000080: 8736 35bf 7941 e03f 9c60 64bf b2f0 0fbf
00000090: a616 06bf 959e 0540 031b ee3f c902 53be
000000a0: a42b 513e 7dcd d73d 3d44 8f3a b4d9 a8be
000000b0: 5654 6fbf 2c14 76bf 1ab0 92bf 68a6 9e3e
000000c0: d50b 0840 79b8 92be 900f 58bf 1772 403f
000000d0: 2568 583d 3ce0 de3f 118d f93e 4d39 923f
000000e0: 7ce9 bcbe 9094 e03f c30a 4bbe a17a e0bf
000000f0: 9ec9 5f3f f885 0dbf 365b 44bf daea 67bd
00000100: 2dca f5bf 25f6 22bf 4fa3 f93e 71a3 733f
00000110: 513b 223d 6593 06c0 cfff ab3e bcda 713f
00000120: 6340 41bf b854 863f 7942 823f eaa7 a83f
00000130: 3eba cb3f df41 163f 42c9 12be e742 ac3e
00000140: 252d cdbf d2f7 27bf 1694 9cbe 7513 81be
00000150: 1bcb b43f 7b79 ff3f af84 edbe 9701 14bf
00000160: 55ea cb3d fd7a 02be 2c7d 0a3f 9e88 c73d
00000170: 77d4 8b3f a26d 9ebf 281e 01c0 123b 403f
00000180: 7f87 473f d15b 8c3e 0667 95be ae65 183f
00000190: d171 d03f 29de 8d3e aaca 903e e584 25bf
000001a0: 648f adbe c104 57be 3939 88bf 0515 233f
000001b0: c535 43bf 5e50 933f ce01 2e3f e832 efbf
000001c0: 8701 753f e6cb 1bbf e2ef fcbe 81ab 30bf
000001d0: 733e ab3d 0da3 93be 1595 273d 9354 c4bd
000001e0: 1431 4e3e ae62 1940 7217 80bf 615f e9bd
000001f0: c6a5 9f3f f19e 973f 960d 4b40 0284 03c0
00000200: 6e33 a23f c1d4 bfbe 0b06 db3f df26 1a3f
00000210: e602 c83d d77e d53e 5253 74bf 976d dabe
00000220: 8063 1fbf 46c0 4fbe f386 233f b6fa 81be
00000230: 9880 d23e 9a01 10c0 b019 713f bb24 143f
00000240: b19f 92bf b729 ae3d c475 a43f a19f a33f
00000250: 8774 2abe 59bb 603f 5094 a2bf 434c a53f
00000260: 89ff bf3e d866 2a40 1538 01c0 a5ab 293c
00000270: 3413 793d 536a b33e 9eb7 8e3f 6c5d ca3f
00000280: 7270 b3bf c28c 373e aaf4 583f 21d9 afbf
00000290: aff5 d83e ad61 11bf 4024 23be af39 033f
000002a0: a0d0 f2bc d836 aa3f c42b e43e 28a8 ba3d
000002b0: 1bc0 0dbe 6fb3 153f 1df3 8a3f 2632 aabd
000002c0: e1d7 1ac0 5436 d83e 8f3d 873e fbfc 99be
000002d0: 8fbc 1abf f58d 29c0 cdbb 36bf b54a 01be
000002e0: 2358 84bf 6837 95bf bd34 f1bf fa42 8dbf
000002f0: 6e0c 22bf e38c f8be fbe2 63bf 5f8d 343f
00000300: e3d8 383f 9321 523f 3614 0140 3ee5 863f
00000310: 673f 2440 c766 0440 1c2e 9e3e df75 203e
00000320: d2b6 02bf 8273 a83e 4be2 24bf 2817 953f
00000330: ebf4 30bf 45f3 47be 00ed 99bf 334a 5dbf
00000340: eae8 07bf b27d 75bf 591e 9abf c2e4 51bf
00000350: 393f 04bf b651 6ebe 8e84 b8bf 4cee 4dbe
00000360: 6d2a 073f 18e4 91bf df56 20bf a0c6 563d
00000370: 4a07 abbf bd25 a7be 1af3 f63f 2f7a e4bf
00000380: 2f69 a0bf a839 473e defa 26bf 9efd b43f
00000390: 0f41 06bf ff0c 173f 623e a83e 7de0 c0ba
000003a0: 4b9e 913f 2196 793f 5df5 58be 31ed c3bd
000003b0: 8547 d9be 87ff 0c3f 407b e33d 951e b73d
000003c0: 47a3 66be ac79 123f 20fe 96bb 920e 543e
000003d0: 9b15 c5bf a612 b6be 3d99 0fbf d81d e03f
000003e0: 3a46 b53f 6bab 29bf ff7f b53e 960a 6040
000003f0: db61 bdbe 90fa 2cbb c76a 5c3f 1941 9d3e
-0.3226292 -1.2398939 0.4515454 1.9752132 0.0858883 -0.23515041 0.020068627 -0.6541123
-0.41790915 0.7886163 -0.06027749 1.9030493 -0.83104223 -2.6044185 -0.32823914 0.132677
-0.31590307 -0.9955097 0.22387695 -0.67103225 1.0707425 0.44255322 0.24510439 -1.2254093
0.1687171 -0.06278779 -0.7598667 -1.0459598 0.87044054 -1.1617852 -0.57725316 -0.5115875
-0.7078633 1.7519981 -0.89209914 -0.56226647 -0.5237831 2.087804 1.8601993 -0.20606531
0.20426804 0.10537241 0.0010930371 -0.32978594 -0.9348806 -0.9612453 -1.1459992 0.30986333
2.1257222 -0.28656366 -0.84398746 0.7517409 0.052833695 1.7412181 0.48740438 1.1423737
-0.36896884 1.7545338 -0.19828324 -1.7537423 0.8741702 -0.55282545 -0.76701677 -0.056620456
-1.9202324 -0.63656837 0.48757407 0.95171267 0.03960735 -2.1027462 0.33593604 0.9447439
-0.7548887 1.0494604 1.0176536 1.3176243 1.5916212 0.5869426 -0.14334586 0.33644792
-1.6029402 -0.6561252 -0.3058173 -0.25210157 1.4124483 1.9958948 -0.46390292 -0.57814926
0.09956805 -0.12742229 0.5409725 0.097428545 1.0924214 -1.2377207 -2.0174656 0.75090134
0.77941126 0.274138 -0.29180163 0.5953015 1.6284734 0.27708557 0.2827962 -0.64655906
-0.3389846 -0.20997907 -1.0642463 0.6370395 -0.7625392 1.1508901 0.67971504 -1.868741
0.95705456 -0.60858 -0.49401766 -0.69011694 0.083615206 -0.28835335 0.04091366 -0.09586444
0.2013591 2.396648 -1.0007155 -0.11395145 1.2472465 1.184538 3.1727042 -2.054932
1.2671945 -0.37467006 1.7111219 0.6021556 0.09766178 0.41698334 -0.95439637 -0.42661735
-0.622612 -0.2028819 0.6387779 -0.2538659 0.41113734 -2.2500978 0.9417982 0.57868546
-1.1454984 0.0850405 1.2848439 1.278309 -0.16646014 0.8778587 -1.2701511 1.2913898
0.37499645 2.662527 -2.019048 0.010355865 0.06080933 0.35042056 1.1149786 1.580976
-1.401869 0.17924789 0.8474833 -1.3738137 0.42374942 -0.56789666 -0.15931797 0.51259893
-0.029640496 1.3297987 0.4456464 0.091141045 -0.13842814 0.5847692 1.0855442 -0.08310346
-2.4194262 0.4222895 0.26414153 -0.3007582 -0.6044397 -2.6492894 -0.7138031 -0.12626155
-1.0339397 -1.1657534 -1.884422 -1.1036065 -0.63300216 -0.48544988 -0.8901822 0.70528215
0.7220594 0.8208248 2.0168586 1.0538709 2.5663698 2.068773 0.30894554 0.15669964
-0.5106021 0.32900625 -0.64407796 1.1647692 -0.69123715 -0.19526394 -1.2025452 -0.86441344
-0.53089774 -0.9589492 -1.2040511 -0.8198968 -0.5165897 -0.23273358 -1.4415452 -0.20110434
0.5279911 -1.1397734 -0.62632555 0.052435517 -1.33616 -0.3264598 1.9292939 -1.7849787
-1.25321 0.19455588 -0.6522654 1.4139898 -0.5244302 0.59004205 0.32860094 -0.001471534
1.1376432 0.97494704 -0.21187349 -0.09566725 -0.42437378 0.55077404 0.111074924 0.0894138
-0.22523223 0.57216907 -0.004607931 0.20708683 -1.5397218 -0.35561103 -0.560932 1.7509108
1.4162056 -0.6627719 0.35449216 3.500646 -0.3698872 -0.0026394464 0.8610043 0.30713728

supports f4 [2, 4096]
00000000: 0000 803f 0000 803f 0000 803f 0000 803f
00000010: 0000 803f 0000 803f 0000 803f 0000 803f
00000020: 0000 803f 0000 803f 0000 803f 0000 803f
00000030: 0000 803f 0000 803f 0000 803f 0000 803f
00000040: 0000 803f 0000 803f 0000 803f 0000 803f
00000050: 0000 803f 0000 803f 0000 803f 0000 803f
00000060: 0000 803f 0000 803f 0000 803f 0000 803f
00000070: 0000 803f 0000 803f 0000 803f 0000 803f
00000080: 0000 803f 0000 803f 0000 803f 0000 803f
00000090: 0000 803f 0000 803f 0000 803f 0000 803f
000000a0: 0000 803f 0000 803f 0000 803f 0000 803f
000000b0: 0000 803f 0000 803f 0000 803f 0000 803f
000000c0: 0000 803f 0000 803f 0000 803f 0000 803f
000000d0: 0000 803f 0000 803f 0000 803f 0000 803f
000000e0: 0000 803f 0000 803f 0000 803f 0000 803f
000000f0: 0000 803f 0000 803f 0000 803f 0000 803f
00000100: 0000 803f 0000 803f 0000 803f 0000 803f
00000110: 0000 803f 0000 803f 0000 803f 0000 803f
00000120: 0000 803f 0000 803f 0000 803f 0000 803f
00000130: 0000 803f 0000 803f 0000 803f 0000 803f
00000140: 0000 803f 0000 803f 0000 803f 0000 803f
00000150: 0000 803f 0000 803f 0000 803f 0000 803f
00000160: 0000 803f 0000 803f 0000 803f 0000 803f
00000170: 0000 803f 0000 803f 0000 803f 0000 803f
00000180: 0000 803f 0000 803f 0000 803f 0000 803f
00000190: 0000 803f 0000 803f 0000 803f 0000 803f
000001a0: 0000 803f 0000 803f 0000 803f 0000 803f
000001b0: 0000 803f 0000 803f 0000 803f 0000 803f
000001c0: 0000 803f 0000 803f 0000 803f 0000 803f
000001d0: 0000 803f 0000 803f 0000 803f 0000 803f
000001e0: 0000 803f 0000 803f 0000 803f 0000 803f
000001f0: 0000 803f 0000 803f 0000 803f 0000 803f
00000200: 0000 803f 0000 803f 0000 803f 0000 803f
00000210: 0000 803f 0000 803f 0000 803f 0000 803f
00000220: 0000 803f 0000 803f 0000 803f 0000 803f
00000230: 0000 803f 0000 803f 0000 803f 0000 803f
00000240: 0000 803f 0000 803f 0000 803f 0000 803f
00000250: 0000 803f 0000 803f 0000 803f 0000 803f
00000260: 0000 803f 0000 803f 0000 803f 0000 803f
00000270: 0000 803f 0000 803f 0000 803f 0000 803f
00000280: 0000 803f 0000 803f 0000 803f 0000 803f
00000290: 0000 803f 0000 803f 0000 803f 0000 803f
000002a0: 0000 803f 0000 803f 0000 803f 0000 803f
000002b0: 0000 803f 0000 803f 0000 803f 0000 803f
000002c0: 0000 803f 0000 803f 0000 803f 0000 803f
000002d0: 0000 803f 0000 803f 0000 803f 0000 803f
000002e0: 0000 803f 0000 803f 0000 803f 0000 803f
000002f0: 0000 803f 0000 803f 0000 803f 0000 803f
00000300: 0000 803f 0000 803f 0000 803f 0000 803f
00000310: 0000 803f 0000 803f 0000 803f 0000 803f
00000320: 0000 803f 0000 803f 0000 803f 0000 803f
00000330: 0000 803f 0000 803f 0000 803f 0000 803f
00000340: 0000 803f 0000 803f 0000 803f 0000 803f
00000350: 0000 803f 0000 803f 0000 803f 0000 803f
00000360: 0000 803f 0000 803f 0000 803f 0000 803f
00000370: 0000 803f 0000 803f 0000 803f 0000 803f
00000380: 0000 803f 0000 803f 0000 803f 0000 803f
00000390: 0000 803f 0000 803f 0000 803f 0000 803f
000003a0: 0000 803f 0000 803f 0000 803f 0000 803f
000003b0: 0000 803f 0000 803f 0000 803f 0000 803f
000003c0: 0000 803f 0000 803f 0000 803f 0000 803f
000003d0: 0000 803f 0000 803f 0000 803f 0000 803f
000003e0: 0000 803f 0000 803f 0000 803f 0000 803f
000003f0: 0000 803f 0000 803f 0000 803f 0000 803f
1.0 1.0 1.0 1.0 1.0 1.0 1.0 1.0
1.0 1.0 1.0 1.0 1.0 1.0 1.0 1.0
1.0 1.0 1.0 1.0 1.0 1.0 1.0 1.0
1.0 1.0 1.0 1.0 1.0 1.0 1.0 1.0
1.0 1.0 1.0 1.0 1.0 1.0 1.0 1.0
1.0 1.0 1.0 1.0 1.0 1.0 1.0 1.0
1.0 1.0 1.0 1.0 1.0 1.0 1.0 1.0
1.0 1.0 1.0 1.0 1.0 1.0 1.0 1.0
1.0 1.0 1.0 1.0 1.0 1.0 1.0 1.0
1.0 1.0 1.0 1.0 1.0 1.0 1.0 1.0
1.0 1.0 1.0 1.0 1.0 1.0 1.0 1.0
1.0 1.0 1.0 1.0 1.0 1.0 1.0 1.0
1.0 1.0 1.0 1.0 1.0 1.0 1.0 1.0
1.0 1.0 1.0 1.0 1.0 1.0 1.0 1.0
1.0 1.0 1.0 1.0 1.0 1.0 1.0 1.0
1.0 1.0 1.0 1.0 1.0 1.0 1.0 1.0
1.0 1.0 1.0 1.0 1.0 1.0 1.0 1.0
1.0 1.0 1.0 1.0 1.0 1.0 1.0 1.0
1.0 1.0 1.0 1.0 1.0 1.0 1.0 1.0
1.0 1.0 1.0 1.0 1.0 1.0 1.0 1.0
1.0 1.0 1.0 1.0 1.0 1.0 1.0 1.0
1.0 1.0 1.0 1.0 1.0 1.0 1.0 1.0
1.0 1.0 1.0 1.0 1.0 1.0 1.0 1.0
1.0 1.0 1.0 1.0 1.0 1.0 1.0 1.0
1.0 1.0 1.0 1.0 1.0 1.0 1.0 1.0
1.0 1.0 1.0 1.0 1.0 1.0 1.0 1.0
1.0 1.0 1.0 1.0 1.0 1.0 1.0 1.0
1.0 1.0 1.0 1.0 1.0 1.0 1.0 1.0
1.0 1.0 1.0 1.0 1.0 1.0 1.0 1.0
1.0 1.0 1.0 1.0 1.0 1.0 1.0 1.0
1.0 1.0 1.0 1.0 1.0 1.0 1.0 1.0
1.0 1.0 1.0 1.0 1.0 1.0 1.0 1.0

weights f4 [2]
00000000: 0090 3e3f 00e0 823e
0.74438477 0.25561523

wi_weights f4 [2, 2, 7]
00000000: e462 923c fefd b8ba a16c 8abc 2572 6b3f
00000010: 4160 2e3f 9c2a 19be 86df 73bd e0e0 75be
00000020: 3f58 d23c 28dd 19bd 6774 4d3d 8be6 433c
00000030: 39eb 533d bfd3 4e3d 8498 03bc 0ac7 2a3f
00000040: 6121 33bf e24a 363d 0d20 cabd e757 bcbd
00000050: a044 71bd c352 d6bb 36b7 13bd a173 27be
00000060: a384 1fbf ecb2 4f3f f2d0 733d a340 85bd
0.01786942 -0.0014113782 -0.016897501 0.91971046 0.6811562 -0.1495766 -0.05953934 -0.24011564
0.025676845 -0.037564427 0.050159838 0.011956821 0.051737998 0.050494906 -0.008031968 0.6670996
-0.6997281 0.044505008 -0.098693945 -0.091964535 -0.058903337 -0.0065406277 -0.036063395 -0.16352703
-0.6231176 0.8113239 0.059525438 -0.06506469

m_weights f4 [2, 2, 7]
00000000: 87ff 87bb 61f9 143b 6f91 b7b9 a794 0fba
00000010: a80f 2d3b 55d0 783c 9f44 f2bc 33a9 2839
00000020: 9085 fbba cbd5 9cbb cd82 cfb8 93c6 c5bb
00000030: 7681 b73c be96 6dbc d702 31bb 9aea 963b
00000040: efe2 753b 7e6c 1a39 a720 5bba 4f51 9cbc
00000050: 92d9 81bc 23d5 c33a 3e53 19bb 8b9d 013c
00000060: aabe 53bb 61d9 a3bb 1bcd 603b 32be fb3c
-0.0041503343 0.002273165 -0.00035012836 -0.0005477168 0.0026407037 0.015186389 -0.029573737 0.0001608476
-0.0019189585 -0.0047862283 -9.894893e-05 -0.006035635 0.022400599 -0.014501272 -0.002700975 0.0046056034
0.0037519296 0.00014727001 -0.00083590526 -0.01908174 -0.015850816 0.0014940839 -0.0023395563 0.007911096
-0.003230969 -0.005000279 0.003430194 0.03073034

n_weights f4 [2, 2, 7]
00000000: b4d0 953a dc66 c0bb b2fa 91bb b02b f2bb
00000010: 426b 023c b85e 1cbc 1132 8cbc 8fe9 2239
00000020: 8b13 6e3a 16c9 f23b 8462 ddb9 35e4 933a
00000030: 305c 263c 344c 32bd 6f4a 693b 3585 10bc
00000040: d4d1 8aba a447 ec3b 8357 3dbc 2cb8 9d3a
00000050: 0e90 7abc 4123 7fb9 6055 9d3b 2248 80ba
00000060: e2a2 1e3c 36cf 7e3b 69f0 ef3c e890 943c
0.0011429996 -0.005871637 -0.004454934 -0.007390462 0.007960143 -0.009544067 -0.017113717 0.00015536531
0.00090818916 0.007409225 -0.00042225805 0.0011283221 0.010153815 -0.043529704 0.0035597344 -0.0088208215
-0.0010591098 0.0072106887 -0.011556509 0.0012033037 -0.015293134 -0.00024331828 0.0048014373 -0.0009787122
0.009682389 0.0038880832 0.029289441 0.018135503

wo_weights f4 [1, 2, 7]
00000000: 5033 87b9 b9c5 b039 44da f039 a689 ab37
00000010: 7457 0eb9 8956 1db8 e40a 01ba 587d 32ba
00000020: 1394 fe37 ed8e 30ba 3e16 e3b6 d881 1739
00000030: 93c8 a739 20da ccb9
-0.00025787437 0.0003371665 0.00045938988 2.0448886e-05 -0.00013574754 -3.751231e-05 -0.00049225823 -0.0006808839
3.0348112e-05 -0.0006735165 -6.7677165e-06 0.00014448853 0.00032002162 -0.00039072428

wi_biases f4 [2, 2]
00000000: 0000 0000 0000 0000 0000 0000 0000 0000
0.0 0.0 0.0 0.0

m_biases f4 [2, 2]
00000000: 0000 0000 0000 0000 0000 0000 0000 0000
0.0 0.0 0.0 0.0

n_biases f4 [2, 2]
00000000: 0000 0000 0000 0000 0000 0000 0000 0000
0.0 0.0 0.0 0.0

h0_weights f4 [2, 7]
00000000: 0000 0000 0000 0000 0000 0000 0000 0000
00000010: 0000 0000 0000 0000 0000 0000 0000 0000
00000020: 0000 0000 0000 0000 0000 0000 0000 0000
00000030: 0000 0000 0000 0000
0.0 0.0 0.0 0.0 0.0 0.0 0.0 0.0
0.0 0.0 0.0 0.0 0.0 0.0
