examples/RNN_scripts/dms_rank2_500_sampled_1.pt (torch, 25732 bytes, 11 tensors)

gaussian_basis f4 [7, 500]
-0.6883455 0.12424691 1.4365635 -1.751107 0.34368837 -0.9000816 0.9422953 1.4648652
0.6059269 0.23349692 0.8251581 -0.51608664 0.8660671 -0.102843665 -0.7122235 -1.0085824
0.5834051 -0.8839911 0.045163292 -1.5005817 -1.2385368 -1.9078026 -0.21729174 -0.7707324
-0.061477378 1.3994834 0.27103633 0.15279911 1.5220109 0.06870179 0.3344543 -1.5647525
0.689548 -0.712623 0.08032915 -0.31050965 -1.7782402 -1.1972961 2.297128 0.04839143
-0.16146234 0.8663594 0.93909264 -1.5693302 0.4464875 1.0968206 1.9530468 -0.33176246
2.1705024 -1.7636191 -1.4605172 0.49010214 -0.579171 0.8665145 1.3479424 1.0216074
0.55338544 0.16200441 0.03213097 1.9507846 -0.22814448 -0.29708508 0.0112591265 0.51653546
0.5055003 0.14041701 -1.2173848 0.81284785 -0.47364613 0.5794952 0.41789818 -0.9331159
0.35198888 0.9170884 -0.54581034 0.15572025 0.9054999 -2.241178 0.17071019 0.30510646
0.8116458 -1.4761274 0.081585385 -0.20150101 -0.02872475 -0.5203338 -1.7541412 0.047684852
0.33877772 -1.5820858 -0.53890544 -1.2550012 1.330352 0.00923128 -1.3997325 1.373685
1.7118516 2.1481502 -0.47736368 -0.14388555 0.32383814 0.26101854 0.8041011 -0.34040993
-0.12849653 2.5591378 0.54578286 0.48027653 0.8586472 -1.3700064 -0.14328893 1.9800067
0.21770208 0.5618674 1.0224137 -0.5660828 -0.35314426 -1.0591663 -1.6601858 0.15926805
-0.5741337 0.8160688 -0.65917134 -0.25033906 0.54345083 -0.95673037 -0.46797037 0.9798744
-1.2088748 -0.3582506 0.029120056 0.5769853 0.057968795 -0.8403881 -1.6540838 -0.6563993
-0.8943487 -0.18114553 -1.2454214 0.3861059 0.5020694 -0.4488113 0.09291024 0.05504444
-0.71187216 -0.91693854 0.26208538 0.26927114 0.1968953 0.9809637 0.30594972 -0.5101341
-0.14896342 -2.228569 0.649402 -0.14848502 -0.7025791 0.14079593 -0.87001836 0.2826665
0.58098525 -0.7113779 -1.4336946 -1.0678957 0.5235109 -0.34845686 -1.5452106 -0.28045854
1.7794493 0.045935348 -0.57779276 -0.103780106 -0.37820876 0.16833255 -0.35355908 1.2193668
-0.57682043 1.0574635 0.15275277 -0.87025684 -2.2725227 -0.044729065 -0.2807925 -0.7286249
0.43811664 -0.8733579 0.087689735 1.4730924 -1.8500336 0.3261714 -1.670628 -0.5513484
-1.7442896 -0.18140158 0.10563647 0.39682388 -2.2838314 0.4986486 -1.8363693 1.4048994
-0.5994325 -0.5969711 -0.11651923 -1.2400872 -1.2535425 -0.51545507 -1.4228536 1.1850019
-1.0525942 -1.6078864 1.198443 0.16357195 0.03955343 -0.015846062 0.8305904 -0.5924947
0.09684698 2.576305 0.8166449 -0.35795212 0.20640744 1.1920376 -0.53556 0.77622515
0.36010933 0.3226506 0.9422033 0.88583773 0.41562554 1.4316406 0.02212258 -0.25965825
0.4580567 -0.041344456 0.6069321 1.2693638 0.36915815 0.73114306 0.60813606 -0.090864114
0.5120142 -0.27169138 -0.7771983 -1.4573753 0.1692627 -0.048582844 -0.57245016 -1.9393328
1.2856095 1.0683451 -1.152966 0.6492753 -0.39436167 2.0998793 -0.13687083 1.2982585
00000000: 6937 30bf 2a75 fe3d 50e1 b73f 4624 e0bf
00000010: ecf7 af3e bf6b 66bf 443a 713f b480 bb3f
00000020: 061e 1b3f d119 6f3e 903d 533f 411e 04bf
00000030: 93b6 5d3f b39f d2bd 4754 36bf 3a19 81bf
00000040: 095a 153f 3e4d 62bf 25fd 383d 1013 c0bf
00000050: 6088 9ebf e032 f4bf ba81 5ebe b84e 45bf
00000060: b4cf 7bbd 4622 b33f 46c5 8a3e 5f77 1c3e
00000070: 41d1 c23f 86b3 8c3d 983d ab3e cf49 c8bf
00000080: 3886 303f 766e 36bf 9c83 a43d 1ffb 9ebe
00000090: 609d e3bf 0041 99bf 2504 1340 1836 463d
000000a0: 6256 25be bbc9 5d3f 6068 703f d0df c8bf
000000b0: 029a e43e 9e64 8c3f 70fd f93f c5dc a9be
000000c0: 83e9 0a40 45be e1bf 3af2 babf abee fa3e
000000d0: 8d44 14bf e5d3 5d3f 6089 ac3f 08c4 823f
000000e0: abaa 0d3f 7ce4 253e c49b 033d 4fb3 f93f
000000f0: b59e 69be 891b 98be 3378 383c ab3b 043f
00000100: 7868 013f 7ac9 0f3e 44d3 9bbf cc16 503f
00000110: bf81 f2be cc59 143f c0f6 d53e afe0 6ebf
00000120: e337 b43e 4ec6 6a3f 3aba 0bbf 2175 1f3e
00000130: d7ce 673f 766f 0fc0 a7ce 2e3e ea36 9c3e
00000140: 05c8 4f3f bef1 bcbf 3d16 a73d 4856 4ebe
00000150: 2b50 ebbc 9934 05bf b387 e0bf 3151 433d
00000160: 4674 ad3e ca81 cabf b5f5 09bf e1a3 a0bf
00000170: f948 aa3f cb3e 173c 6f2a b3bf e9d4 af3f
00000180: f41d db3f 4b7b 0940 0369 f4be bc56 13be
00000190: 1dce a53e 39a4 853e 92d9 4d3f 364a aebe
000001a0: 9894 03be eac8 2340 6db8 0b3f cee6 f53e
000001b0: 4ed0 5b3f 5f5c afbf 55ba 12be dc70 fd3f
000001c0: 4bed 5e3e 8bd6 0f3f 74de 823f cdea 10bf
000001d0: 53cf b4be c392 87bf f880 d4bf 2a17 233e
000001e0: 6dfa 12bf e3e9 503f 74bf 28bf 712c 80be
000001f0: 981f 0b3f 48ec 74bf d099 efbe 0cd9 7a3f
00000200: 69bc 9abf 9f6c b7be 2f8d ee3c 4fb5 133f
00000210: b070 6d3d ad23 57bf 05b9 d3bf c909 28bf
00000220: 09f4 64bf 377e 39be f869 9fbf acaf c53e
00000230: 9f87 003f 98ca e5be b947 be3d 4776 613d
00000240: 413d 36bf 7cbc 6abf 0e30 863e e8dd 893e
00000250: ec9e 493e 7020 7b3f 71a5 9c3e 2698 02bf
00000260: de89 18be e0a0 0ec0 363f 263f 750c 18be
00000270: 39dc 33bf cf2c 103e 86b9 5ebf aab9 903e
00000280: 73bb 143f dd1c 36bf 4e83 b7bf ceb0 88bf
00000290: cf04 063f f068 b2be 76c9 c5bf 4398 8fbe
000002a0: ffc4 e33f b426 3c3d 3aea 13bf aa8a d4bd
000002b0: 94a4 c1be 5e5f 2c3e b205 b5be 3614 9c3f
000002c0: 81aa 13bf f75a 873f 396b 1c3e 27c9 5ebf
000002d0: 0371 11c0 d335 37bd 09c4 8fbe 2987 3abf
000002e0: d350 e03e 6294 5fbf ad96 b33d 4b8e bc3f
000002f0: e7cd ecbf f0ff a63e 23d7 d5bf 2b25 0dbf
00000300: e244 dfbf 56c1 39be ef57 d83d 802c cb3e
00000310: 4b2a 12c0 df4e ff3e 260e ebbf bed3 b33f
00000320: 6974 19bf 19d3 18bf a2a1 eebd 2dbb 9ebf
00000330: 1574 a0bf ddf4 03bf 1120 b6bf 24ae 973f
00000340: 68bb 86bf 39cf cdbf 9566 993f 687f 273e
00000350: c702 223d 9acf 81bc 93a1 543f bcad 17bf
00000360: b657 c63d 2ee2 2440 a40f 513f 8045 b7be
00000370: 795c 533e b094 983f 761a 09bf b1b6 463f
00000380: 4060 b83e 7632 a53e 3c34 713f 43c6 623f
00000390: dfcc d43e 0040 b73f 6a3a b53c edf1 84be
000003a0: 6886 ea3e ce58 29bd e75f 1b3f 837a a23f
000003b0: 4c02 bd3e 312c 3b3f ceae 1b3f f716 babd
000003c0: 5d13 033f 221b 8bbe 78f6 46bf 468b babf
000003d0: 3453 2d3e cefe 46bd 188c 12bf 0f3c f8bf
000003e0: da8e a43f 88bf 883f 6494 93bf e836 263f
000003f0: c6e9 c9be 6c64 0640 de27 0cbe 562d a63f

supports f4 [2, 500]
1.0 1.0 1.0 1.0 1.0 1.0 1.0 1.0
1.0 1.0 1.0 1.0 1.0 1.0 1.0 1.0
1.0 1.0 1.0 1.0 1.0 1.0 1.0 1.0
1.0 1.0 1.0 1.0 1.0 1.0 1.0 1.0
1.0 1.0 1.0 1.0 1.0 1.0 1.0 1.0
1.0 1.0 1.0 1.0 1.0 1.0 1.0 1.0
1.0 1.0 1.0 1.0 1.0 1.0 1.0 1.0
1.0 1.0 1.0 1.0 1.0 1.0 1.0 1.0
1.0 1.0 1.0 1.0 1.0 1.0 1.0 1.0
1.0 1.0 1.0 1.0 1.0 1.0 1.0 1.0
1.0 1.0 1.0 1.0 1.0 1.0 1.0 1.0
1.0 1.0 1.0 1.0 1.0 1.0 1.0 1.0
1.0 1.0 1.0 1.0 1.0 1.0 1.0 1.0
1.0 1.0 1.0 1.0 1.0 1.0 1.0 1.0
1.0 1.0 1.0 1.0 1.0 1.0 1.0 1.0
1.0 1.0 1.0 1.0 1.0 1.0 1.0 1.0
1.0 1.0 1.0 1.0 1.0 1.0 1.0 1.0
1.0 1.0 1.0 1.0 1.0 1.0 1.0 1.0
1.0 1.0 1.0 1.0 1.0 1.0 1.0 1.0
1.0 1.0 1.0 1.0 1.0 1.0 1.0 1.0
1.0 1.0 1.0 1.0 1.0 1.0 1.0 1.0
1.0 1.0 1.0 1.0 1.0 1.0 1.0 1.0
1.0 1.0 1.0 1.0 1.0 1.0 1.0 1.0
1.0 1.0 1.0 1.0 1.0 1.0 1.0 1.0
1.0 1.0 1.0 1.0 1.0 1.0 1.0 1.0
1.0 1.0 1.0 1.0 1.0 1.0 1.0 1.0
1.0 1.0 1.0 1.0 1.0 1.0 1.0 1.0
1.0 1.0 1.0 1.0 1.0 1.0 1.0 1.0
1.0 1.0 1.0 1.0 1.0 1.0 1.0 1.0
1.0 1.0 1.0 1.0 1.0 1.0 1.0 1.0
1.0 1.0 1.0 1.0 1.0 1.0 1.0 1.0
1.0 1.0 1.0 1.0 1.0 1.0 1.0 1.0
00000000: 0000 803f 0000 803f 0000 803f 0000 803f
00000010: 0000 803f 0000 803f 0000 803f 0000 803f
00000020: 0000 803f 0000 803f 0000 803f 0000 803f
00000030: 0000 803f 0000 803f 0000 803f 0000 803f
00000040: 0000 803f 0000 803f 0000 803f 0000 803f
00000050: 0000 803f 0000 803f 0000 803f 0000 803f
00000060: 0000 803f 0000 803f 0000 803f 0000 803f
00000070: 0000 803f 0000 803f 0000 803f 0000 803f
00000080: 0000 803f 0000 803f 0000 803f 0000 803f
00000090: 0000 803f 0000 803f 0000 803f 0000 803f
000000a0: 0000 803f 0000 803f 0000 803f 0000 803f
000000b0: 0000 803f 0000 803f 0000 803f 0000 803f
000000c0: 0000 803f 0000 803f 0000 803f 0000 803f
000000d0: 0000 803f 0000 803f 0000 803f 0000 803f
000000e0: 0000 803f 0000 803f 0000 803f 0000 803f
000000f0: 0000 803f 0000 803f 0000 803f 0000 803f
00000100: 0000 803f 0000 803f 0000 803f 0000 803f
00000110: 0000 803f 0000 803f 0000 803f 0000 803f
00000120: 0000 803f 0000 803f 0000 803f 0000 803f
00000130: 0000 803f 0000 803f 0000 803f 0000 803f
00000140: 0000 803f 0000 803f 0000 803f 0000 803f
00000150: 0000 803f 0000 803f 0000 803f 0000 803f
00000160: 0000 803f 0000 803f 0000 803f 0000 803f
00000170: 0000 803f 0000 803f 0000 803f 0000 803f
00000180: 0000 803f 0000 803f 0000 803f 0000 803f
00000190: 0000 803f 0000 803f 0000 803f 0000 803f
000001a0: 0000 803f 0000 803f 0000 803f 0000 803f
000001b0: 0000 803f 0000 803f 0000 803f 0000 803f
000001c0: 0000 803f 0000 803f 0000 803f 0000 803f
000001d0: 0000 803f 0000 803f 0000 803f 0000 803f
000001e0: 0000 803f 0000 803f 0000 803f 0000 803f
000001f0: 0000 803f 0000 803f 0000 803f 0000 803f
00000200: 0000 803f 0000 803f 0000 803f 0000 803f
00000210: 0000 803f 0000 803f 0000 803f 0000 803f
00000220: 0000 803f 0000 803f 0000 803f 0000 803f
00000230: 0000 803f 0000 803f 0000 803f 0000 803f
00000240: 0000 803f 0000 803f 0000 803f 0000 803f
00000250: 0000 803f 0000 803f 0000 803f 0000 803f
00000260: 0000 803f 0000 803f 0000 803f 0000 803f
00000270: 0000 803f 0000 803f 0000 803f 0000 803f
00000280: 0000 803f 0000 803f 0000 803f 0000 803f
00000290: 0000 803f 0000 803f 0000 803f 0000 803f
000002a0: 0000 803f 0000 803f 0000 803f 0000 803f
000002b0: 0000 803f 0000 803f 0000 803f 0000 803f
000002c0: 0000 803f 0000 803f 0000 803f 0000 803f
000002d0: 0000 803f 0000 803f 0000 803f 0000 803f
000002e0: 0000 803f 0000 803f 0000 803f 0000 803f
000002f0: 0000 803f 0000 803f 0000 803f 0000 803f
00000300: 0000 803f 0000 803f 0000 803f 0000 803f
00000310: 0000 803f 0000 803f 0000 803f 0000 803f
00000320: 0000 803f 0000 803f 0000 803f 0000 803f
00000330: 0000 803f 0000 803f 0000 803f 0000 803f
00000340: 0000 803f 0000 803f 0000 803f 0000 803f
00000350: 0000 803f 0000 803f 0000 803f 0000 803f
00000360: 0000 803f 0000 803f 0000 803f 0000 803f
00000370: 0000 803f 0000 803f 0000 803f 0000 803f
00000380: 0000 803f 0000 803f 0000 803f 0000 803f
00000390: 0000 803f 0000 803f 0000 803f 0000 803f
000003a0: 0000 803f 0000 803f 0000 803f 0000 803f
000003b0: 0000 803f 0000 803f 0000 803f 0000 803f
000003c0: 0000 803f 0000 803f 0000 803f 0000 803f
000003d0: 0000 803f 0000 803f 0000 803f 0000 803f
000003e0: 0000 803f 0000 803f 0000 803f 0000 803f
000003f0: 0000 803f 0000 803f 0000 803f 0000 803f

weights f8 [2]
0.7680000066757202 0.23199999332427979
00000000: 0000 00c0 7493 e83f 0000 0000 2db2 cd3f

wi_weights f4 [2, 2, 7]
0.040829167 -0.13737074 0.27418998 -1.1035916 -0.13973595 -0.11054477 0.018420257 -0.18654233
0.014840717 -0.021277266 0.036650803 -0.061583467 -0.050005365 -0.04430139 0.0013934226 0.3315358
-0.9056575 -0.3702779 0.20587802 0.03702442 0.0060179336 -0.002789674 -0.0252991 -0.24861054
-0.7082199 -0.15392688 -0.014079518 0.013429547
00000000: 7c3c 273d eaaa 0cbe a162 8c3e 7d42 8dbf
00000010: f116 0fbe 4c65 e2bd 14e6 963c f404 3fbe
00000020: 7b26 733c a94d aebc 271f 163d f23e 7cbd
00000030: 6dd2 4cbd 6075 35bd 81a3 b63a 0fbf a93e
00000040: 2bd9 67bf 1195 bdbe b0d1 523e eba6 173d
00000050: 1632 c53b f7d2 36bb 0f40 cfbc c393 7ebe
00000060: e64d 35bf 029f 1dbe c7ad 66bc 9a07 5c3c

m_weights f4 [2, 2, 7]
-0.26457015 -0.25190386 -0.108884156 -0.06323949 -0.12734386 0.23611465 -1.7411252 0.0001764967
-0.37621778 -0.016535815 0.08822504 -0.33181188 1.5244389 -0.8648412 0.0065353513 0.30050728
0.11865239 -0.054390367 -0.35919765 1.4431934 0.19400913 0.009471442 0.00083477003 -0.37804976
0.2642969 0.06192348 -0.9616273 -1.8272575
00000000: bd75 87be 8bf9 80be a8fe debd b583 81bd
00000010: 6e66 02be 0ac8 713e 31dd debf f911 3939
00000020: 9e9f c0be 1e76 87bc 54af b43d 3fe3 a9be
00000030: d020 c33f 3c66 5dbf 8026 d63b 17dc 993e
00000040: 0600 f33d 6fc8 5ebd c1e8 b7be 90ba b83f
00000050: 54aa 463e 1b2e 1b3c 78d4 5a3a bd8f c1be
00000060: ec51 873e 7aa3 7d3d 352d 76bf 93e3 e9bf

n_weights f4 [2, 2, 7]
0.18202896 0.55140364 0.24677372 0.01770374 0.11329538 -0.24730554 -1.5410824 -0.002295924
0.15559433 -0.23415253 0.09387285 0.41977352 2.0152764 0.62529796 0.01018239 -0.15722832
0.14330764 -0.07652737 1.1688946 0.5295863 -0.08450828 -0.0066968105 0.114765845 0.22878389
-0.2248811 0.31682366 0.5794065 -2.4427302
00000000: cd65 3a3e ca28 0d3f 40b2 7c3e 6f07 913c
00000010: 6807 e83d aa3d 7dbe 3042 c5bf 3677 16bb
00000020: 1f54 1f3e aec5 6fbe 6940 c03d 8eec d63e
00000030: 4afa 0040 8713 203f 0ad4 263c 7600 21be
00000040: 3dbf 123e 62ba 9cbd 579e 953f f892 073f
00000050: ad12 adbd eb70 dbbb 5b0a eb3d 5346 6a3e
00000060: 3b47 66be b636 a23e fc53 143f b155 1cc0

wo_weights f4 [1, 2, 7]
-0.29407147 0.5516691 0.29229537 -0.090999305 0.19872314 -0.32991907 0.61633027 -0.012566378
-0.30863202 0.005506533 -0.083247624 0.7438971 -0.6307673 0.45264664
00000000: 8990 96be 303a 0d3f bda7 953e d85d babd
00000010: 147e 4b3e 27eb a8be d2c7 1d3f 36e3 4dbc
00000020: 0405 9ebe 2670 b43b bb7d aabd 0a70 3e3f
00000030: f779 21bf 4dc1 e73e

wi_biases f4 [2, 2]
0.0 0.0 0.0 0.0
00000000: 0000 0000 0000 0000 0000 0000 0000 0000

m_biases f4 [2, 2]
0.0 0.0 0.0 0.0
00000000: 0000 0000 0000 0000 0000 0000 0000 0000

n_biases f4 [2, 2]
0.0 0.0 0.0 0.0
00000000: 0000 0000 0000 0000 0000 0000 0000 0000

h0_weights f4 [2, 7]
0.0 0.0 0.0 0.0 0.0 0.0 0.0 0.0
0.0 0.0 0.0 0.0 0.0 0.0
00000000: 0000 0000 0000 0000 0000 0000 0000 0000
00000010: 0000 0000 0000 0000 0000 0000 0000 0000
00000020: 0000 0000 0000 0000 0000 0000 0000 0000
00000030: 0000 0000 0000 0000
