examples/RNN_scripts/dms_rank2_500_sampled_2.pt (torch, 25732 bytes, 11 tensors)

gaussian_basis f4 [7, 500]
-0.5792998 -1.1668211 -1.3573631 -1.9028394 0.007459806 -1.0199705 -0.7776695 -1.5522877
-2.171604 -0.6864851 -1.603478 1.244967 -0.486839 0.54937565 0.40128538 -1.4740942
0.39199504 -0.3222659 -0.09798124 0.09837363 0.21699408 -0.37997538 2.0771055 -0.94716704
-1.4436917 -0.51324964 -0.08991178 -1.190849 -0.25639188 1.2620825 -1.9242051 -0.84685236
0.6112666 -1.0755553 0.47909406 -0.92939436 -2.4585075 -1.4664791 -1.066467 1.5478923
-0.15772101 0.123811826 0.31242955 -0.4714222 0.34961388 3.7985682 -0.17383282 -0.3289145
0.30976716 -1.7879425 0.70694673 -1.5857996 0.5652856 -2.3654926 0.4596111 0.6742023
-0.17814162 -0.81650734 -0.2089193 0.6118711 -0.45699683 -0.0779684 -1.1837991 -0.6019961
0.4968875 0.23944806 0.44032395 -0.4876201 -0.73417675 -0.91211945 1.1938148 0.082468465
0.4628171 -1.2827582 1.2292296 -0.85466886 -0.20957245 0.17779101 1.1071886 -0.18376951
0.16778004 -0.011752386 -0.38763028 0.4526367 3.3811665 -1.0097818 -0.7944017 -1.3232094
-0.62372196 1.6486427 -0.8583909 0.4814235 -0.31418324 -0.047127753 2.376901 1.8115798
-0.123084694 1.9227002 -1.7323673 -0.90565866 -0.28435916 0.38411662 -1.0540017 0.4917294
-1.2743926 0.8324473 0.957083 -0.5696388 2.1197848 -1.1258436 0.9059401 -0.32546106
0.7597822 0.07605233 -0.32717636 0.45308885 1.4258082 -0.8419887 -0.25447237 0.33860424
-0.23428607 -0.48130858 0.48596466 -0.6852693 0.86893094 -1.0498995 0.7351514 0.83309907
0.75180495 -0.7458055 0.18916047 1.4216298 -0.52947485 0.4284495 -1.2999963 -1.6336343
0.81118524 1.6242288 -0.52856076 -0.3169135 1.0651715 -0.7073826 -0.08012653 -0.7585182
-1.5475396 0.08859666 -0.5197256 -0.6570695 0.37595943 0.22615413 -0.78086823 1.0784665
0.15233208 0.8925597 1.1232625 -0.627312 -0.2962326 -0.7546697 0.9197014 -1.6880407
0.8256084 0.036027886 -0.4355794 -0.5608093 -0.2988419 0.20414118 -0.17854282 1.1254249
1.8581119 -0.08807301 0.84702194 0.76001585 -0.8591916 -0.18481474 1.0600951 0.29546338
-0.39747357 0.38191354 0.5531314 0.04211661 1.2152001 0.062415205 -2.7817295 0.47625935
-0.5560399 2.1550727 -0.31995517 0.27391693 1.0030679 1.3559104 -2.02209 1.2623708
-0.2721011 -0.6901217 -0.8996884 -1.7043331 0.025771733 0.49124825 -0.84226274 0.6978067
-1.1851689 -1.4870313 0.26801616 -0.96852785 -1.2381015 0.14972802 -0.578885 -1.270394
-0.07485194 -0.45400855 -0.19392928 0.26747993 -1.0498258 -0.90448314 -1.5962536 -0.72376126
0.87342316 -0.53169864 -0.66464263 -1.4159214 -0.40928066 -0.10312158 0.3509084 -0.30300048
-2.5897334 1.3128002 -1.2830642 1.074034 -0.70333385 -1.6518346 0.7102661 0.27581114
0.31921136 -0.8361646 -0.9679037 1.7139982 0.49318528 -1.5865005 -0.037140947 3.114527
-1.4874301 -0.8715286 0.08116532 -0.22755642 -1.1017892 -0.2969459 2.6903214 -1.9711126
0.72025174 -1.2358416 -1.3614469 0.8545415 1.2380785 -0.30049324 -0.16394438 -0.30436945
00000000: fe4c 14bf 655a 95bf 13be adbf 3e90 f3bf
00000010: 6371 f43b 658e 82bf 5915 47bf 5db1 c6bf
00000020: 8ffb 0ac0 7dbd 2fbf c43e cdbf 145b 9f3f
00000030: f642 f9be e2a3 0c3f 4775 cd3e 1eaf bcbf
00000040: 93b3 c83e 0900 a5be 63aa c8bd 1d78 c93d
00000050: b233 5e3e 228c c2be 4cef 0440 8a79 72bf
00000060: e4ca b8bf 5464 03bf ab23 b8bd bd6d 98bf
00000070: cc45 83be eb8b a13f 5a4c f6bf 51cb 58bf
00000080: f87b 1c3f ccab 89bf d14b f53e caec 6dbf
00000090: 3058 1dc0 96b5 bbbf fe81 88bf 5621 c63f
000000a0: 9e81 21be 0e91 fd3d c4f6 9f3e 405e f1be
000000b0: 9700 b33e be1b 7340 3b01 32be 7b67 a8be
000000c0: cd99 9e3e 4ddb e4bf 76fa 343f 7bfb cabf
000000d0: 8fb6 103f 3b64 17c0 2552 eb3e 8698 2c3f
000000e0: c26a 36be a006 51bf f1ee 55be 96a3 1c3f
000000f0: 7dfb e9be e6ad 9fbd bb86 97bf 6b1c 1abf
00000100: 0a68 fe3e df31 753e 2472 e13e 57a9 f9be
00000110: 02f3 3bbf a980 69bf ecce 983f 3ae5 a83d
00000120: 5df6 ec3e 6c31 a4bf 6557 9d3f 94cb 5abf
00000130: 299a 56be d90e 363e 5bb8 8d3f 132e 3cbe
00000140: 88ce 2b3e 148d 40bc 7a77 c6be ffbf e73e
00000150: 0865 5840 8840 81bf e95d 4bbf ed5e a9bf
00000160: 3eac 1fbf b906 d33f 82bf 5bbf 247d f63e
00000170: a0dc a0be 0809 41bd 251f 1840 d9e1 e73f
00000180: d413 fcbd 0a1b f63f 36be ddbf 3fd9 67bf
00000190: 8697 91be efaa c43e 87e9 86bf f5c3 fb3e
000001a0: 4c1f a3bf 441b 553f 6403 753f d9d3 11bf
000001b0: 8eaa 0740 a51b 90bf b1eb 673f d5a2 a6be
000001c0: 1681 423f 53c1 9b3d a983 a7be 43fb e73e
000001d0: e280 b63f 928c 57bf 344a 82be 895d ad3e
000001e0: b0e8 6fbe 146e f6be 5cd0 f83e cf6d 2fbf
000001f0: 4272 5e3f 1b63 86bf e232 3c3f fb45 553f
00000200: 4a76 403f 1ced 3ebf 48b3 413e f7f7 b53f
00000210: aa8b 07bf bc5d db3e 4766 a6bf ee1a d1bf
00000220: d6a9 4f3f bbe6 cf3f c24f 07bf 7c42 a2be
00000230: 8a57 883f 0717 35bf 6119 a4bd 402e 42bf
00000240: c715 c6bf 2a72 b53d bd0c 05bf b535 28bf
00000250: c17d c03e f394 673e fbe6 47bf 310b 8a3f
00000260: f1fc 1b3e cb7e 643f 11c7 8f3f 8597 20bf
00000270: cdab 97be 0932 41bf 8d71 6b3f b811 d8bf
00000280: 125b 533f fa91 133d 4304 dfbe 3391 0fbf
00000290: ce01 99be 630a 513e eed3 36be ec0d 903f
000002a0: 9cd6 ed3f 9f5f b4bd 6ed6 583f 6690 423f
000002b0: fbf3 5bbf 1340 3dbe 32b1 873f fa46 973e
000002c0: a881 cbbe 2c8a c33e 059a 0d3f 7782 2c3d
000002d0: ad8b 9b3f 16a7 7f3d db07 32c0 44d8 f33e
000002e0: a258 0ebf b6ec 0940 2ad1 a3be d73e 8c3e
000002f0: 8764 803f 798e ad3f ec69 01c0 5e95 a13f
00000300: d650 8bbe d1ab 30bf fb51 66bf 9627 dabf
00000310: 3e1f d33c e484 fb3e 889e 57bf 76a3 323f
00000320: 9db3 97bf 0b57 bebf 6a39 893e 71f1 77bf
00000330: 1c7a 9ebf 4d52 193e cf31 14bf 459c a2bf
00000340: f94b 99bd cf73 e8be 6695 46be 21f3 883e
00000350: b160 86bf 358c 67bf 0a52 ccbf 6b48 39bf
00000360: a998 5f3f 671d 08bf 0526 2abf ea3c b5bf
00000370: 3c8d d1be 6831 d3bd 44aa b33e e122 9bbe
00000380: 31be 25c0 d609 a83f 733b a4bf f279 893f
00000390: b00d 34bf 516f d3bf 00d4 353f 1e37 8d3e
000003a0: ac6f a33e e20e 56bf 89c8 77bf 4b64 db3f
000003b0: c882 fc3e 7312 cbbf 1b21 18bd 6954 4740
000003c0: 1c64 bebf 801c 5fbf 013a a63d 8d04 69be
000003d0: 6e07 8dbf 4b09 98be 3a2e 2c40 6b4d fcbf
000003e0: 6b62 383f 0f30 9ebf e443 aebf 3bc3 5a3f
000003f0: 5b79 9e3f 40da 99be 09e1 27be 50d6 9bbe

supports f4 [2, 500]
1.0 1.0 1.0 1.0 1.0 1.0 1.0 1.0
1.0 1.0 1.0 1.0 1.0 1.0 1.0 1.0
1.0 1.0 1.0 1.0 1.0 1.0 1.0 1.0
1.0 1.0 1.0 1.0 1.0 1.0 1.0 1.0
1.0 1.0 1.0 1.0 1.0 1.0 1.0 1.0
1.0 1.0 1.0 1.0 1.0 1.0 1.0 1.0
1.0 1.0 1.0 1.0 1.0 1.0 1.0 1.0
1.0 1.0 1.0 1.0 1.0 1.0 1.0 1.0
1.0 1.0 1.0 1.0 1.0 1.0 1.0 1.0
1.0 1.0 1.0 1.0 1.0 1.0 1.0 1.0
1.0 1.0 1.0 1.0 1.0 1.0 1.0 1.0
1.0 1.0 1.0 1.0 1.0 1.0 1.0 1.0
1.0 1.0 1.0 1.0 1.0 1.0 1.0 1.0
1.0 1.0 1.0 1.0 1.0 1.0 1.0 1.0
1.0 1.0 1.0 1.0 1.0 1.0 1.0 1.0
1.0 1.0 1.0 1.0 1.0 1.0 1.0 1.0
1.0 1.0 1.0 1.0 1.0 1.0 1.0 1.0
1.0 1.0 1.0 1.0 1.0 1.0 1.0 1.0
1.0 1.0 1.0 1.0 1.0 1.0 1.0 1.0
1.0 1.0 1.0 1.0 1.0 1.0 1.0 1.0
1.0 1.0 1.0 1.0 1.0 1.0 1.0 1.0
1.0 1.0 1.0 1.0 1.0 1.0 1.0 1.0
1.0 1.0 1.0 1.0 1.0 1.0 1.0 1.0
1.0 1.0 1.0 1.0 1.0 1.0 1.0 1.0
1.0 1.0 1.0 1.0 1.0 1.0 1.0 1.0
1.0 1.0 1.0 1.0 1.0 1.0 1.0 1.0
1.0 1.0 1.0 1.0 1.0 1.0 1.0 1.0
1.0 1.0 1.0 1.0 1.0 1.0 1.0 1.0
1.0 1.0 1.0 1.0 1.0 1.0 1.0 1.0
1.0 1.0 1.0 1.0 1.0 1.0 1.0 1.0
1.0 1.0 1.0 1.0 1.0 1.0 1.0 1.0
1.0 1.0 1.0 1.0 1.0 1.0 1.0 1.0
00000000: 0000 803f 0000 803f 0000 803f 0000 803f
00000010: 0000 803f 0000 803f 0000 803f 0000 803f
00000020: 0000 803f 0000 803f 0000 803f 0000 803f
00000030: 0000 803f 0000 803f 0000 803f 0000 803f
00000040: 0000 803f 0000 803f 0000 803f 0000 803f
00000050: 0000 803f 0000 803f 0000 803f 0000 803f
00000060: 0000 803f 0000 803f 0000 803f 0000 803f
00000070: 0000 803f 0000 803f 0000 803f 0000 803f
00000080: 0000 803f 0000 803f 0000 803f 0000 803f
00000090: 0000 803f 0000 803f 0000 803f 0000 803f
000000a0: 0000 803f 0000 803f 0000 803f 0000 803f
000000b0: 0000 803f 0000 803f 0000 803f 0000 803f
000000c0: 0000 803f 0000 803f 0000 803f 0000 803f
000000d0: 0000 803f 0000 803f 0000 803f 0000 803f
000000e0: 0000 803f 0000 803f 0000 803f 0000 803f
000000f0: 0000 803f 0000 803f 0000 803f 0000 803f
00000100: 0000 803f 0000 803f 0000 803f 0000 803f
00000110: 0000 803f 0000 803f 0000 803f 0000 803f
00000120: 0000 803f 0000 803f 0000 803f 0000 803f
00000130: 0000 803f 0000 803f 0000 803f 0000 803f
00000140: 0000 803f 0000 803f 0000 803f 0000 803f
00000150: 0000 803f 0000 803f 0000 803f 0000 803f
00000160: 0000 803f 0000 803f 0000 803f 0000 803f
00000170: 0000 803f 0000 803f 0000 803f 0000 803f
00000180: 0000 803f 0000 803f 0000 803f 0000 803f
00000190: 0000 803f 0000 803f 0000 803f 0000 803f
000001a0: 0000 803f 0000 803f 0000 803f 0000 803f
000001b0: 0000 803f 0000 803f 0000 803f 0000 803f
000001c0: 0000 803f 0000 803f 0000 803f 0000 803f
000001d0: 0000 803f 0000 803f 0000 803f 0000 803f
000001e0: 0000 803f 0000 803f 0000 803f 0000 803f
000001f0: 0000 803f 0000 803f 0000 803f 0000 803f
00000200: 0000 803f 0000 803f 0000 803f 0000 803f
00000210: 0000 803f 0000 803f 0000 803f 0000 803f
00000220: 0000 803f 0000 803f 0000 803f 0000 803f
00000230: 0000 803f 0000 803f 0000 803f 0000 803f
00000240: 0000 803f 0000 803f 0000 803f 0000 803f
00000250: 0000 803f 0000 803f 0000 803f 0000 803f
00000260: 0000 803f 0000 803f 0000 803f 0000 803f
00000270: 0000 803f 0000 803f 0000 803f 0000 803f
00000280: 0000 803f 0000 803f 0000 803f 0000 803f
00000290: 0000 803f 0000 803f 0000 803f 0000 803f
000002a0: 0000 803f 0000 803f 0000 803f 0000 803f
000002b0: 0000 803f 0000 803f 0000 803f 0000 803f
000002c0: 0000 803f 0000 803f 0000 803f 0000 803f
000002d0: 0000 803f 0000 803f 0000 803f 0000 803f
000002e0: 0000 803f 0000 803f 0000 803f 0000 803f
000002f0: 0000 803f 0000 803f 0000 803f 0000 803f
00000300: 0000 803f 0000 803f 0000 803f 0000 803f
00000310: 0000 803f 0000 803f 0000 803f 0000 803f
00000320: 0000 803f 0000 803f 0000 803f 0000 803f
00000330: 0000 803f 0000 803f 0000 803f 0000 803f
00000340: 0000 803f 0000 803f 0000 803f 0000 803f
00000350: 0000 803f 0000 803f 0000 803f 0000 803f
00000360: 0000 803f 0000 803f 0000 803f 0000 803f
00000370: 0000 803f 0000 803f 0000 803f 0000 803f
00000380: 0000 803f 0000 803f 0000 803f 0000 803f
00000390: 0000 803f 0000 803f 0000 803f 0000 803f
000003a0: 0000 803f 0000 803f 0000 803f 0000 803f
000003b0: 0000 803f 0000 803f 0000 803f 0000 803f
000003c0: 0000 803f 0000 803f 0000 803f 0000 803f
000003d0: 0000 803f 0000 803f 0000 803f 0000 803f
000003e0: 0000 803f 0000 803f 0000 803f 0000 803f
000003f0: 0000 803f 0000 803f 0000 803f 0000 803f

weights f8 [2]
0.7680000066757202 0.23199999332427979
00000000: 0000 00c0 7493 e83f 0000 0000 2db2 cd3f

wi_weights f4 [2, 2, 7]
0.04086322 -0.13734613 0.2742048 -1.1035593 -0.13974904 -0.11056095 0.018402902 -0.18655059
0.014858538 -0.021298926 0.036669422 -0.06157368 -0.049986474 -0.044284765 0.0014048432 0.33154577
-0.90566677 -0.37027648 0.20587061 0.037016746 0.006014803 -0.002782908 -0.025315028 -0.248611
-0.70822436 -0.15394683 -0.014078936 0.013444056
00000000: 3160 273d 77a4 0cbe 9264 8c3e 6e41 8dbf
00000010: 5f1a 0fbe c86d e2bd afc1 963c 1e07 3fbe
00000020: 3a71 733c 167b aebc ad32 163d af34 7cbd
00000030: 9ebe 4cbd f163 35bd b722 b83a 5ec0 a93e
00000040: c7d9 67bf e194 bdbe bfcf 523e df9e 173d
00000050: d317 c53b 7361 36bb 7661 cfbc e293 7ebe
00000060: 314e 35bf 3da4 1dbe 56ab 66bc 7544 5c3c

m_weights f4 [2, 2, 7]
-0.26453203 -0.2518898 -0.108882956 -0.06321747 -0.12736762 0.23609492 -1.7411499 0.00019473574
-0.37622893 -0.016551804 0.0882357 -0.3318298 1.524461 -0.86482185 0.0065592565 0.30051708
0.11865358 -0.054378763 -0.35921657 1.4431765 0.1939933 0.009488031 0.0008320539 -0.37805524
0.2643018 0.06191105 -0.96160877 -1.8272446
00000000: be70 87be b3f7 80be 07fe debd 2978 81bd
00000010: a86c 02be dec2 713e 00de debf fa31 4c39
00000020: 14a1 c0be a697 87bc ebb4 b43d 98e5 a9be
00000030: 8a21 c33f f764 5dbf 08ef d63b 60dd 993e
00000040: a600 f33d 44bc 5ebd 3ceb b7be 02ba b83f
00000050: 2ea6 463e b073 1b3c 311e 5a3a 7590 c1be
00000060: 9152 873e 7196 7d3d fe2b 76bf 27e3 e9bf

n_weights f4 [2, 2, 7]
0.18201374 0.5514075 0.24677429 0.01768129 0.11327165 -0.24728921 -1.5411077 -0.0022901641
0.15558475 -0.234171 0.09387767 0.4197626 2.0153027 0.62527907 0.010196035 -0.15723433
0.14331473 -0.076508075 1.1689072 0.52957314 -0.084487684 -0.0067091146 0.1147829 0.22881073
-0.22487392 0.31684762 0.57938796 -2.4427114
00000000: cf61 3a3e 0b29 0d3f 66b2 7c3e 5ad8 903c
00000010: f8fa e73d 6239 7dbe 0443 c5bf 9416 16bb
00000020: 9c51 1f3e 86ca 6fbe f042 c03d 20eb d63e
00000030: b8fa 0040 4a12 203f 450d 273c 0902 21be
00000040: 19c1 123e 44b0 9cbd c09e 953f 1b92 073f
00000050: e107 adbd 22d8 dbbb 4c13 eb3d 5c4d 6a3e
00000060: 5945 66be da39 a23e c552 143f 6255 1cc0

wo_weights f4 [1, 2, 7]
-0.29404894 0.551672 0.2923227 -0.09099435 0.19875406 -0.3299531 0.61635774 -0.012565705
-0.30862314 0.0055182134 -0.08326378 0.74391156 -0.6307819 0.4526834
00000000: 958d 96be 603a 0d3f 52ab 953e 3f5b babd
00000010: 2f86 4b3e 9def a8be 9fc9 1d3f 63e0 4dbc
00000020: da03 9ebe 21d2 b43b 3386 aabd fd70 3e3f
00000030: ec7a 21bf 1ec6 e73e

wi_biases f4 [2, 2]
0.0 0.0 0.0 0.0
00000000: 0000 0000 0000 0000 0000 0000 0000 0000

m_biases f4 [2, 2]
0.0 0.0 0.0 0.0
00000000: 0000 0000 0000 0000 0000 0000 0000 0000

n_biases f4 [2, 2]
0.0 0.0 0.0 0.0
00000000: 0000 0000 0000 0000 0000 0000 0000 0000

h0_weights f4 [2, 7]
0.0 0.0 0.0 0.0 0.0 0.0 0.0 0.0
0.0 0.0 0.0 0.0 0.0 0.0
00000000: 0000 0000 0000 0000 0000 0000 0000 0000
00000010: 0000 0000 0000 0000 0000 0000 0000 0000
00000020: 0000 0000 0000 0000 0000 0000 0000 0000
00000030: 0000 0000 0000 0000
