examples/toy_examples/outputs/best_model_20231127-120421.pth (torch, 8370 bytes, 14 tensors)

enc.lins.0.weight f4 [16, 14]
-0.45054027 0.17422919 0.057061426 -0.07907432 0.022602862 0.035884377 -0.14806719 -0.034948748
-0.022263747 0.008417504 -0.08305792 0.07146885 0.19502655 0.041890774 0.23436119 0.2650002
0.057243686 0.16520266 0.12319141 0.23125534 -0.19976975 0.055141266 -0.045845054 -0.023259856
-0.06859343 0.11902785 0.20724687 -0.17230071 0.43459815 -0.14272586 -0.036679957 -0.022051884
-0.042628773 -0.023520155 0.012871319 -0.085673794 0.023495354 0.11725472 0.024453817 0.034030315
0.043774873 -0.11769897 0.391475 -0.11439893 -0.040253967 -0.01592695 0.15437013 -0.22525002
-0.1052403 -0.15781465 0.20844227 -0.1607197 0.018804172 -0.26576388 -0.0019807052 0.114284486
0.105995946 0.29724586 -0.03428812 -0.083170265 -0.054356944 0.11645127 0.0053526876 0.21057959
-0.18457317 0.13583423 0.1363706 0.11807117 -0.008937493 0.11620945 -0.33164853 -0.2021701
-0.04034016 -0.04699506 0.16463989 0.19175106 0.1428322 -0.1057751 -0.19512314 -0.2442427
0.08412225 -0.22251226 -0.2520914 -0.11737545 -0.2137962 0.05877137 -0.19806863 -0.13578182
0.30511355 0.0073280185 0.27617458 0.017975945 -0.02780115 -0.11691619 -0.21005468 -0.20289269
0.19186604 -0.060167164 -0.20016855 0.45306334 0.089099035 -0.06459056 -0.1996367 -0.23211445
-0.17684487 0.2293262 0.17071167 0.029757502 -0.15553188 -0.0697129 -0.25961438 0.12577702
-0.24592067 -0.2401169 -0.07862812 0.18051177 0.07690932 0.015790792 -0.063523866 0.024251532
0.03692489 -0.07072574 0.19957872 -0.08080963 0.18501143 -0.099546656 -0.18771996 0.36975038
-0.07515554 0.25566527 -0.20602779 -0.037281796 -0.007041192 0.116643175 0.22506478 0.09995195
0.049116556 -0.16668446 0.051427223 -0.050157677 0.26504526 -0.023292907 0.16551821 0.24667984
0.140647 -0.019435806 0.09730473 -0.24884371 0.21842566 -0.007376282 0.10031589 -0.050979394
-0.089876026 -0.080371864 0.36421907 -0.36872837 0.2735386 0.32795 -0.14609614 -0.25182202
-0.19823694 -0.14533743 0.22956115 -0.16301686 0.15473968 0.20718943 -0.09058589 0.013164102
-0.35728613 0.4372414 0.07581036 0.14685589 -0.06862557 -0.046576228 -0.08030294 0.010806297
0.043963097 0.056667868 0.075678505 -0.12300405 0.18411444 -0.0028253426 0.23717259 -0.35460967
-0.054521933 0.09887198 -0.12024932 -0.18308426 0.13408141 -0.02492172 0.08402966 0.12677968
-0.13096239 -0.07354509 -0.0046075066 -0.042280987 -0.24485761 -0.10908299 -0.027348183 0.17127681
0.15801468 0.16810076 0.0071430174 -0.009245204 0.07107412 0.051624473 -0.03597131 0.10710778
-0.20413427 -0.20574962 -0.16293438 -0.15825336 -0.22925092 -0.24186991 0.0049518985 -0.025759563
-0.15614974 -0.09036024 0.07310488 -0.16471565 0.039470155 0.0016549287 0.087410204 0.13913055
00000000: 37ad e6be 2369 323e 3eb9 693d b8f1 a1bd
00000010: a329 b93c 7ffb 123d ed9e 17be 6b26 0fbd
00000020: 7662 b6bc 92e9 093c 451a aabd 435e 923d
00000030: 0ab5 473e a995 2b3d 61fc 6f3e 1bae 873e
00000040: 5b78 6a3d e32a 293e c74b fc3d 33ce 6c3e
00000050: 7190 4cbe cfdb 613d 06c8 3bbd 748b bebc
00000060: b67a 8cbd e0c4 f33d 8638 543e 996f 30be
00000070: a683 de3e ba26 12be b93d 16bd 27a6 b4bc
00000080: 829b 2ebd 57ad c0bc 3ae2 523c be75 afbd
00000090: 5479 c03c 3e23 f03d 5f53 c83c 5f63 0b3d
000000a0: 484d 333d 280c f1bd 696f c83e fc49 eabd
000000b0: 58e1 24bd 3c79 82bc 3413 1e3e f1a7 66be
000000c0: 3a88 d7bd 2a9a 21be e471 553e b493 24be
000000d0: 350b 9a3c 3412 88be b8ce 01bb fc0d ea3d
000000e0: 6714 d93d 9c30 983e b371 0cbd 2c55 aabd
000000f0: 63a5 5ebd 017e ee3d 9965 af3b 2da2 573e
00000100: c000 3dbe 2118 0b3e bca4 0b3e 4ccf f13d
00000110: 906e 12bc 38ff ed3d d6cd a9be ae05 4fbe
00000120: b93b 25bd e47d 40bd 5c97 283e 645a 443e
00000130: 9b42 123e 9ea0 d8bd 5cce 47be c21a 7abe
00000140: 4948 ac3d 41da 63be 2012 81be 8a62 f0bd
00000150: 64ed 5abe 40ba 703d 81d2 4abe 640a 0bbe
00000160: d837 9c3e e01f f03b c166 8d3e 4a42 933c
00000170: 3dbf e3bc c171 efbd 9318 57be 1ac3 4fbe
00000180: 8878 443e d871 76bd fcf8 4cbe ebf7 e73e
00000190: 8e79 b63d 0e48 84bd 906d 4cbe 69af 6dbe
000001a0: d216 35be 7dd4 6a3e 0acf 2e3e 01c6 f33c
000001b0: c043 1fbe a3c5 8ebd 2dec 84be b1cb 003e
000001c0: a1d2 7bbe 34e1 75be c807 a1bd 14d8 383e
000001d0: a282 9d3d b15b 813c cd18 82bd 26ab c63c
000001e0: 8e3e 173d a8d8 90bd 5d5e 4c3e 857f a5bd
000001f0: a373 3d3e 1edf cbbd a939 40be ec4f bd3e
00000200: 26eb 99bd 8fe6 823e f3f8 52be ccb4 18bd
00000210: cdb9 e6bb 9ee2 ee3d 6277 663e 9cb3 cc3d
00000220: 712e 493d 55af 2abe 5aa5 523d 2372 4dbd
00000230: 03b4 873e c4d0 bebc 9b7d 293e a499 7c3e
00000240: c405 103e d737 9fbc b447 c73d e3d0 7ebe
00000250: faaa 5f3e bdb4 f1bb 6b72 cd3d c5cf 50bd
00000260: ec10 b8bd 019a a4bd ec7a ba3e f7c9 bcbe
00000270: 400d 8c3e 10e9 a73e 3a9a 15be d1ee 80be
00000280: a0fe 4abe 56d3 14be 1412 6b3e e4ed 26be
00000290: 1474 1e3e 7729 543e 1885 b9bd 3fae 573c
000002a0: 35ee b6be 1bde df3e 7642 9b3d 6461 163e
000002b0: 908b 8cbd b7c6 3ebd de75 a4bd e50c 313c
000002c0: a612 343d 911c 683d 55fd 9a3d 8ce9 fbbd
000002d0: 7f88 3c3e 6229 39bb 5fdd 723e 668f b5be
000002e0: 6452 5fbd 657d ca3d 4745 f6bd 717a 3bbe
000002f0: a34c 093e a328 ccbc be17 ac3d 88d2 013e
00000300: 011b 06be cf9e 96bd 91fa 96bb d42e 2dbd
00000310: f4bb 7abe e766 dfbd 4c09 e0bc 3063 2f3e
00000320: 9ace 213e 9b22 2c3e f90f ea3b 3279 17bc
00000330: 4f8f 913d 2f74 533d a756 13bd 535b db3d
00000340: 9308 51be 07b0 52be 45d8 26be 2b0d 22be
00000350: c1c0 6abe bfac 77be 8943 a23b b805 d3bc
00000360: b8e5 1fbe ca0e b9bd 03b8 953d 38ab 28be
00000370: 75ab 213d 31ea d83a 1f04 b33d 3d78 0e3e

enc.lins.0.bias f4 [16]
-0.17462297 0.11540094 0.20181379 0.0172061 0.1361574 -0.10118176 0.053085893 0.07809332
-0.123443216 0.16501176 -0.2526948 -0.10039297 -0.15725324 -0.15865618 -0.16194732 -0.2518378
00000000: 5dd0 32be 5457 ec3d 46a8 4e3e cff3 8c3c
00000010: d86c 0b3e 6238 cfbd 9870 593d 64ef 9f3d
00000020: cccf fcbd d8f8 283e 3661 81be d49a cdbd
00000030: fe06 21be c476 22be 85d5 25be e2f0 80be

enc.lins.1.weight f4 [3, 16]
0.032269552 -0.1735032 -0.5796813 -0.29554066 -0.24768513 0.023484033 -0.31206197 0.042699702
0.11375522 0.11895688 -0.100562245 0.24039933 0.4746452 0.14936697 0.11741897 0.12508518
-0.57190317 -0.06323209 -0.24237575 -0.30121592 0.02165158 -0.13485776 -0.08650904 0.115125716
-0.27370423 0.28560165 -0.08628124 0.56884044 0.1444101 0.13623644 -0.08421442 -0.23456575
-0.017545797 0.06716215 -0.07992082 0.100373395 0.03761758 0.05433177 0.00697551 0.27480778
-0.26469564 0.1564945 0.11209264 -0.33239633 0.3478454 -0.14864458 -0.080814496 0.15190285
00000000: 142d 043d d3aa 31be fe65 14bf 1b51 97be
00000010: 2ca1 7dbe 9661 c03c 96c6 9fbe e2e5 2e3d
00000020: 7ff8 e83d aa9f f33d 94f3 cdbd 3e2b 763e
00000030: b204 f33e a8f3 183e 5b79 f03d 5416 003e
00000040: 3f68 12bf d37f 81bd 5931 78be f938 9abe
00000050: a85e b13c 2718 0abe a72b b1bd 08c7 eb3d
00000060: f622 8cbe 613a 923e 38b4 b0bd 879f 113f
00000070: 3ee0 133e 9181 0b3e 9c78 acbd 0132 70be
00000080: 34bc 8fbc 4f8c 893d 87ad a3bd 9190 cd3d
00000090: e414 1a3d fd8a 5e3d d292 e43b 9bb3 8c3e
000000a0: 3086 87be 1840 203e d390 e53d da2f aabe
000000b0: cb18 b23e 4936 18be 1282 a5bd 6c8c 1b3e

enc.lins.1.bias f4 [3]
0.06856988 0.37840077 -0.18369332
00000000: 5e6e 8c3d bfbd c13e 1a1a 3cbe

enc.norms.0.module.weight f4 [16]
1.0777409 0.9477795 1.0806006 1.0219 0.94626427 0.95292944 0.9467117 0.96318644
0.98806095 0.9605036 0.9433885 1.1034547 1.0276326 0.9348103 0.934703 0.9628879
00000000: 6af3 893f ada1 723f 1f51 8a3f 9fcd 823f
00000010: 603e 723f 2ff3 733f b35b 723f 6393 763f
00000020: 90f1 7c3f 90e3 753f e981 713f 013e 8d3f
00000030: 7789 833f ba4f 6f3f b248 6f3f d27f 763f

enc.norms.0.module.bias f4 [16]
0.12547863 -0.011590817 0.00191688 -0.0074232677 0.05252308 -0.040255398 -0.08259604 0.07438887
0.070233 0.069463275 -0.02138912 0.19341904 0.23166384 0.08093778 0.041434202 0.037325636
00000000: 787d 003e 69e7 3dbc d23f fb3a e23e f3bb
00000010: 7122 573d d8e2 24bd 1d28 a9bd 3159 983d
00000020: 52d6 8f3d c342 8e3d 3c38 afbc a40f 463e
00000030: 4939 6d3e b5c2 a53d e9b6 293d c4e2 183d

enc.norms.0.module.running_mean f4 [16]
-0.17713879 0.10632737 0.19954811 0.010141766 0.12621342 -0.10078613 0.03759794 0.07461084
-0.10914432 0.17677131 -0.24874176 -0.0759706 -0.15353167 -0.14418238 -0.15509224 -0.2567931
00000000: df63 35be 2ac2 d93d 5756 4c3e a629 263c
00000010: 173e 013e f568 cebd 4c00 1a3d 91cd 983d
00000020: 0f87 dfbd 8a03 353e 29b6 7ebe 7996 9bbd
00000030: 6837 1dbe 8ca4 13be 80d0 1ebe 637a 83be

enc.norms.0.module.running_var f4 [16]
0.075207345 0.15666643 0.07337176 0.06299485 0.11575638 0.17830136 0.021994757 0.103466585
0.14912438 0.06455756 0.041731704 0.059722133 0.07634427 0.05253809 0.07844869 0.06638189
00000000: 4f06 9a3d 2a6d 203e ef43 963d 7203 813d
00000010: ae11 ed3d a294 363e 592e b43c 4ae6 d33d
00000020: 10b4 183e c136 843d ddee 2a3d 329f 743d
00000030: 625a 9c3d 2e32 573d b5a9 a03d 3af3 873d

momentum_buffer f4 [16, 14]
0.07326022 0.1193994 0.005590579 -0.048301246 0.00016757776 -0.03606876 -0.06340159 -0.0036613531
-0.0028399099 -0.057746954 -0.040139396 -0.0060471427 -0.0045721307 -0.041375354 -0.024722815 0.013515902
-0.0019537774 -0.00015164964 0.008322234 0.0035351706 -0.0036165852 0.0006996923 0.00047113877 -0.0036849412
0.00020055787 -0.0030949528 -0.0024447571 -0.0033126764 0.14330685 0.4272981 -0.023740191 -0.02459873
0.007213041 -0.0016119761 -0.004181424 -0.029196136 -0.032908928 0.0014370554 0.06531877 -0.06905896
-0.068974495 0.004434184 0.10434311 0.42858338 -0.011566049 -0.017401604 0.009102665 0.00561991
0.011057116 -0.01415041 -0.01709823 0.0020529225 -0.0076450226 -0.03145342 -0.031737477 0.016077315
-0.0853033 0.023505142 -0.0062627397 0.001509067 0.0028039003 0.001729299 0.0020912215 -0.015103899
-0.014858033 0.008807456 0.011909235 -0.018319916 -0.017675834 0.013175455 -0.020039733 0.035045378
0.0010122396 -0.0050464035 -0.0002928063 -0.0070724045 -0.0022690068 -0.0010710995 -0.0011189958 -0.006159879
-0.0013248189 -8.389738e-05 0.00092494074 -0.0039250758 0.05270835 0.29004073 -0.012773206 0.02649777
-0.015347177 0.029152343 -0.029297475 0.0030241823 0.0015932269 -0.0024897242 -0.0315051 0.006199053
0.008752838 -0.008763398 0.190914 0.07785028 -0.0035387846 0.00226944 -0.0028132582 0.00013652071
-0.011021375 6.0102437e-05 0.00028409582 0.030029265 0.011038772 -0.0015334642 0.0039964407 0.020800667
-0.032926198 0.01123587 0.00229639 -0.016988244 -0.014445698 -0.015677765 -0.020334108 -0.000540555
0.0030693824 -0.030572532 -0.028556135 0.0048801806 0.000244456 -0.017087355 0.21596298 0.10280242
0.0060236175 -0.0054936074 0.007501076 -0.016887477 -0.0066434434 0.005514381 0.008815486 0.03823965
0.013646798 0.007596188 0.013391651 0.025759285 0.020689968 0.19982472 -0.011324452 -0.0067759696
-0.0062020076 0.0059247664 0.013759216 -0.007675561 -0.008813246 0.016054023 0.01705527 -0.019029029
-0.017692 0.022067884 -0.21486367 -0.28941336 -0.010107174 -0.024884751 -0.016420556 0.040646214
0.041892454 0.0018079113 0.0076040635 0.034878056 0.007130887 0.014748534 0.011453607 -0.017765636
0.31293124 0.22770086 0.0054284576 0.012126821 -0.0045701247 -0.008153305 0.00027475972 0.02225711
0.025778156 0.05057306 0.024223391 0.028942332 0.037872802 0.043693513 0.21312737 0.14447033
0.001110262 0.0007652622 -0.018011672 0.0020570173 -0.01156416 0.009260965 0.010431662 -0.013311672
-0.017912246 0.02141869 0.018929712 -0.019064981 -0.008957837 -0.006924022 -0.00012947805 -0.0103431605
-0.010893062 -0.009273711 -0.012183547 0.00018105749 0.0023846268 -0.013182276 -0.01358746 0.0032575247
0.0014698987 -0.010508873 -0.08384016 0.14514136 0.001852355 -0.01726907 -0.0041278717 -0.030429846
-0.026644455 9.266671e-05 -0.0010648287 -0.01104839 -0.003772479 -0.0016486477 0.0034271777 -0.008977841
00000000: 7409 963d ac87 f43d 2d31 b73b 87d7 45bd
00000010: d0b7 2f39 d6bc 13bd b1d8 81bd 50f3 6fbb
00000020: c81d 3abb 1288 6cbd 3569 24bd 1c27 c6bb
00000030: d0d1 95bb 3479 29bd 8087 cabc cd71 5d3c
00000040: f20a 00bb 2404 1fb9 fb59 083c 52ae 673b
00000050: 3b04 6dbb 8e6b 373a 2d03 f739 0e7f 71bb
00000060: d84c 5239 b1d4 4abb 3838 20bb 7d19 59bb
00000070: 08bf 123e d1c6 da3e ca7a c2bc 4783 c9bc
00000080: 605b ec3b f148 d3ba 5404 89bb bc2c efbc
00000090: 83cb 06bd 945b bc3a d9c5 853d c96e 8dbd
000000a0: 8042 8dbd a24c 913b d7b1 d53d 486f db3e
000000b0: 877f 3dbc cf8d 8ebc 5823 153c 3927 b83b
000000c0: e828 353c 1fd7 67bc 9611 8cbc 538a 063b
000000d0: 1983 fabb 4dd5 00bd 28ff 01bd 93b4 833c
000000e0: 7fb3 aebd db8d c03c ab37 cdbb e3cb c53a
000000f0: a4c1 373b a5a9 e23a e00c 093b 5876 77bc
00000100: 1b6f 73bc 264d 103c f41e 433c a613 96bc
00000110: e9cc 90bc dddd 573c 5e2a a4bc be8b 0f3d
00000120: 20ad 843a 4d5c a5bb cc83 99b9 a1bf e7bb
00000130: 9eb3 14bb 2364 8cba 45ab 92ba cfd8 c9bb
00000140: 8ca5 adba 10f2 afb8 b977 723a ec9d 80bb
00000150: b6e4 573d 3880 943e b646 51bc da11 d93c
00000160: ba72 7bbc e5d0 ee3c 4201 f0bc 5c31 463b
00000170: d3d3 d03a a42a 23bb 7e0b 01bd 6d21 cb3b
00000180: 1068 0f3c 5b94 0fbc f67e 433e f86f 9f3d
00000190: f4ea 67bb e3ba 143b a45e 38bb 0027 0f39
000001a0: ff92 34bc 8016 7c38 b2f2 9439 efff f53c
000001b0: f7db 343c 85fe c8ba 93f4 823b 2966 aa3c
000001c0: 9fdd 06bd a816 383c 087f 163b ee2a 8bbc
000001d0: a6ad 6cbc a86e 80bc b793 a6bc 08b4 0dba
000001e0: b127 493b 3f73 fabc 8eee e9bc ece9 9f3b
000001f0: 542a 8039 c8fa 8bbc 6625 5d3e 138a d23d
00000200: c461 c53b b803 b4bb 96cb f53b 9b57 8abc
00000210: 3eb1 d9bb fbb1 b43b d46e 103c 2ea1 1c3d
00000220: d296 5f3c 72e9 f83b a868 5b3c 2305 d33c
00000230: 027e a93c da9e 4c3e 328a 39bc f408 debb
00000240: 363a cbbb 8b24 c23b 566e 613c 4683 fbbb
00000250: 6f65 10bc ba83 833c 7eb7 8b3c c4e2 9bbc
00000260: d0ee 90bc b5c7 b43c 3905 5cbe fd2d 94be
00000270: 8f98 25bc 1bdb cbbc 6784 86bc a57c 263d
00000280: 6c97 2b3d 70f7 ec3a 822b f93b 4bdc 0e3d
00000290: 37aa e93b d6a3 713c e9a7 3b3c 3d89 91bc
000002a0: 8638 a03e 6a2a 693e 34e1 b13b 93af 463c
000002b0: fcc0 95bb 7195 05bc a00d 9039 8b54 b63c
000002c0: b62c d33c b225 4f3d 2270 c63c 7818 ed3c
000002d0: 8320 1b3d f8f7 323d 103e 5a3e 08f0 133e
000002e0: 3686 913a e09b 483a 378d 93bc 06cf 063b
000002f0: 9a77 3dbc 4dbb 173c 90e9 2a3c 3319 5abc
00000300: b4bc 92bc 4076 af3c 7c12 9b3c 2a2e 9cbc
00000310: e4c3 12bc e8e2 e2bb 80c4 07b9 5c76 29bc
00000320: d078 32bc c3f0 17bc 809d 47bc 40da 3d39
00000330: 6647 1c3b 79fa 57bc f09d 5ebc 327c 553b
00000340: 9ea9 c03a 682d 2cbc 64b4 abbd f09f 143e
00000350: b8ca f23a dd77 8dbc 1943 87bb 0348 f9bc
00000360: 7945 dabc 1056 c238 b991 8bba 4e04 35bc
00000370: b23b 77bb 7017 d8ba 809a 603b cb17 13bc

momentum_buffer f4 [16]
9.843419e-08 -1.22040795e-08 1.6977992e-08 1.3846904e-08 -1.5466227e-08 1.3587232e-08 1.1016812e-08 1.0360546e-08
-2.5095673e-08 -1.5126116e-09 7.278601e-09 9.178565e-08 -7.0938235e-08 6.2576198e-09 6.0633054e-11 3.2287337e-09
00000000: c562 d333 1caa 51b2 00d7 9132 54e3 6d32
00000010: 98da 84b2 476d 6932 7444 3d32 2afe 3132
00000020: f891 d7b2 4ae4 cfb0 4017 fa31 b21b c533
00000030: b556 98b3 9b02 d731 6055 852e 7ce0 5d31

momentum_buffer f4 [3, 16]
-0.11238287 -0.03193514 0.10411518 0.047099315 -0.09683763 0.0102093285 -0.05355236 -0.18103716
0.03666839 -0.21078636 0.025159441 0.18058412 -0.26589924 0.10204998 0.00356354 0.053154062
-0.1693363 0.04348631 0.15653914 0.1348726 0.036589153 0.007903226 -0.13207214 -0.021788785
0.049047202 -0.019700754 0.08934948 0.33718175 -0.07067922 0.27594656 0.0119571835 -0.00065054744
-0.15993331 0.077744566 -0.011266142 0.003941059 0.092703104 -0.03886751 -0.11204898 -0.063553326
-0.05172573 -0.06408759 0.0423992 -0.35248372 -0.16861634 -0.2313309 -0.046713695 -0.07099388
00000000: fd28 e6bd 6cce 02bd 573a d53d 36eb 403d
00000010: cf52 c6bd 0745 273c b859 5bbd ce61 39be
00000020: 9831 163d 61d8 57be 2c1b ce3c 0beb 383e
00000030: f223 88be 94ff d03d 488a 693b 13b8 593d
00000040: 7f66 2dbe b31e 323d cc4b 203e 0b1c 0a3e
00000050: 82de 153d 887c 013c eb3d 07be 657e b2bc
00000060: b8e5 483d 7a63 a1bc dcfc b63d 16a3 ac3e
00000070: 44c0 90bd de48 8d3e 10e8 433c 8089 2aba
00000080: 8fc5 23be 8b38 9f3d a095 38bc 0024 813b
00000090: 20db bd3d 8a33 1fbd f079 e5bd 3f28 82bd
000000a0: 5cde 53bd 5b40 83bd c9aa 2d3d bf78 b4be
000000b0: c3a9 2cbe 02e2 6cbe dc56 3fbd 3d65 91bd

momentum_buffer f4 [3]
-0.054029748 0.11225516 -0.15256569
00000000: 4c4e 5dbd 09e6 e53d 2e3a 1cbe

momentum_buffer f4 [16]
0.08641763 0.008527837 -0.08992693 -0.05372589 0.028891101 -0.00398242 0.03347335 -0.026453989
0.0037040226 -0.04011272 -0.006367662 0.28640807 -0.16503784 0.08983374 0.0031783618 -0.0019043488
00000000: bafb b03d 57b8 0b3c 9c2b b8bd ae0f 5cbd
00000010: 08ad ec3c f67e 82bb 5a1b 093d 09b6 d8bc
00000020: 30bf 723b 3c4d 24bd d2a7 d0bb 14a4 923e
00000030: aeff 28be c0fa b73d 104c 503b 589b f9ba

momentum_buffer f4 [16]
0.023014776 0.006029127 -0.11447855 -0.10137664 0.017632993 -0.021293733 0.05247308 -0.029889924
0.011085989 -0.031699482 -0.024337646 0.1878873 -0.10993799 0.040098928 0.00520805 -0.05757667
00000000: 7c89 bc3c fc8f c53b bb73 eabd 8e9e cfbd
00000010: 1173 903c 3270 aebc 03ee 563d b7db f4bc
00000020: 02a2 353c 51d7 01bd be5f c7bc 8765 403e
00000030: 2b27 e1bd c63e 243d 4aa8 aa3b 84d5 6bbd
