examples/toy_examples/outputs/best_model_20231127-112530.pth (torch, 8757 bytes, 14 tensors)

enc.lins.0.weight f4 [32, 6]
-0.30642173 0.2795126 0.30290118 0.32569656 -0.20026174 -0.114114 -0.34079227 -0.28190842
-0.052645084 -0.0796932 0.29726264 0.31158572 0.37228826 -0.16268335 -0.34470233 -0.3700961
0.13913907 -0.316337 -0.405122 -0.18361309 -0.3470399 -0.16416901 -0.27263427 -0.21050513
0.36760876 -0.10743861 0.35397598 0.108807236 -0.09010737 -0.13867815 -0.2899933 -0.33327943
0.2768867 -0.12874258 -0.39654946 0.3764666 -0.10367696 -0.26752448 -0.28176582 -0.3368611
-0.40518954 0.35831013 0.33698148 -0.098553896 -0.3525763 -0.11055875 -0.36728406 0.1513593
-0.16502626 -0.12917772 -0.062072515 0.23159258 0.18254231 0.039577894 -0.2535514 0.057209652
-0.06253559 -0.33397275 0.3795549 -0.10666991 0.27857247 -0.3600889 0.10934879 0.17441277
-0.38276023 0.10388055 -0.39740732 0.126417 -0.13813524 0.16284595 0.35724115 0.0987871
-0.04240193 -0.18944897 0.16462508 -0.19113114 0.21090545 -0.14800352 0.2996587 0.3122845
0.2503004 0.013360528 0.17116266 -0.36551318 0.29666266 -0.34270316 0.18450555 0.018703764
-0.15816964 -0.1557856 0.2519386 -0.23821633 -0.05082793 0.21405795 0.036282353 -0.35879973
-0.44029096 -0.12769167 0.36819783 -0.2954024 0.21468648 0.29711515 -0.20076175 -0.16023558
-0.2922169 0.052035853 -0.06600746 0.013498733 0.1662937 0.19789352 -0.11198077 0.07940903
0.076391056 -0.005783524 0.08047202 -0.26314095 0.3677619 0.038929798 -0.09911703 -0.36719593
-0.36126807 0.10241319 -0.05369151 -0.18914694 0.19008157 -0.0142462365 0.13153788 0.34985533
-0.18626706 -0.20163994 -0.07835736 -0.037482988 -0.27347457 -0.06941074 -0.006085573 0.19121228
0.3468527 0.29133797 0.01820689 0.19850731 0.13868089 0.06193867 -0.115342356 0.105313845
-0.33121702 -0.34890816 0.017535988 -0.110593945 -0.20220307 -0.3832307 0.3540262 -0.099577464
-0.20048608 -0.14356059 0.14371073 -0.30920544 0.22519138 -0.030418819 0.14342363 0.15542743
-0.25782013 0.16973782 0.33844846 -0.13176228 0.18566898 -0.13888139 0.06088961 0.13863128
-0.17012143 0.31250873 -0.32804143 -0.11247364 -0.26430535 -0.29501298 -0.23509602 -0.3886274
0.10072836 -0.05260814 -0.3483002 -0.004361658 -0.26011696 0.3728881 -0.24527457 -0.029007906
0.030606473 0.07767459 -0.08999354 0.3024837 0.40873435 -0.10951516 0.26135287 0.29862007
00000000: 4fe3 9cbe 471c 8f3e dd15 9b3e b3c1 a63e
00000010: 6a11 4dbe 9ab4 e9bd 537c aebe 4d56 90be
00000020: 5fa2 57bd 3036 a3bd cf32 983e 2a88 9f3e
00000030: 919c be3e 7796 26be d37c b0be 3c7d bdbe
00000040: 797a 0e3e ecf6 a1be 276c cfbe 1205 3cbe
00000050: 37af b1be ec1b 28be b896 8bbe a88e 57be
00000060: 3737 bc3e c608 dcbd 573c b53e 54d6 de3d
00000070: 368a b8bd a501 0ebe 007a 94be 9aa3 aabe
00000080: 18c4 8d3e 18d5 03be 8808 cbbe 3bc0 c03e
00000090: 9654 d4bd f8f8 88be 9c43 90be 0f79 acbe
000000a0: 0175 cfbe 6d74 b73e d688 ac3e a0d6 c9bd
000000b0: e184 b4be a06c e2bd a80c bcbe effd 1a3e
000000c0: a5fc 28be 2a47 04be c03f 7ebd 9b26 6d3e
000000d0: 5fec 3a3e 6e1c 223d 7dd1 81be ab54 6a3d
000000e0: a912 80bd 7afe aabe 0555 c23e c175 dabd
000000f0: 0da1 8e3e 935d b8be 42f2 df3d 4399 323e
00000100: 26f9 c3be 53bf d43d f978 cbbe 7573 013e
00000110: 5373 0dbe 17c1 263e 50e8 b63e e450 ca3d
00000120: a5ad 2dbd e9fe 41be 7a93 283e e2b7 43be
00000130: 99f7 573e 3c8e 17be dd6c 993e c1e3 9f3e
00000140: 6027 803e 1ee6 5a3c 4445 2f3e 8b24 bbbe
00000150: 2be4 973e ca76 afbe 06ef 3c3e a338 993c
00000160: 39f7 21be 4386 1fbe 19fe 803e fbee 73be
00000170: f330 50bd 0232 5b3e ce9c 143d 99b4 b7be
00000180: d16d e1be 9bc1 02be 6d84 bc3e fc3e 97be
00000190: c6d6 5b3e 7a1f 983e 7d94 4dbe cc14 24be
000001a0: 749d 95be 8c23 553d eb2e 87bd ca29 5d3c
000001b0: e548 2a3e 99a4 4a3e 2d56 e5bd 34a1 a23d
000001c0: ea72 9c3d b783 bdbb 84ce a43d 69ba 86be
000001d0: 4a4b bc3e da74 1f3d dffd cabd 1b01 bcbe
000001e0: 21f8 b8be 02be d13d a1eb 5bbd bcaf 41be
000001f0: bea4 423e 0c69 69bc deb1 063e 3d20 b33e
00000200: cbbc 3ebe b37a 4ebe d379 a0bd c387 19bd
00000210: dc04 8cbe 3827 8ebd 7d69 c7bb 27cd 433e
00000220: ad96 b13e 402a 953e 9e26 953c 8045 4b3e
00000230: 5d02 0e3e 67b3 7d3d 9d38 ecbd c9ae d73d
00000240: 4795 a9be 17a4 b2be a2a7 8f3c 147f e2bd
00000250: 520e 4fbe d036 c4be ec42 b53e 45ef cbbd
00000260: 394c 4dbe 8c01 13be e828 133e 2d50 9ebe
00000270: 9298 663e e330 f9bc a5dd 123e 5e28 1f3e
00000280: 0001 84be c0cf 2d3e 1e49 ad3e b1ec 06be
00000290: 0220 3e3e ec36 0ebe 6267 793d 5cf5 0d3e
000002a0: 5034 2ebe 2501 a03e 0cf5 a7be 9458 e6bd
000002b0: 0853 87be f10b 97be 03bd 70be 2cfa c6be
000002c0: ac4a ce3d a27b 57bd 6754 b2be 3dec 8ebb
000002d0: 0d2e 85be 30eb be3e 4229 7bbe fda1 edbc
000002e0: 6dba fa3c db13 9f3d 884e b8bd 25df 9a3e
000002f0: a145 d13e 7c49 e0bd 0bd0 853e bbe4 983e

enc.lins.0.bias f4 [32]
-0.36114308 0.098752916 0.23125201 -0.06368148 0.22531158 0.013886094 0.31079257 0.00879021
-0.2613697 0.31003946 0.12141478 0.34732515 0.10134494 0.21678275 0.25454748 0.06874359
-0.0949038 0.08431736 -0.28465113 0.013947034 -0.13121691 0.025811225 -0.32323414 0.24944901
-0.376655 0.17482883 0.26885617 -0.3741579 0.3688565 -0.30348527 -0.08016625 0.2115534
00000000: bfe7 b8be f83e ca3d 54cd 6c3e 706b 82bd
00000010: 14b8 663e 8082 633c 3420 9f3e d004 103c
00000020: 40d2 85be 7ebd 9e3e 50a8 f83d 9ad4 b13e
00000030: f08d cf3d 4cfc 5d3e 0c54 823e 70c9 8c3d
00000040: ec5c c2bd 94ae ac3d cbbd 91be 1a82 643c
00000050: ba5d 06be 1072 d33c f27e a5be 906f 7f3e
00000060: edd8 c0be 5406 333e 84a7 893e a091 bfbe
00000070: c2da bc3e 6c62 9bbe 342e a4bd 74a1 583e

enc.lins.1.weight f4 [3, 32]
-0.05034674 0.162042 0.069150746 0.11829303 -0.060040515 0.016096648 0.21221139 0.13393292
-0.015951697 0.11160586 -0.3266964 0.3050543 -0.082789965 -0.07078796 -0.27541462 -0.13146716
0.14928195 0.15298562 -0.0060701487 -0.104948804 0.29271466 0.006288849 0.055466294 -0.10613799
0.0142473765 0.2332792 -0.017992746 0.08187267 -0.03974494 0.049545433 -0.090403505 0.06920431
-0.48752105 0.19554262 0.17771873 -0.018265333 0.1494261 -0.016472228 -0.019246552 0.25377452
-0.105934516 0.1660034 -0.21463323 0.19646527 0.11888924 0.12460456 -0.03273364 0.006690321
0.054900866 0.11741783 0.12319168 -0.28256965 0.1151865 -0.02719771 -0.032913744 0.18839963
-0.08515174 0.12096121 0.1363968 0.25917542 -0.03882007 -0.0973328 -0.15744488 -0.08793389
0.1311519 -0.0357457 -0.18448472 0.091261394 0.24239607 0.047763284 0.015081092 -0.14625192
-0.16174099 0.088078864 -0.17609474 0.07003187 -0.11861192 0.051810343 -0.14930892 -0.060237993
-0.06813486 -0.0756696 0.17940183 -0.033582486 -0.13485813 0.015809823 -0.022909436 0.20010142
-0.07619282 0.029700592 0.018463926 -0.14930344 0.11640131 -0.20041563 0.11026682 0.053893313
00000000: 6238 4ebd 57ee 253e e89e 8d3d 9e43 f23d
00000010: 0bed 75bd 1edd 833c f14d 593e b625 093e
00000020: 22ad 82bc 9d91 e43d c044 a7be 1430 9c3e
00000030: c98d a9bd 47f9 90bd 2503 8dbe 549f 06be
00000040: 5edd 183e 43a8 1c3e 19e8 c6bb 66ef d6bd
00000050: b2de 953e b012 ce3b a030 633d e05e d9bd
00000060: d46d 693c bee0 6e3e 8665 93bc dcac a73d
00000070: 97cb 22bd 27f0 4a3d 7925 b9bd fdba 8d3d
00000080: 5c9c f9be 533c 483e e6fb 353e 2ea1 95bc
00000090: 2803 193e c4f0 86bc f2aa 9dbc bcee 813e
000000a0: 32f4 d8bd ccfc 293e d0c8 5bbe 312e 493e
000000b0: 347c f33d ad30 ff3d b613 06bd 7b3a db3b
000000c0: bbdf 603d c278 f03d eb4b fc3d f8ac 90be
000000d0: e6e6 eb3d bbcd debc 90d0 06bd d5eb 403e
000000e0: 0964 aebd 83ba f73d 9aab 0b3e a4b2 843e
000000f0: cb01 1fbd 6b56 c7bd 3b39 21be af16 b4bd
00000100: af4c 063e 156a 12bd 90e9 3cbe 41e7 ba3d
00000110: ad36 783e 6fa3 433d af16 773c 10c3 15be
00000120: 6e9f 25be b162 b43d 2e52 34be de6c 8f3d
00000130: ceea f2bd 1537 543d 70e4 18be 1dbc 76bd
00000140: 4a8a 8bbd aaf8 9abd 1db5 373e ca8d 09bd
00000150: 4018 0abe 9a83 813c 92ac bbbc 63e7 4c3e
00000160: fb0a 9cbd a84e f33c a941 973c 00e3 18be
00000170: cf63 ee3d c139 4dbe 92d3 e13d 3cbf 5c3d

enc.lins.1.bias f4 [3]
-0.3332215 -0.30802628 0.13328446
00000000: 029c aabe 9fb5 9dbe b97b 083e

enc.norms.0.module.weight f4 [32]
1.0513108 0.9617501 0.9713938 0.963706 0.9616795 0.94920945 0.95685214 0.99292076
0.9636973 0.9783064 0.98923767 0.9998953 0.96200496 0.9538374 0.97221845 0.9391029
0.96393377 0.9632388 0.96867436 0.9768033 0.9935715 0.9558845 0.9519957 0.97960275
0.9583051 0.972633 0.96344054 0.99044317 0.9497726 0.96799546 0.9476528 0.9331704
00000000: 5a91 863f 4135 763f 44ad 783f 70b5 763f
00000010: a130 763f 64ff 723f 43f4 743f 0e30 7e3f
00000020: deb4 763f 4a72 7a3f ae3e 7d3f 23f9 7f3f
00000030: f545 763f b02e 743f 4fe3 783f 0c69 703f
00000040: 5dc4 763f d196 763f 0bfb 773f c80f 7a3f
00000050: b45a 7e3f d9b4 743f fdb5 733f 3fc7 7a3f
00000060: 7c53 753f 7afe 783f 0aa4 763f af8d 7d3f
00000070: 4c24 733f 8dce 773f 6099 723f 41e4 6e3f

enc.norms.0.module.bias f4 [32]
0.11806187 -0.100452036 -0.00042788865 -0.065629154 0.1350833 -0.057363022 0.008403983 -0.04914535
0.031603042 -0.07653287 0.1277928 -0.13106607 -0.056610085 -0.0121996105 0.104674466 -0.0071628615
-0.050065614 -0.05277379 -0.0027686513 0.030604366 0.05953525 -0.04693294 -0.03872759 0.041208994
-0.006058618 -0.042629354 -0.025052704 -0.04502355 0.025618073 0.035486367 0.07630662 -0.007236723
00000000: 6cca f13d ccb9 cdbd 3e56 e0b9 9468 86bd
00000010: 4753 0a3e 7df5 6abd dcb0 093c a24c 49bd
00000020: 3172 013d 44bd 9cbd 1edc 023e 2f36 06be
00000030: fadf 67bd e0e0 47bc 915f d63d 70b6 eabb
00000040: 9a11 4dbd 5429 58bd 4372 35bb 02b6 fa3c
00000050: 3cdb 733d c13c 40bd d2a0 1ebd c3ca 283d
00000060: 5f87 c6bb 1e9c 2ebd 543b cdbc 9d6a 38bd
00000070: fedc d13c 275a 113d a546 9c3d 0822 edbb

enc.norms.0.module.running_mean f4 [32]
-0.337875 0.08518889 0.2060796 -0.06715288 0.23588316 0.02082494 0.30534574 0.014545392
-0.25527602 0.279133 0.14424768 0.3434953 0.08467006 0.21271978 0.26159015 0.07843027
-0.11621033 0.087519534 -0.2827716 0.019523513 -0.14854184 0.01701146 -0.3236674 0.25719574
-0.37842432 0.1620529 0.28691298 -0.38121188 0.36825663 -0.29575145 -0.08418904 0.19980599
00000000: f4fd acbe 8377 ae3d 8806 533e 7387 89bd
00000010: 5b8b 713e 1199 aa3c 4756 9c3e cc4f 6e3c
00000020: 8ab3 82be 85ea 8e3e aab5 133e 9ede af3e
00000030: 7f67 ad3d 37d3 593e 25ef 853e 0da0 a03d
00000040: aeff edbd 713d b33d 70c7 90be c6ef 9f3c
00000050: 5a1b 18be 9e5b 8b3c bcb7 a5be 29af 833e
00000060: d5c0 c1be 32f1 253e 42e6 923e 342e c3be
00000070: 228c bc3e bc6c 97be 4e6b acbd f199 4c3e

enc.norms.0.module.running_var f4 [32]
0.038807426 0.23584159 0.053815924 0.21393761 0.05650908 0.24259177 0.09993642 0.053247444
0.05288652 0.033378746 0.055385143 0.06407094 0.041255575 0.23337176 0.04856938 0.026323328
0.19811209 0.08063629 0.08269403 0.04128372 0.055190705 0.15681636 0.073474355 0.036181077
0.2893024 0.054048024 0.027826002 0.042864442 0.048284438 0.25141507 0.05773468 0.05874108
00000000: 89f4 1e3d 7580 713e 166e 5c3d 7612 5b3e
00000010: 1176 673d fa69 783e 77ab cc3d fe19 5a3d
00000020: 899f 583d 27b8 083d 88db 623d a037 833d
00000030: 9bfb 283d 02f9 6e3e b0f0 463d 05a4 d73c
00000040: e5dd 4a3e a424 a53d 7d5b a93d 1e19 293d
00000050: a60f 623d 7894 203e b979 963d 9c32 143d
00000060: 721f 943e 7661 5d3d 5bf3 e33c a092 2f3d
00000070: e7c5 453d 7ab9 803e 337b 6c3d 7d9a 703d

momentum_buffer f4 [32, 6]
-0.4335188 -0.48047245 0.05220769 -0.007493281 0.049866453 0.016977709 0.029091312 -0.028821534
-0.010158212 0.0070259827 -0.00439862 0.010012986 0.040737897 0.07676792 -0.0093995705 0.0069326
-0.016338037 0.0034073852 0.00079742726 0.015220914 -0.012787478 0.009878579 -0.006707673 0.007253575
0.035810456 0.019458085 -0.0173935 -0.018216554 0.029427184 0.002036093 -0.0048455196 0.0039445134
-0.0019465395 0.0013485054 -0.00024633552 0.0013936055 0.026945606 0.020649962 -0.0071175913 0.015449024
-0.0145547 0.015676245 0.077271506 0.20459548 0.011723938 -0.0031278646 0.009296339 0.008778906
-0.010659994 0.00911147 0.01653998 -0.0015485198 0.005761954 -0.006450381 -0.035354137 -0.03954234
-0.042194847 0.008050962 -0.017067472 0.0016641924 0.12582836 0.073174104 0.0032404014 -0.027205653
0.0049114455 -0.02339782 0.05929567 0.09439797 -0.04448534 0.039808452 -0.010558826 0.028066311
0.017050236 0.02337025 0.0047937874 -0.020120263 -0.009295137 -0.016733265 -0.010648567 0.0031253963
0.002563021 -0.0040187594 0.008091573 -0.0006643728 0.051233754 0.055421315 0.01941038 -0.054191984
0.031759147 -0.04016129 0.04111976 0.037289295 0.008598485 -0.026801076 0.01804551 -0.011286063
-0.010679737 0.017935421 -0.004866548 0.012863444 0.0013372009 0.009727166 0.022028672 -0.00027144141
-0.007231952 0.01736671 -0.01784189 0.013260237 0.0077477554 -0.0058721625 0.008821773 -0.012451928
0.024053987 -0.0024182876 0.08109584 0.09158698 0.05712631 -0.017520864 0.03709572 -0.0025278167
0.053461716 0.26682296 -0.029200878 0.04346952 -0.005277119 0.025719002 0.0036999513 -0.0017534082
-0.00054831186 1.0488962e-05 -0.00045668564 0.00025073107 0.005017096 0.0477036 -0.0005078113 0.010100217
0.001396741 0.007766573 0.17289524 0.02728945 0.014139059 -0.039155018 0.062950104 -0.00798032
-0.0053848573 0.0029049981 0.0041583814 0.0024826985 0.0024265554 0.00020452825 0.058951482 0.17263876
-0.0068591377 0.008953461 -0.006641481 0.009105947 0.02841487 0.065014124 0.0006811827 -0.0114030875
0.016111217 0.008299902 0.09040128 0.18078366 -0.028079385 -0.010386079 -0.034069102 -0.0067082467
0.008462224 -0.020316146 -0.011852918 -0.015640926 -0.002330682 -0.0051518055 -0.005637587 0.0018995684
0.008861469 0.0057482026 0.003407875 -0.0016845176 -0.014324941 -0.015217416 -0.006060599 -0.009814805
0.0028791705 0.0010328825 -0.02573923 -0.0128731225 -0.00091912365 0.006024164 0.001206506 0.007686832
00000000: 2df6 ddbe 7c00 f6be bbd7 553d 328a f5bb
00000010: c440 4c3d d614 8b3c e750 ee3c 231b ecbc
00000020: a16e 26bc 373a e63b 4d22 90bb 820d 243c
00000030: c8dc 263d 8038 9d3d a800 1abc dd2a e33b
00000040: 59d7 85bc 704e 5f3b 700a 513a 2461 793c
00000050: 9282 51bc c3d9 213c 0acc dbbb 66af ed3b
00000060: fcad 123d 9066 9f3c d07c 8ebc e23a 95bc
00000070: 4711 f13c f96f 053b 2ac7 9ebb fa40 813b
00000080: 0723 ffba 55c0 b03a 9826 81b9 a4a9 b63a
00000090: 08bd dc3c 1c2a a93c af3a e9bb e71d 7d3c
000000a0: d676 6ebc 786b 803c 8640 9e3d 7a81 513e
000000b0: c315 403c dcfc 4cbb ac4f 183c 67d5 0f3c
000000c0: 41a7 2ebc 4648 153c da7e 873c b4f7 caba
000000d0: c6ce bc3b b85d d3bb 80cf 10bd 26f7 21bd
000000e0: 81d4 2cbd 2fe8 033c 15d1 8bbc 0821 da3a
000000f0: 26d9 003e 4edc 953d ea5c 543b 64de debc
00000100: 31f0 a03b c9ac bfbc 04e0 723d b953 c13d
00000110: 4336 36bd 300e 233d edfe 2cbc 52eb e53c
00000120: f0ac 8b3c f772 bf3c 3415 9d3b 40d3 a4bc
00000130: a14a 18bc 3314 89bc 5477 2ebc 73d3 4c3b
00000140: 5bf8 273b ccaf 83bb 8492 043c 4e29 2eba
00000150: 7cda 513d 7601 633d 8402 9f3c 6af8 5dbd
00000160: e115 023d 2a80 24bd 326d 283d a9bc 183d
00000170: a9e0 0c3c ee8d dbbc 2dd4 933c 2ee9 38bc
00000180: 10fa 2ebc 4eed 923c 9077 9fbb 32c1 523c
00000190: 0445 af3a b15e 1f3c 7975 b43c 4050 8eb9
000001a0: 03fa ecbb a144 8e3c 2829 92bc 7741 593c
000001b0: e2e0 fd3b 456b c0bb 3389 103c 2c03 4cbc
000001c0: de0c c53c 227c 1ebb 9315 a63d f491 bb3d
000001d0: 47fd 693d ea87 8fbc aff1 173d baa9 25bb
000001e0: acfa 5a3d 059d 883e ae36 efbc 180d 323d
000001f0: afeb acbb a8b0 d23c e27a 723b 9ed2 e5ba
00000200: 96bc 0fba c0f9 2f37 4f6f efb9 8e74 8339
00000210: 7466 a43b da64 433d a41e 05ba 617b 253c
00000220: da12 b73a bd7e fe3b 730b 313e 208e df3c
00000230: 83a7 673c 0361 20bd fceb 803d e3bf 02bc
00000240: 7573 b0bb c861 3e3b 0843 883b c5b4 223b
00000250: d806 1f3b a276 5639 1c77 713d 37c8 303e
00000260: 9ec2 e0bb 8ab1 123c c8a0 d9bb 1c31 153c
00000270: 4dc6 e83c 2026 853d 6691 323a 04d4 3abc
00000280: acfb 833c 50fc 073c 4e24 b93d 5a1f 393e
00000290: bd06 e6bc 5f2a 2abc 0b8c 0bbd dad0 dbbb
000002a0: 24a5 0a3c 0c6e a6bc be32 42bc 6621 80bc
000002b0: 5bbe 18bb 7ad0 a8bb 82bb b8bb f0fa f83a
000002c0: b22f 113c 6b5b bc3b a856 5f3b 08cb dcba
000002d0: 28b3 6abc 7852 79bc fd97 c6bb 47ce 20bc
000002e0: 77b0 3c3b c961 873a 14db d2bc cae9 52bc
000002f0: 58f1 70ba 5a66 c53b a023 9e3a d2e1 fb3b

momentum_buffer f4 [32]
-2.3914637e-08 1.894851e-09 4.6917727e-08 8.917092e-09 -1.8042149e-08 -1.3146317e-11 1.2822934e-08 -3.3458164e-08
-2.0498781e-08 4.002037e-08 -1.35804985e-08 1.7602801e-08 -1.4596621e-08 -7.839235e-09 1.035479e-08 -4.615376e-09
1.47297765e-08 4.487748e-09 3.791655e-09 -2.4982644e-08 -8.8211305e-09 -1.8467317e-10 -6.2489125e-10 -4.0359016e-08
3.966745e-09 9.850092e-09 -3.1483296e-09 1.2349217e-08 -5.2163256e-09 -2.247585e-08 3.439672e-08 -5.920578e-09
00000000: d86c cdb2 9236 0231 9682 4933 c931 1932
00000010: 1bfb 9ab2 c045 67ad dc4b 5c32 a4b3 0fb3
00000020: 4c15 b0b2 dde2 2b33 aa4f 69b2 f834 9732
00000030: 9ec4 7ab2 52ad 06b2 d9e4 3132 4795 9eb1
00000040: 3e0e 7d32 a632 9a31 c047 8231 6a99 d6b2
00000050: be8b 17b2 e00c 4baf d0c4 2bb0 3557 2db3
00000060: dc4b 8831 2a39 2932 005a 58b1 6e28 5432
00000070: 493b b3b1 eb10 c1b2 98bb 1333 f46d cbb1

momentum_buffer f4 [3, 32]
0.15505815 -0.15200238 -0.10108586 -0.16191085 -0.036057524 -0.16277693 -0.13522492 -0.020618334
-0.13566801 -0.15641895 -0.06631766 -0.025401592 -0.22798079 0.018864434 -0.113404736 -0.08184087
-0.18689828 -0.13758172 0.041420598 -0.2151182 -0.12110613 0.055738825 -0.09835844 0.09797635
-0.20186053 -0.056626275 0.0319527 -0.07010711 0.12405942 -0.19014257 0.16798703 0.07190719
0.02022782 -0.009827792 0.038993143 -0.008398576 0.045095973 0.011135077 0.04950852 0.021735623
-0.023990054 -0.04903365 0.0036407206 -0.06902559 0.005103575 0.15064836 0.0066840257 -0.018054485
-0.0399177 0.008153319 0.15218566 0.0069291405 -0.047211383 0.16240655 -0.04175273 0.16690482
0.011492113 0.046030924 0.037262507 0.038867272 0.13052666 0.027684178 0.117546394 0.12976854
-0.24386585 0.19678321 0.0048891976 0.224867 -0.017335113 0.19478665 0.22179626 -0.016603138
0.22943214 0.11671183 0.07473375 0.086257815 0.1517585 -0.02915364 0.015981615 -0.038578197
0.18955214 0.22881359 -0.052425347 0.11832306 0.124549195 -0.0628032 0.1967834 -0.12672052
0.20952119 0.009122688 -0.030127095 0.022323668 -0.14154877 0.22090091 -0.17455575 -0.09323125
00000000: 90c7 1e3e 83a6 1bbe 1a06 cfbd f5cb 25be
00000010: 0eb1 13bd ffae 26be 6778 0abe c8e7 a8bc
00000020: 8eec 0abe 4a2c 20be 8ed1 87bd 0017 d0bc
00000030: cc73 69be 9689 9a3c be40 e8bd 309c a7bd
00000040: 4362 3fbe 39e2 0cbe a5a8 293d f247 5cbe
00000050: 7e06 f8bd 654e 643d 2670 c9bd d3a7 c83d
00000060: 87b4 4ebe f4f0 67bd d6e0 023d 5194 8fbd
00000070: dd12 fe3d bcb4 42be cb04 2c3e 1444 933d
00000080: d0b4 a53c bf04 21bc 46b7 1f3d 2e9a 09bc
00000090: 8eb6 383d e66f 363c 72c9 4a3d e80e b23c
000000a0: ca86 c4bc 82d7 48bd 2899 6e3b 4a5d 8dbd
000000b0: e43b a73b 9043 1a3e ac05 db3b 00e7 93bc
000000c0: be80 23bd 8095 053c 8fd6 1b3e d80d e33b
000000d0: b960 41bd e74d 263e e904 2bbd 19e9 2a3e
000000e0: 6a49 3c3c ec8a 3c3d 92a0 183d 4a33 1f3d
000000f0: c8a8 053e eec9 e23c 2abc f03d 0be2 043e
00000100: f8b7 79be 8a81 493e 9035 a03b 8943 663e
00000110: 5e02 8ebc 2776 473e 8f1e 633e 4e03 88bc
00000120: 42f0 6a3e 9d06 ef3d 020e 993d f0a7 b03d
00000130: 9566 1b3e 9dd3 eebc e0eb 823c 2c04 1ebd
00000140: f519 423e 1c4e 6a3e f6bb 56bd 5c53 f23d
00000150: a613 ff3d f79e 80bd 9681 493e 06c3 01be
00000160: b98c 563e 5477 153c 19cd f6bc 20e0 b63c
00000170: 29f2 10be d933 623e bebe 32be 07f0 bebd

momentum_buffer f4 [3]
-0.066692375 0.14032394 0.050517753
00000000: 0396 88bd 14b1 0f3e b4eb 4e3d

momentum_buffer f4 [32]
-0.04132974 -0.03927481 -0.0009808764 0.0014452711 0.0044826693 0.0072361287 -0.027253792 0.0067833513
-0.03264791 -0.015088892 0.00799021 -0.016118586 0.0013774047 0.016686697 0.028876185 0.0138792945
-0.04620239 -0.041261233 0.009340214 0.016895559 -0.056471907 -0.005537877 -0.009395534 -0.003025602
-0.020799741 -0.007450059 0.0042958506 0.0017396659 -0.027295638 -0.056032464 -0.052305065 -0.012351928
00000000: 6049 29bd a0de 20bd c090 80ba 406f bd3a
00000010: 5be3 923b 0c1d ed3b 5843 dfbc e046 de3b
00000020: d1b9 05bd 6637 77bc 5fe9 023c 200b 84bc
00000030: 088a b43a 8ab2 883c c08d ec3c fb65 633c
00000040: b83e 3dbd 8a01 29bd b207 193c 8e68 8a3c
00000050: 164f 67bd 1477 b5bb baef 19bc 2e49 46bb
00000060: 3864 aabc a01f f4bb 35c4 8c3b 8005 e43a
00000070: 1a9b dfbc 4c82 65bd d63d 56bd be5f 4abc

momentum_buffer f4 [32]
-0.05252049 -0.041677423 0.021146268 -0.0019842694 0.0028945897 0.0064120204 -0.026847271 0.03158627
-0.029730257 0.007246866 -0.0014054477 -0.006471727 -0.0027680248 -0.0007880167 0.0053007044 0.009935325
-0.030555325 -0.044345044 -0.015916392 0.0046362784 -0.02644414 -0.004995389 -0.009184203 -0.032683566
-0.01895901 0.0029144417 0.0074714283 0.01603722 -0.021441586 -0.060508527 -0.044214424 -0.00934038
00000000: ba1f 57bd f2b5 2abd f03a ad3c 840a 02bb
00000010: 28b3 3d3b ed1b d23b cfee dbbc 9b60 013d
00000020: de8c f3bc 1e77 ed3b 0037 b8ba c810 d4bb
00000030: c067 35bb e892 4eba 88b1 ad3b c6c7 223c
00000040: 294f fabc 26a3 35bd 1863 82bc eceb 973b
00000050: 62a1 d8bc 5cb0 a3bb 5779 16bc 34df 05bd
00000060: ed4f 9bbc 3800 3f3b e2d2 f43b 7d60 833c
00000070: 44a6 afbc cad7 77bd 2f1a 35bd 6508 19bc
