examples/toy_examples/outputs/best_model_20231127-112638.pth (torch, 7093 bytes, 14 tensors)

enc.lins.0.weight f4 [16, 6]
000000 3c 60 9f be 31 63 c4 3e 58 14 59 3e 5f 20 e7 3e
       -0.31128109 0.38356927 0.21199167 0.45141885
000010 be 27 47 3d 2c 79 8a be 93 a1 52 3e 33 a3 9d 3e
       0.048621885 -0.27045572 0.20569448 0.30788574
000020 3e 1b 88 3d ec 2b 2f 3e d2 43 aa be ad 79 13 be
       0.06645821 0.17106599 -0.33254868 -0.14401884
000030 87 ea e3 3e 6a 60 20 be 1c db f7 bd b4 2e 33 be
       0.44514868 -0.15661779 -0.12102339 -0.17498285
000040 6b b3 7a 3e a1 db 20 3d 17 c6 f5 be e1 70 f1 3e
       0.24482505 0.039271954 -0.48002693 0.47156432
000050 21 ae 45 3e 14 f7 4b be 3e 15 b8 be a1 fe 8f 3e
       0.19304706 -0.19918472 -0.35953707 0.28123954
000060 6e 30 98 3e ff 1f 98 be a2 f4 97 3e 4e 1c 8b 3e
       0.2972445 -0.2971191 0.29678828 0.27170032
000070 fb 97 4b be 33 ec 43 be 7a b5 e9 be 95 fa b0 3d
       -0.19882195 -0.19133072 -0.45646268 0.08641545
000080 c7 b6 e1 bd 99 b7 af be 6d e5 aa 3e c5 3e 70 bc
       -0.1102119 -0.3431976 0.33378163 -0.014663403
000090 71 90 18 3e 73 d7 b3 3e 8e 44 95 be 74 11 28 be
       0.1489885 0.35125312 -0.29153866 -0.16412908
0000a0 38 d6 48 3e 61 12 a3 be 9f 22 a6 3e 23 4b ca be
       0.19612968 -0.3184996 0.3244829 -0.3951045
0000b0 89 2a 8e be 4a 53 90 be 32 cd ac 3d 43 93 3f 3e
       -0.27766827 -0.28188545 0.084375754 0.1870852
0000c0 03 1f bc 3d 32 69 c0 be 26 58 48 be 25 69 2c 3e
       0.091856025 -0.37580258 -0.19564876 0.16836984
0000d0 fe 84 6f bd 61 a2 d2 3d 2a 9b ce be 72 b7 de 3d
       -0.05847644 0.102848776 -0.40352756 0.10874833
0000e0 6b af 36 3e 87 3e 76 3e 70 79 bb 3e 04 d8 bc 3e
       0.17840354 0.2404729 0.36616087 0.36883557
0000f0 81 8a 01 be 5f 12 13 be 8e 13 40 bd e8 75 08 3e
       -0.12650491 -0.14362477 -0.04689365 0.13326228
000100 79 ea 26 3e 53 a7 03 bd 1d 7c 80 be 27 1a 9a be
       0.16300382 -0.032141995 -0.2509469 -0.30098078
000110 26 8f ce 3e 1b 81 98 bd a1 85 a5 bd 46 40 87 be
       0.4034359 -0.074465 -0.08082128 -0.26416224
000120 82 5f a8 be 59 91 92 3e 43 06 21 3e ea f0 8b bd
       -0.32885367 0.28626516 0.15725045 -0.0683306
000130 f5 61 85 be b9 6e 46 3e b2 9f 66 be 79 ac ac be
       -0.26051298 0.19378175 -0.22521856 -0.33725336
000140 1b d8 91 bd 52 75 bd 3e e4 d2 63 3d 44 df 8e 3c
       -0.07121297 0.3700357 0.055621043 0.017440446
000150 5b 47 04 bd ad 23 89 3e 48 b7 c6 bd 51 c5 ce 3e
       -0.032294612 0.2678503 -0.09702927 0.40384915
000160 d4 01 d5 3c 82 0d 9b bc 6f 09 a8 39 c2 87 08 be
       0.026001848 -0.01892734 0.00032050486 -0.13333037
000170 36 17 ad 3e 1d 9e 88 3e d3 11 b6 be 82 0b c0 be
       0.3380677 0.2668313 -0.35560474 -0.3750878

enc.lins.0.bias f4 [16]
000000 0c 3c d7 bd 6e dd 8a 3e 41 d1 4d be fa ba c1 3e
       -0.105095 0.27122062 -0.20099355 0.37837964
000010 fc 2e 52 be a4 cf bc be b0 e4 37 3e cd a4 7c be
       -0.20525736 -0.36877167 0.17958331 -0.24672242
000020 dc cc 83 bd ea 63 02 be d8 de 04 bd 1b 23 b6 be
       -0.06435558 -0.12733427 -0.032439083 -0.35573658
000030 5e b7 bf be 58 b5 33 3e 00 7c 3d bd a2 2d 7c be
       -0.37444586 0.17549646 -0.046260834 -0.24626783

enc.lins.1.weight f4 [3, 16]
000000 a7 18 5d 3e f6 e9 bb be d4 4f d8 be 33 73 88 3e
       0.21591435 -0.36701936 -0.42248404 0.2665039
000010 25 4b 01 3f ea b9 02 bf a1 7b 36 be 5f 1d 35 3e
       0.50505286 -0.5106493 -0.17820598 0.17686985
000020 22 06 59 3e 84 9a ea be ff 95 dd 3c fe 90 13 3d
       0.21193746 -0.4582101 0.027049063 0.036026947
000030 8e de ec 3d da e3 31 be 18 d2 0c 3e 59 0f f9 3d
       0.115658864 -0.17372075 0.1375202 0.121611305
000040 60 00 ba be ec 0b e6 bc 4c 47 a2 3e 98 dc 45 be
       -0.3632841 -0.028081857 0.3169502 -0.19322431
000050 fd 7e 0c 3e 7a 8e 92 3b 29 7b 35 bd 7e 11 68 3d
       0.13720317 0.004472551 -0.044306908 0.056657307
000060 c5 5c 4b 3d bd c6 32 3d ed f3 1b 3c 5c 66 d1 3d
       0.04964902 0.043646563 0.009518606 0.102246016
000070 d5 b3 2a be 4c b2 cc 3d 25 d6 17 be af 63 0a 3d
       -0.16670163 0.09994945 -0.14827783 0.033786472
000080 0b 6d 24 3d 15 19 b0 be 53 6e 12 be f5 50 17 3e
       0.040143054 -0.34394136 -0.14299898 0.14776976
000090 83 2e 6b be 4e 5d 63 3e e1 e5 20 bd 67 57 04 bd
       -0.22966962 0.22203562 -0.03928173 -0.032309916
0000a0 f1 72 52 3e a0 f7 7c bc ca c1 33 bd 84 ce 49 3e
       0.20551659 -0.015439898 -0.043885984 0.19707686
0000b0 25 4c 1d 3e d2 90 b9 3e 81 c3 74 be 5b a5 0a 3e
       0.15361078 0.36243302 -0.23902704 0.1353964

enc.lins.1.bias f4 [3]
000000 76 63 34 3e f7 4f 95 3c 21 cc 17 be
       0.17616066 0.018226607 -0.14823963

enc.norms.0.module.weight f4 [16]
000000 94 c2 80 3f 61 7c 84 3f ac 51 87 3f a9 0b 7b 3f
       1.005938 1.0350457 1.0571799 0.98064667
000010 79 07 84 3f c1 74 88 3f dd 59 73 3f 03 f4 6e 3f
       1.031478 1.066063 0.95058995 0.9334108
000020 ad b6 74 3f 17 d5 81 3f 2d f6 6e 3f f6 03 78 3f
       0.9559124 1.0143155 0.93344384 0.96881044
000030 d1 ec 70 3f 66 13 80 3f f6 55 76 3f 63 61 75 3f
       0.94111353 1.000592 0.96224916 0.95851725

enc.norms.0.module.bias f4 [16]
000000 3a 41 0c 3e ee c5 5d 3d 36 f5 81 3d 35 e9 98 3d
       0.13696757 0.05414384 0.063455984 0.07466356
000010 23 67 17 3e 5d a2 dc bc a9 8f fc 3b 16 bc 8b 3d
       0.14785437 -0.02693289 0.0077075553 0.06822984
000020 7c ca f1 3d c1 31 35 be 77 f7 61 bd b6 bf cf 3c
       0.11806199 -0.17694761 -0.05516764 0.02535997
000030 28 91 4c 3d f4 58 68 3d 41 7d b3 3d 46 91 cc bc
       0.04994312 0.056725457 0.08764125 -0.024971616

enc.norms.0.module.running_mean f4 [16]
000000 b1 1e a3 bd 75 b7 98 3e 80 f6 5e be ab 0e c3 3e
       -0.07964838 0.29827467 -0.2177372 0.38097128
000010 41 d9 3b be e5 03 cf be d8 92 2b 3e 77 bd 88 be
       -0.18344595 -0.4043266 0.16755235 -0.2670705
000020 71 40 61 bd 1a 3a 03 be ef ff 07 bd fa 6b ba be
       -0.054993097 -0.12815133 -0.03320306 -0.36410505
000030 be b2 bc be 37 64 42 3e 4c 98 a7 bc 07 b9 61 be
       -0.3685512 0.18983541 -0.020458363 -0.22043239

enc.norms.0.module.running_var f4 [16]
000000 d3 28 86 3d d2 48 2a 3e b2 dc 9a 3d cf c7 d1 3d
       0.06550755 0.16629341 0.075616255 0.102431886
000010 84 ff 2c 3d 0c b2 d1 3d 3e 3a 2a 3e 07 95 8a 3d
       0.042235866 0.10239038 0.1662378 0.06766706
000020 a1 27 b1 3d 72 4b 97 3d b6 63 36 3d 55 3e 43 3e
       0.08650137 0.07387437 0.044528686 0.19066747
000030 65 40 2b 3d 1c 28 4b 3e 81 8e 5b 3d c8 3c 97 3c
       0.04180946 0.1983952 0.0536027 0.0184616

momentum_buffer f4 [16, 6]
000000 87 d7 9f bd 9a 04 82 bd c2 ae cc 3c e6 a0 b2 3c
       -0.078047805 -0.06348534 0.024985675 0.021805238
000010 3b 6d 02 3d b3 e0 7b 3d f8 fb 59 bd 98 c0 83 3b
       0.03184245 0.061493587 -0.05321881 0.0040207617
000020 d9 b3 51 bc ef 6c 83 3c 3c fb 57 bc bb cf c2 bc
       -0.012799227 0.016043155 -0.013182458 -0.023780694
000030 3e bc 3c bd 4d 97 8b bd aa 00 8a bc e2 0e 31 bd
       -0.04607796 -0.06815968 -0.01684602 -0.043227084
000040 e6 66 35 3c db 9f 81 bd 94 8b a5 3d 7c 6d 74 3d
       0.011071896 -0.06329318 0.08083263 0.059674725
000050 cd 93 14 bb c0 5b 72 ba 70 5d e3 3b f9 4c 43 3d
       -0.0022671104 -0.0009245239 0.006938629 0.04768083
000060 41 86 0b bf 72 07 03 bf 27 09 c4 3c ba a2 22 3d
       -0.5450173 -0.51183236 0.023930145 0.03970597
000070 67 fa 51 3c e5 1d eb 3c d6 d8 96 3c 7f db 24 3d
       0.012816048 0.028700778 0.018413942 0.04024839
000080 ac 92 f0 3a 02 15 b9 3c f2 b3 20 3d 80 09 83 3c
       0.0018354259 0.022593025 0.03923411 0.01599574
000090 aa c6 fb bc 42 ff 07 3c 3d 3f 06 bc c4 91 ae 3b
       -0.030734379 0.008300604 -0.008193788 0.005327435
0000a0 d2 95 8c bb 94 a6 4b bb 4c 47 fd bd 6c 53 d2 bd
       -0.004290321 -0.003107463 -0.123671144 -0.10269818
0000b0 30 c9 d3 3b bc f8 2b bb 03 0d c3 3b bc e5 0e 3a
       0.0064631924 -0.0026240787 0.005952479 0.0005451103
0000c0 f4 04 c6 3d 03 e7 71 3c fa 3d 21 3c 8b f1 e9 bb
       0.096689135 0.01476455 0.0098414365 -0.00713939
0000d0 ae 2f 01 3c 9e 59 20 3b 98 6e 45 bd 30 75 43 bd
       0.007884903 0.0024467479 -0.048201174 -0.04771918
0000e0 be 6c 5f bc ad 2d 40 3c da b8 4e bc c2 0b df bc
       -0.013636766 0.01172964 -0.012617314 -0.027227286
0000f0 cf 72 16 bd 76 61 d3 3c fe e9 8c ba 18 c6 1d ba
       -0.036730584 0.025803309 -0.0010750887 -0.0006018593
000100 30 f7 c9 bb ea 22 48 bb 2d 1c 80 3d 3b 2c 75 bd
       -0.0061635002 -0.0030538389 0.06255374 -0.059856635
000110 9c 4f b2 ba e4 2d 51 3a da 74 e4 3b 92 a3 8e 3b
       -0.0013604048 0.00079795555 0.0069719376 0.004352995
000120 a1 07 02 3e 9e 79 06 3e b3 ac 27 3c 2d f0 6d bb
       0.12698223 0.13132331 0.010234046 -0.0036306486
000130 e2 8b c1 3c c9 d5 32 3d aa 28 28 3e a2 18 d9 bd
       0.023626272 0.043660913 0.16421762 -0.106004015
000140 70 15 65 3a 90 b1 77 ba c4 0e d1 3c c8 02 4d 3c
       0.0008738851 -0.0009448761 0.025519736 0.01251287
000150 7e ef 46 be 7b 41 a2 bd 69 ea b8 3c 81 61 32 3d
       -0.19427297 -0.07922646 0.022572713 0.04355002
000160 d0 9f 33 3c 25 33 21 3d e2 28 01 3e 7e 3f f0 bc
       0.010963395 0.039355416 0.12613252 -0.02932715
000170 b6 1c 5b 3c a6 41 b7 bc 68 98 64 3c ea 43 d5 bb
       0.013373544 -0.02237017 0.013952352 -0.00650834

momentum_buffer f4 [16]
000000 f4 4e 15 31 c5 2c fb b1 50 fa 8c b2 f6 37 23 33
       2.1727233e-09 -7.310151e-09 -1.6411974e-08 3.800229e-08
000010 04 89 34 33 34 2b 08 b3 3e 96 51 b2 04 33 16 b3
       4.203413e-08 -3.170426e-08 -1.2199562e-08 -3.4970995e-08
000020 84 96 30 b2 12 77 c9 b2 aa 39 e7 31 ff a3 c9 32
       -1.0278772e-08 -2.3453627e-08 6.7295405e-09 2.3474056e-08
000030 38 10 54 31 e2 7f 14 b2 98 c9 20 b3 d9 1e 47 b3
       3.085928e-09 -8.643811e-09 -3.743625e-08 -4.6361354e-08

momentum_buffer f4 [3, 16]
000000 b4 31 5e bd 87 e0 3b 3c 00 63 27 ba 53 e4 53 bc
       -0.05424662 0.011467106 -0.00063852966 -0.012932855
000010 ce 5d 85 bd e5 c2 29 3e 00 53 e5 39 28 8f 68 bd
       -0.065120324 0.16578253 0.00043740124 -0.05677715
000020 04 1e 33 3d 4d 99 0b 3e b2 22 01 3e 9f 4b 18 3e
       0.043729797 0.13632698 0.12610891 0.14872597
000030 b3 89 cc 3b 54 8a 1a 3e a2 6a 58 ba 96 c9 db 3d
       0.006242001 0.1509183 -0.00082556356 0.10731809
000040 04 36 79 bd 2b e7 ef 3c ae 02 4c bd 44 00 e4 bd
       -0.06084253 0.029285034 -0.049807243 -0.11132863
000050 b0 ba 14 bd 90 de c3 bd 8b f7 23 3d 00 0e 49 39
       -0.03631085 -0.09563935 0.040030997 0.00019174069
000060 48 e8 63 3d f8 5f 0b be 5e e3 89 3d ee e0 9a 3d
       0.055641443 -0.13610828 0.0673282 0.07562433
000070 e5 b4 ee bd 24 3b c4 3d 28 7f 75 bc c1 5c 9b 3d
       -0.11655597 0.09581593 -0.01498393 0.07586051
000080 c0 c6 fc bc 44 12 8a 3e 34 96 9f 3e 3c 1f 91 bd
       -0.03085649 0.2696706 0.31169283 -0.070860356
000090 e7 26 29 3e c7 df e7 be 7e fb 6d 3e 25 29 a6 3d
       0.16518746 -0.45287916 0.23240468 0.081133164
0000a0 76 4f 40 be 68 6c aa be 99 f6 a0 be 96 07 c1 be
       -0.18780312 -0.33285832 -0.3143814 -0.377011
0000b0 2c 6f 0b be 30 91 be be 64 ef 2d 3e 49 d4 95 be
       -0.13616627 -0.37220144 0.16985852 -0.29263523

momentum_buffer f4 [3]
000000 b0 77 6e 3d 27 d1 22 3d 5a 60 f0 bd
       0.05821961 0.039750244 -0.117371276

momentum_buffer f4 [16]
000000 48 1c 0b 3c 04 f6 bd bd d8 c7 5e bd 4c ad 23 3c
       0.0084906295 -0.092754394 -0.054389805 0.009990048
000010 fb a2 a5 bd ed 16 35 be ae b6 3d bc 48 5d 6e bc
       -0.08087727 -0.17684527 -0.011579199 -0.014548607
000020 e8 10 ba bc 28 64 85 bd c6 8b a6 3c 1d 4d 7d bd
       -0.02271314 -0.06513244 0.020330321 -0.06184112
000030 80 16 f2 3a 6c 93 12 be c2 68 18 bd b7 1b d4 bc
       0.001846984 -0.1431405 -0.03720928 -0.025892122

momentum_buffer f4 [16]
000000 e0 f1 92 3b 82 1b 06 bd 84 a8 26 bd 84 38 f1 bc
       0.0044844 -0.032741077 -0.040688053 -0.029445894
000010 a9 1d 53 3d 56 71 dc bd 9c 67 77 3b 22 a4 5f 3c
       0.051541958 -0.107638046 0.0037750965 0.013649972
000020 88 44 28 bd 88 d2 81 bc 64 9c a6 3c 70 2a 50 bd
       -0.04108098 -0.01584746 0.020338245 -0.05082172
000030 3a de 4c bd c2 f1 15 be 26 02 fb bc 4e de 05 bd
       -0.05001662 -0.14643005 -0.030640673 -0.03268271
