examples/toy_examples/outputs/best_model_20231127-121448.pth (torch, 6834 bytes, 14 tensors)

enc.lins.0.weight f4 [16, 2]
-0.13445722 -0.5033392 0.3723502 0.8219952 0.57753 0.17011307 -0.24468346 0.38795564
-0.20235118 -0.5403263 0.55365014 0.2933304 -0.44593385 0.6262071 0.08715912 0.48525587
-0.65627056 0.1159334 0.53775454 0.14719315 -0.55830973 0.4697266 0.33852684 0.31754965
0.2636076 -0.02747947 0.32471856 -0.32177904 -0.40492508 0.44773927 0.24781208 0.3102611
00000000: 27af 09be d6da 00bf afa4 be3e 476e 523f
00000010: 02d9 133f 1f32 2e3e 4d8e 7abe 1fa2 c63e
00000020: 2635 4fbe d352 0abf 04bc 0d3f 672f 963e
00000030: 7151 e4be 1c4f 203f 7b80 b23d 7573 f83e
00000040: 5901 28bf 7e6e ed3d 48aa 093f cdb9 163e
00000050: 63ed 0ebf 0180 f03e 6453 ad3e de95 a23e
00000060: 93f7 863e a01c e1bc 8341 a63e 39c0 a4be
00000070: 5752 cfbe 153e e53e 73c2 7d3e 8bda 9e3e

enc.lins.0.bias f4 [16]
-0.07853922 -0.093836255 -0.05619997 0.18645185 -0.54260427 -0.6590655 0.26459646 -0.38714308
-0.0594836 0.19603035 0.09917839 0.4558444 0.092690066 0.17506218 -0.063293785 0.10437676
00000000: 2cd9 a0bd 392d c0bd f131 66bd 3ced 3e3e
00000010: 1de8 0abf 84b8 28bf 3079 873e 9e37 c6be
00000020: 13a5 73bd 2ebc 483e 0a1e cb3d 7064 e93e
00000030: 4ad4 bd3d 8043 333e 2ca0 81bd 7cc3 d53d

enc.lins.1.weight f4 [3, 16]
0.1913989 0.67219454 -0.3589244 -0.20434947 -0.7884276 -0.31347725 -0.118296385 -0.48716414
-0.36138812 0.40746397 -0.4875117 0.123415865 -0.081116274 0.037548013 0.20917886 -0.49705425
0.55451065 0.8871167 -0.398778 0.07357029 -0.2967999 -0.3761137 -0.10222602 -0.3370738
0.239552 0.8762692 -0.09868803 -0.67957896 -0.07706569 0.036825437 0.18970118 -0.28982976
-0.06661997 -0.01672573 -0.33825967 -0.47079915 -0.39474225 -0.15231602 0.22579595 0.026330728
0.3651377 0.34798425 -0.41901854 0.07445122 -0.123913564 -0.22805505 0.7850843 0.002561319
00000000: 13fe 433e f114 2c3f f0c4 b7be fd40 51be
00000010: 64d6 49bf 1780 a0be 6045 f2bd 946d f9be
00000020: dd07 b9be 1e9f d03e 229b f9be 75c1 fc3d
00000030: 4a20 a6bd f2cb 193d fc32 563e e57d febe
00000040: 69f4 0d3f 141a 633f a12c ccbe 05ac 963d
00000050: 28f6 97be fa91 c0be e05b d1bd f094 acbe
00000060: 1f4d 753e 2e53 603f f31c cabd e3f8 2dbf
00000070: 9ed4 9dbd 45d6 163d 0741 423e 9164 94be
00000080: 0d70 88bd 6604 89bc 5f30 adbe 960c f1be
00000090: a81b cabe bbf8 1bbe 0e37 673e 8ab3 d73c
000000a0: 54f3 ba3e fe2a b23e 9989 d6be e279 983d
000000b0: 65c6 fdbd 4387 69be 49fb 483f cddb 273b

enc.lins.1.bias f4 [3]
0.9064469 0.21752764 -0.25740144
00000000: e70c 683f 91bf 5e3e 1fca 83be

enc.norms.0.module.weight f4 [16]
0.8927382 1.3321977 1.0191623 1.0201609 1.2208463 0.98396 0.84017545 0.9920185
0.9043184 1.2887211 1.0864967 0.9279703 0.9061614 0.9007729 0.89609873 1.0013331
00000000: 7e8a 643f 7485 aa3f e973 823f a294 823f
00000010: b144 9c3f cde4 7b3f bd15 573f edf4 7d3f
00000020: 6981 673f d0f4 a43f 5312 8b3f 768f 6d3f
00000030: 32fa 673f 0e99 663f ba66 653f af2b 803f

enc.norms.0.module.bias f4 [16]
0.44689277 -0.57730424 0.23828901 -0.061402395 -0.2714949 0.23116143 0.3598429 0.30678886
0.32848173 -0.49161398 -0.022932276 0.53517944 0.13464333 0.21042384 0.7069507 0.23059648
00000000: 21cf e43e 36ca 13bf 0902 743e 1481 7bbd
00000010: 6101 8bbe 95b5 6c3e 543d b83e 6e13 9d3e
00000020: c22e a83e d4b4 fbbe 78dc bbbc 8501 093f
00000030: f1df 093e 5979 573e b9fa 343f 7c21 6c3e

enc.norms.0.module.running_mean f4 [16]
-0.102229595 -0.050955787 -0.03358321 0.19515426 -0.5696241 -0.63220775 0.2772303 -0.36546853
-0.07289873 0.2166389 0.10251767 0.47775546 0.0988362 0.17120004 -0.056643132 0.123507924
00000000: c05d d1bd 04b7 50bd 8c8e 09bd 85d6 473e
00000010: e3d2 11bf 5ed8 21bf 21f1 8d3e b11e bbbe
00000020: ee4b 95bd 96d6 5d3e c9f4 d13d 5d9c f43e
00000030: a26a ca3d 104f 2f3e a102 68bd b9f1 fc3d

enc.norms.0.module.running_var f4 [16]
0.0063581755 0.018806165 0.008331 0.0052371225 0.0077300267 0.008922429 0.014725605 0.005738965
0.010637279 0.0071538044 0.013227284 0.004880028 0.0016709066 0.0052038324 0.00908167 0.00358594
00000000: 3e58 d03b 630f 9a3c bf7e 083c 2b9c ab3b
00000010: 2a4c fd3b 612f 123c aa43 713c ed0d bc3b
00000020: fb47 2e3c 766a ea3b 40b7 583c a4e8 9f3b
00000030: 5202 db3a e984 aa3b 49cb 143c 1702 6b3b

momentum_buffer f4 [16, 2]
-0.08601768 0.02271391 -0.5211294 0.23583478 -0.030570399 0.10460571 0.1431651 0.090319276
0.18077502 -0.06710155 -0.056584988 0.10731356 -0.038550623 -0.027507627 0.31918442 -0.057569943
-0.013893252 -0.07688573 0.10016956 -0.36961466 0.037598647 0.044446856 0.17978396 -0.19018471
0.006554313 0.059897006 0.07146199 0.07229728 -0.3315568 -0.3003385 0.32676774 -0.26034153
00000000: 0a2a b0bd 8612 ba3c bd68 05bf ac7e 713e
00000010: c66e fabc 853b d63d df99 123e 50f9 b83d
00000020: 161d 393e 8a6c 89bd a9c5 67bd 36c7 db3d
00000030: 42e7 1dbd ad57 e1bc 246c a33e 76ce 6bbd
00000040: 86a0 63bc 4476 9dbd b325 cd3d 223e bdbe
00000050: 0a01 1a3d e80d 363d 4919 383e c8bf 42be
00000060: 90c5 d63b 9056 753d aa5a 923d 9910 943d
00000070: d0c1 a9be f8c5 99be 1a4e a73e 7c4b 85be

momentum_buffer f4 [16]
-3.5459595e-07 3.071603e-07 1.6482676e-07 -1.0667184e-07 3.8980954e-07 8.618284e-07 2.6664237e-08 2.3004252e-07
8.5110784e-08 -9.48255e-07 -1.425189e-07 -2.1139535e-06 7.711378e-10 -6.5569274e-09 2.8034015e-07 -6.9354044e-08
00000000: 4c5f beb4 cae7 a434 3cfb 3034 7713 e5b3
00000010: 0447 d134 6658 6735 470b e532 9b01 7734
00000020: 26c6 b633 968b 7eb5 4c07 19b4 72dd 0db6
00000030: 00f8 5330 584b e1b1 a881 9634 caef 94b3

momentum_buffer f4 [3, 16]
0.12131493 -0.05227991 0.0929917 0.03982819 0.17913201 0.052556776 0.04212182 0.07311659
0.033206724 0.007093586 0.05030421 0.056156173 0.11180047 0.13107985 0.04221618 0.04086398
0.09050194 -0.021254651 -0.20001356 0.19211133 0.06550618 -0.19859976 0.21173434 0.036384962
0.21950991 -0.20071188 0.22276686 -0.18179306 -0.14288536 -0.119444996 0.2597667 -0.14581269
0.07632707 -0.044935144 -0.13651228 0.022203173 0.09799097 -0.12408441 -0.09049848 -0.13071188
0.12993838 -0.12574792 0.0757132 -0.20150368 -0.0746354 0.016332537 -0.15029655 -0.13082504
00000000: f673 f83d 7523 56bd 6f72 be3d e222 233d
00000010: 626e 373e c645 573d ee87 2c3d 27be 953d
00000020: c603 083d 5071 e83b ca0b 4e3d 0404 663d
00000030: a5f7 e43d cc39 063e e0ea 2c3d fd60 273d
00000040: 1559 b93d 3c1e aebc 5bd0 4cbe d5b8 443e
00000050: 1b28 863d bc5d 4bbe e3d0 583e 6608 153d
00000060: 35c7 603e 6a87 4dbe ff1c 643e f627 3abe
00000070: 8a50 12be 949f f4bd 2400 853e ec4f 15be
00000080: 5e51 9c3d ea0d 38bd e0c9 0bbe 6ee3 b53c
00000090: 7daf c83d f81f febd 4457 b9bd 56d9 05be
000000a0: 910e 053e 10c4 00be 860f 9b3d fb56 4ebe
000000b0: 72da 98bd d0cb 853c 57e7 19be 00f7 05be

momentum_buffer f4 [3]
0.10999037 0.029814167 -0.12242922
00000000: a242 e13d d73c f43c 2cbc fabd

momentum_buffer f4 [16]
0.05387646 -0.040495187 0.08165414 -0.0018389728 -0.18034329 0.08229688 -0.021426124 -0.041565567
0.10316281 -0.20100614 -0.07123828 0.1371992 0.011622654 -0.003458973 0.01695881 0.035149045
00000000: 90ad 5c3d 48de 25bd 493a a73d b009 f1ba
00000010: e9ab 38be 448b a83d d785 afbc a840 2abd
00000020: 0647 d33d 8ed4 4dbe 60e5 91bd f27d 0c3e
00000030: f26c 3e3c f0af 62bb 34ed 8a3c 72f8 0f3d

momentum_buffer f4 [16]
0.045382503 -0.0012570433 0.03942246 0.041673478 -0.07675419 -0.016463634 -0.080654375 -0.032754835
-0.015865088 -0.08611611 0.034801237 -0.022007901 0.005173132 -0.00025059655 -0.10611862 -0.05870812
00000000: 01e3 393d 60c3 a4ba 7279 213d cfb1 2a3d
00000010: 4d31 9dbd bede 86bc 1f2e a5bd ef29 06bd
00000020: 80f7 81bc a55d b0bd be8b 0e3d ea49 b4bc
00000030: 6083 a93b 8062 83b9 b854 d9bd ed77 70bd
