examples/toy_examples/outputs/best_model_20231127-121031.pth (torch, 6581 bytes, 14 tensors)

enc.lins.0.weight f4 [16, 2]
000000 b3 77 e8 be 51 bc f1 bd cc ea 2f 3f 20 4f 0f 3f
       -0.45403823 -0.11803497 0.68717647 0.5598011
000010 47 ce 0c 3f 38 49 33 bb 3f bd cb bb f9 db c6 3e
       0.55002254 -0.0027356874 -0.0062176283 0.388397
000020 c8 44 b3 bd 08 92 bd be 1a 6c 19 3f 8d ed e4 3d
       -0.08753353 -0.37025476 0.59930575 0.11178122
000030 33 b0 fb be d9 a3 15 3f 3d 21 ae 3c 4b 49 cf 3e
       -0.49157867 0.58453137 0.021256084 0.40485606
000040 3e 65 1f bf 05 e7 0a 3e c2 47 bc 3e ac 92 8c be
       -0.6226386 0.1356469 0.36773497 -0.27455652
000050 68 51 c2 be 28 04 15 3f 26 76 b7 3e 88 9a 23 3e
       -0.37952733 0.58209467 0.35832328 0.15976918
000060 bc ee 25 3e fb 1b d3 bd c7 eb bd 3e b5 82 6c be
       0.16204351 -0.10308071 0.37093946 -0.23096736
000070 a3 1b cc be 09 51 9e 3e 7c 68 25 3e 17 79 99 3e
       -0.39864835 0.309212 0.16153139 0.29975197

enc.lins.0.bias f4 [16]
000000 20 d9 a0 bd 30 2d c0 bd 1b 32 66 bd 3c ed 3e 3e
       -0.07853913 -0.09383619 -0.056200128 0.18645185
000010 21 e8 0a bf 84 b8 28 bf 30 79 87 3e af 37 c6 be
       -0.5426045 -0.6590655 0.26459646 -0.38714358
000020 3d a5 73 bd 24 bc 48 3e 08 1e cb 3d 82 64 e9 3e
       -0.059483755 0.1960302 0.099178374 0.45584494
000030 4c d4 bd 3d 80 43 33 3e 28 a0 81 bd 17 c3 d5 3d
       0.09269008 0.17506218 -0.063293755 0.10437601

enc.lins.1.weight f4 [3, 16]
000000 81 a8 ec 3c e7 fc e3 3d 48 60 80 be 1a 71 40 be
       0.028888943 0.11132222 -0.25073457 -0.18793145
000010 f2 27 aa be 94 3a 10 be 34 8b cd 3d 9c 2b a6 be
       -0.332336 -0.14084846 0.100363165 -0.32455146
000020 a3 de 6f be 51 88 38 3e 10 68 55 be 75 7f e0 3d
       -0.23424773 0.1802075 -0.20840478 0.109618105
000030 83 8c 45 3d 84 5a c9 3d 71 a2 45 3e 98 15 98 be
       0.048229706 0.098317176 0.19300248 -0.29703975
000040 21 2a a3 3e a5 fc cd 3c da 0c 76 be 44 0b 34 bd
       0.3186808 0.025144884 -0.2402834 -0.043956056
000050 d5 3d 8b 3e 11 ce 48 be a0 1d fd bd d4 87 85 be
       0.27195612 -0.19609858 -0.12359166 -0.2608019
000060 78 bf 69 3e 0f c5 3f 3e ba 01 f0 bd 2f ea b0 be
       0.22826946 0.18727516 -0.11719079 -0.34553668
000070 dc 75 00 be e1 1c 00 bb 90 26 ec 3d ef c6 bc bd
       -0.1254496 -0.0019548463 0.11530793 -0.09217631
000080 2b 40 70 3d 68 f6 f8 3d b7 4b 07 be de 4b 99 bd
       0.058654945 0.12156373 -0.13212477 -0.07485174
000090 87 8d f8 be b8 b4 29 3d d7 23 55 3e 54 23 9a 3d
       -0.48545477 0.041432112 0.20814453 0.075262696
0000a0 f3 76 94 3e f5 a9 11 be 76 4c 31 bd 70 26 ef 3d
       0.28997 -0.1422499 -0.04328581 0.11677253
0000b0 06 81 8e bd 74 d9 f4 bd 75 55 bc 3e 05 b4 51 3d
       -0.06958203 -0.119555384 0.3678395 0.05119707

enc.lins.1.bias f4 [3]
000000 dc 3e 00 3f c6 b9 1b 3e db be a3 bd
       0.50095916 0.15207586 -0.07995387

enc.norms.0.module.weight f4 [16]
000000 d4 5b 7c 3f 2d d3 7a 3f 6d 64 7e 3f e9 cd 7b 3f
       0.9857762 0.9797848 0.9937199 0.9836107
000010 84 7c 90 3f 50 16 80 3f 70 6e 7f 3f 70 48 82 3f
       1.1287999 1.0006809 0.9977789 1.0178356
000020 9f 59 7e 3f 3e c2 7e 3f 6e 64 7c 3f 88 e1 7f 3f
       0.993555 0.9951514 0.98590744 0.9995351
000030 d9 2a 7e 3f 4f e3 7e 3f ec 2a 7e 3f b3 b5 7f 3f
       0.9928413 0.99565595 0.99284244 0.99886626

enc.norms.0.module.bias f4 [16]
000000 8d e8 75 3e 24 78 89 bc 5d 4b 1b 3e f3 97 a8 3c
       0.24014492 -0.01678092 0.15165468 0.020580268
000010 9e ee 34 3d bb 3f e6 3d ae 6c 8c 3d af 39 54 3e
       0.044172876 0.11242624 0.068566665 0.2072513
000020 b0 19 0e 3e 40 30 70 bd 4d c2 48 3c 44 d0 44 3e
       0.13876987 -0.058639765 0.012253356 0.19220072
000030 06 44 42 3d 8d bb 51 3c b5 59 4b 3e bc b0 08 3e
       0.047428153 0.012801063 0.1985844 0.13348669

enc.norms.0.module.running_mean f4 [16]
000000 f6 30 c5 bd 7f dc 59 bd bc da 20 bd 4c 8d 4c 3e
       -0.09628479 -0.053188797 -0.0392711 0.19975775
000010 3e 0a 0f bf 60 05 23 bf 2b 28 8a 3e 00 5c be be
       -0.55875003 -0.63680077 0.2698377 -0.37179565
000020 6a 59 97 bd 8e d4 4a 3e 6c 37 dc 3d 91 da f1 3e
       -0.07390101 0.19807646 0.107527584 0.47237065
000030 cc 06 c2 3d 57 25 37 3e 10 a9 84 bd 0a 73 f5 3d
       0.09473953 0.17885338 -0.064775586 0.119848326

enc.norms.0.module.running_var f4 [16]
000000 69 ee f8 3b 03 0c d6 3c 39 b3 26 3c 3e 87 72 3b
       0.00759678 0.026128775 0.010174566 0.003700688
000010 d8 a6 80 3b b8 19 52 3c c9 58 70 3c 8b 68 88 3b
       0.0039261393 0.012823515 0.0146696055 0.004162853
000020 83 e4 53 3c 0e 9e bc 3b 85 ce 40 3c 43 6c ae 3b
       0.012932899 0.0057561463 0.011767988 0.0053229644
000030 b4 8a 89 3a 69 5b b1 3b ed a9 e1 3b 3b f8 60 3b
       0.0010493607 0.0054125083 0.006886712 0.0034327644

momentum_buffer f4 [16, 2]
000000 58 20 29 bc 58 a7 6c 3d 02 dd aa 3b 36 e1 d1 bb
       -0.010322653 0.05777678 0.0052143345 -0.006405021
000010 0a 8a c8 b9 e2 da d7 3b 24 a6 fa 3d e1 ce 58 3a
       -0.0003824982 0.006587372 0.1223872 0.00082705735
000020 a6 02 b7 be aa fb e6 3d 9d d8 04 3c 3e 18 39 bd
       -0.35744208 0.1127847 0.008108285 -0.045189135
000030 dc 0c 8e bc fd c6 71 bc 54 a2 e6 3e 2f 75 2f bd
       -0.017340116 -0.014756915 0.45045722 -0.042836364
000040 bd 06 b5 bb 44 a0 ff bc 06 bb 06 3c ed 24 72 3c
       -0.005524485 -0.03120435 0.008223301 0.014779312
000050 26 94 9d bd 4f b6 50 bd f2 92 ad 3c ec 69 53 bd
       -0.07694273 -0.050955113 0.021188233 -0.051614687
000060 69 ee 4c 3d cf 93 d0 3d d1 6e bd 3c 93 05 27 3d
       0.050032053 0.10184442 0.02312413 0.0407768
000070 a7 11 55 3d 92 69 84 3d ef c4 cf 3d 83 15 7a bd
       0.052018788 0.064654484 0.10144984 -0.06105567

momentum_buffer f4 [16]
000000 95 89 86 b3 64 42 28 b1 f8 45 4e b4 74 7b 5d b3
       -6.264887e-08 -2.4484956e-09 -1.92107e-07 -5.1567852e-08
000010 c1 eb c8 b5 70 ae 15 33 0a ae 4c b2 24 cd 00 b5
       -1.4969775e-06 3.4850416e-08 -1.1913935e-08 -4.7982235e-07
000020 af d3 fe b3 05 32 7d 34 00 b3 80 32 cb c3 0a 34
       -1.1866302e-07 2.3580658e-07 1.4982561e-08 1.292348e-07
000030 8b db 24 33 bf 41 8f 33 cb 30 b9 33 db 05 72 b3
       3.83839e-08 6.6709156e-08 8.623609e-08 -5.635034e-08

momentum_buffer f4 [3, 16]
000000 55 c0 4c 3d d2 04 07 bd 5b 0f ad bd ba 71 a0 3d
       0.04998811 -0.03296358 -0.084501944 0.078341916
000010 6e 30 a7 3d 22 42 83 bd 48 4e 15 3e 00 c1 a3 3d
       0.08163534 -0.06409098 0.14580643 0.07995796
000020 aa d0 bc 3d 75 ff b3 bd 32 52 20 3e 16 20 6f bd
       0.09219487 -0.08788959 0.15656355 -0.05838021
000030 34 55 c5 bd c8 2b bd bd 86 17 bc 3d a0 3e 0c 3b
       -0.09635392 -0.09236866 0.09184174 0.0021399632
000040 72 69 8f be 26 82 19 be c6 87 91 bd fa 79 57 bc
       -0.28010136 -0.14991054 -0.07105975 -0.01315164
000050 be f0 10 be 6f ef ae bd 2f 73 d0 3c 4a 37 97 3c
       -0.14154336 -0.08541762 0.025445549 0.018458981
000060 1f fb 27 be 81 63 e1 bd 0b cd 80 3d ba d3 5c bd
       -0.16404389 -0.11005307 0.06289109 -0.053912856
000070 d0 fb c3 bd 97 5e cb bd d6 18 93 bd 30 00 95 bd
       -0.09569514 -0.09930151 -0.071824715 -0.072754264
000080 9c 11 4d be 6f 96 e0 bc ca 60 e5 3d dc 36 1e be
       -0.20026249 -0.027415482 0.11200102 -0.15450615
000090 02 41 78 3e 22 d2 72 3d 6d de 93 be 37 57 4b be
       0.24243549 0.05928243 -0.28880635 -0.19857489
0000a0 b5 dd 8f be ab 05 4c 3e 3a b2 80 be eb 0a bb 3c
       -0.28098837 0.19924037 -0.25135976 0.022832355
0000b0 f6 72 4f 3e be f3 50 3e e4 de a4 be 65 ff c7 bd
       0.20258698 0.2040548 -0.32201302 -0.097655095

momentum_buffer f4 [3]
000000 20 f1 86 be 18 bd 5e bd 50 a8 19 3c
       -0.2635584 -0.054379553 0.009378508

momentum_buffer f4 [16]
000000 ab 7b 64 bd 69 60 b0 bb 1f c0 1c 3d 36 e1 cc 3b
       -0.055782 -0.0053825867 0.03826916 0.006252433
000010 56 ce 1a be ee 96 1d 3d 9f 62 06 bd 28 f5 a5 bc
       -0.15117773 0.038474016 -0.032808896 -0.020258501
000020 ac 85 fa bd 90 2a 7f bd 3f a8 9f bc 1e d3 3c 3d
       -0.12232527 -0.06229645 -0.019489406 0.046099775
000030 70 cc 0e ba 13 0f f0 bc cd d6 89 bd ca 83 9c 3c
       -0.00054473337 -0.029304063 -0.06730423 0.01910581

momentum_buffer f4 [16]
000000 85 49 34 be ec 37 a3 3c f0 1f 9b bd 14 6b 87 bc
       -0.1760617 0.019924127 -0.07574451 -0.016530551
000010 8c ce f0 bd 2a 5e 66 bd fb cf b6 bd 63 e8 94 bd
       -0.11758146 -0.056242146 -0.08926388 -0.07270887
000020 ed ff c9 bd 48 31 4d bb 3a ff e1 bc 27 c5 14 be
       -0.09863267 -0.0031309891 -0.027587522 -0.14528333
000030 4c cd 7a bd 06 eb 6f bd 08 b4 30 be a8 14 b4 bd
       -0.061230943 -0.058573745 -0.17256176 -0.08793002
