examples/toy_examples/outputs/best_model_20231127-124125.pth (torch, 7346 bytes, 14 tensors)

enc.lins.0.weight f4 [16, 6]
00000000: 01d7 cbbe b911 ad3e 01de 7a3e bdc7 d93e
00000010: 966a f93d 51d1 8abe f3b1 a33e 0a35 1f3e
00000020: a326 033e 3f0b 393e 581f aabe dc0e 2bbe
00000030: 2e5e 453e 3339 c5be 6aae 12be dfdd 79be
00000040: 95a6 963e 60ff e6bb b252 ecbe df5e 043f
00000050: 2d75 353e b01b 6abe 4574 a7be 9fe2 873e
00000060: 3c88 a53e 147d ccbe 78f9 8e3e e418 803e
00000070: 6523 89bd b672 0bbe cec2 fbbe e60a 053e
00000080: fee3 98bd cc45 a9be 6b43 9d3e 1a77 34bd
00000090: 1b4b 673e b9e0 b23e 9206 87be d4ae 21be
000000a0: ec47 443e ccab 9fbe ae30 c03e d49d f9bd
000000b0: 0565 79be 1c09 b3be 2c45 423e 7219 813e
000000c0: bba1 b93d 52c3 c9be 2545 41be 0657 2e3e
000000d0: 5843 febc d0b4 0e3e 9f6d febe d41c 023e
000000e0: 345f 3f3e 5c7c 5b3e 2c64 9a3e 22d3 9f3e
000000f0: 99d0 d9bd 4e01 1cbe b8aa 46bd 9a3e 033e
00000100: 356d 313e 3715 10bd cf40 71be 5746 a3be
00000110: b491 cb3e d29d 99bd 3947 c5bd eb49 86be
00000120: e6e4 aebe c605 c73e 77e7 003e 9352 e2bd
00000130: 55fd 52be c5b0 2d3e bd29 8abe a1fd 9ebe
00000140: 21b0 82bd 9bfe be3e 1336 a73c 1da7 1e3c
00000150: 5289 693c 9ad5 873e d7a9 c6bc 4474 c93e
00000160: f793 853d b9af bd3c 8535 00bd 515f 4abe
00000170: a7a5 a03e 54e0 813e 502c b1be f7ba bcbe
-0.39812472 0.33802584 0.2449875 0.425352 0.12178533 -0.2711282 0.31971702 0.15547577
0.12807707 0.18070696 -0.33227038 -0.16704887 0.19274208 -0.38520202 -0.14324346 -0.24401043
0.29423967 -0.007049486 -0.46156842 0.5170726 0.1772048 -0.22862124 -0.32705894 0.26540086
0.323305 -0.39939177 0.27924705 0.2501899 -0.06696204 -0.13617977 -0.49172062 0.12992439
-0.07465361 -0.33061063 0.30715498 -0.044058897 0.22587244 0.34937075 -0.263722 -0.15789348
0.19168061 -0.31185758 0.3753714 -0.121883065 -0.24354942 -0.34967887 0.189717 0.25214726
0.09064051 -0.3940683 -0.18874033 0.17025384 -0.031037971 0.13936162 -0.4969301 0.1270631
0.18688661 0.21434158 0.3015455 0.3121577 -0.1063549 -0.15234873 -0.048502654 0.1281685
0.17326815 -0.035176482 -0.23559879 -0.31889603 0.397596 -0.07500805 -0.09632725 -0.2622827
-0.3415901 0.38871592 0.12588297 -0.11050906 -0.20604451 0.16961963 -0.2698497 -0.31052878
-0.0638125 0.37303624 0.020411527 0.009683398 0.014253931 0.26530153 -0.024250908 0.39346516
0.06522363 0.02315508 -0.03130104 -0.19762923 0.31376383 0.2536646 -0.3460412 -0.36861393

enc.lins.0.bias f4 [16]
00000000: 0c3c d7bd 6edd 8a3e 41d1 4dbe faba c13e
00000010: fc2e 52be a4cf bcbe b0e4 373e cda4 7cbe
00000020: dccc 83bd ea63 02be d8de 04bd 1b23 b6be
00000030: 5eb7 bfbe 58b5 333e 007c 3dbd a22d 7cbe
-0.105095 0.27122062 -0.20099355 0.37837964 -0.20525736 -0.36877167 0.17958331 -0.24672242
-0.06435558 -0.12733427 -0.032439083 -0.35573658 -0.37444586 0.17549646 -0.046260834 -0.24626783

enc.lins.1.weight f4 [3, 16]
00000000: 825f 213e 455c d8be ecac bf3d 2e11 923e
00000010: b690 0b3f 29e3 01bf 33a6 4bbe dafb a6be
00000020: e4b7 983e cc2b 04bf 4fdc 503c c501 e7bc
00000030: e6a9 6b3e a950 47be 4bf8 7a3d 82be 0a3c
00000040: bba9 d4be a02b 3bbd df60 163e b49e 2ebe
00000050: 97eb 073e f322 803d d93c 883c 5777 de3e
00000060: d92f 253d 06ca 943d 9756 a4bc 1ad3 933d
00000070: be2f d1bd 50cf ed3d 9a4f 36be 63c5 293d
00000080: 9b4c ca3d a414 cabe 2059 6abe 6535 963d
00000090: 779f 87be c308 813e 1f06 a9bd 4f65 3a3d
000000a0: 9966 723e dddf 99bd 3da7 36bd b094 743e
000000b0: 7d6f 9e3d 8fa7 d03e 5093 9ebe 2c9b 2a3e
0.1575909 -0.42257896 0.09359154 0.28528732 0.54517686 -0.50737244 -0.19887619 -0.32614022
0.29827797 -0.5162933 0.012747838 -0.028199086 0.2301403 -0.19464363 0.061271947 0.008468272
-0.41535744 -0.0456959 0.14685391 -0.17052728 0.13273464 0.06256666 0.016630577 0.43450424
0.040328834 0.072650954 -0.02006082 0.07217999 -0.10214184 0.11611807 -0.17803803 0.04144801
0.098778926 -0.39468873 -0.22885561 0.07334403 -0.2648885 0.25201997 -0.08253121 0.04550677
0.2367195 -0.07513402 -0.044593085 0.23884845 0.077361085 0.40752837 -0.30971766 0.16660756

enc.lins.1.bias f4 [3]
00000000: b0cb 643e 2aa7 a7bd 6408 c7bd
0.22343326 -0.08186181 -0.09718397

enc.norms.0.module.weight f4 [16]
00000000: 1a38 7d3f 7314 873f 9648 723f 0f1e 753f
00000010: 8949 873f ceb5 873f b6eb 713f 6d6a 873f
00000020: 203c 773f 63e4 833f c769 6c3f bfda 753f
00000030: 4de1 6e3f 0978 803f 6f46 743f 347f 723f
0.9891373 1.0553116 0.9464201 0.9574899 1.0569316 1.0602357 0.9450029 1.0579354
0.9657612 1.0304073 0.92348903 0.96036905 0.9331253 1.0036632 0.95419973 0.94725347

enc.norms.0.module.bias f4 [16]
00000000: d56e 623e fc3c f73d a965 213d 38a7 e33d
00000010: 7b7c cb3d 92ed 593d e10a cf3c 898c 76bd
00000020: 8369 293e 9c66 5bbe 8bdc 93bd 8ac7 a13d
00000030: 9687 463d 516c 0a3e 257c 313e 88b9 8bbc
0.22112592 0.12072179 0.03940359 0.11115879 0.09935852 0.05320508 0.025273742 -0.06019262
0.16544156 -0.21425861 -0.072197996 0.07899387 0.04846915 0.13517882 0.17332514 -0.017056242

enc.norms.0.module.running_mean f4 [16]
00000000: e835 2142 147b 2e42 9de6 42c2 9ba7 8c3f
00000010: 146c be41 e7aa 5fc2 ef62 90c1 d315 2fc2
00000020: c531 4f41 b68d d640 cc7d ecbe 471c 86c1
00000030: b1e0 9240 0521 e541 f1a6 3842 3de6 1242
40.302643 43.620193 -48.72521 1.0988649 23.802773 -55.916897 -18.048307 -43.771313
12.949651 6.7047987 -0.46189725 -16.763807 4.589928 28.641123 46.16303 36.724842

enc.norms.0.module.running_var f4 [16]
00000000: c87e 7d48 5ed3 0749 7d4a 9348 7de4 eb48
00000010: 381a 8c48 1d18 d848 8f5b 5549 da94 6848
00000020: d730 c348 5650 df48 8d50 2a48 38a4 4749
00000030: ab04 8448 d0c5 5049 2f7e 8348 6d8e 2c48
259579.12 556341.9 301651.9 483107.9 286929.75 442560.9 873912.94 238163.4
399750.72 457346.7 174402.2 817731.5 270373.34 855133.0 269297.47 176697.7

momentum_buffer f4 [16, 6]
00000000: 1be6 cd3d c887 ec3d 5800 b83c ed78 823c
00000010: e8f4 453d eb3f 823d a618 40bc 78ff c5bd
00000020: 7d3a c33c add2 c03c 3dd3 27bc b34e 45bd
00000030: 9850 9cbe 5eb5 13be 678e c43b 6706 aabc
00000040: aaf7 72bb 5c5b 8abc a2b4 893d f917 383d
00000050: 870a 2bbc 26d2 573b 6826 7e3b 2ee9 333d
00000060: 259a 2dbf 5a08 0dbf 192e cd3c 6e8e e1bc
00000070: 28fe 7f3b 58d9 d63b a6ba 4d3d 6f21 4f3e
00000080: 5a11 63bc 7a01 cd3c 820d 9d3c 29b1 bf3b
00000090: 24ca 7abc 6ecc 24bb fc4f c93a 403f c2ba
000000a0: 604b 8839 9b1e 6abc 9ee3 bcbd c6e7 49be
000000b0: c242 d6bc 148e 82bd 33e9 8cbb 035b 8cbd
000000c0: b2d2 b83d 0248 903c f6b3 a93b b028 80bc
000000d0: cc12 c53b 21d0 963c 0c2c a0bc 3022 7dbc
000000e0: 60eb 2bba eda7 4b3c 2ac0 97bb ff39 eabc
000000f0: 2b59 fabc 8a15 933c 02b7 343b 824b 123a
00000100: 2ff4 46bb efd4 07bb a67c ac3d d8b7 8ebd
00000110: 3dc9 37bb d86c 58bb ad39 b93b 0514 733b
00000120: aacd c33d f0f2 913d b25f 91bc fcd1 86ba
00000130: c01b 6db9 0382 293d 0d71 043e 2c53 dabd
00000140: 3aa5 30bc f01b 113b dc91 233c b1d9 f33b
00000150: c69e 24be c793 76bd fa2a 133d 4a6d 2f3d
00000160: 989d b83c d7b0 0a3d a8d5 da3d 34d1 60bd
00000170: ba62 a4ba 5717 a1bb a7f5 9b3b 34b1 3b3c
0.10053655 0.11549336 0.022461101 0.015926803 0.048329264 0.06359848 -0.011724627 -0.096678674
0.0238316 0.023537958 -0.010243234 -0.048170757 -0.30530238 -0.14424655 0.005998421 -0.020755006
-0.0037073889 -0.016889267 0.06723906 0.044944737 -0.010439522 0.0032931655 0.0038780216 0.04392355
-0.6781333 -0.5509087 0.025046395 -0.027533736 0.00390614 0.006556671 0.05022683 0.20227598
-0.013859117 0.025025118 0.01917148 0.0058499766 -0.015306983 -0.0025146264 0.001535892 -0.0014819875
0.000259961 -0.0142895235 -0.09223102 -0.19717321 -0.02615488 -0.063747555 -0.0043002605 -0.068532966
0.09024562 0.017612461 0.0051789237 -0.015644401 0.0060142037 0.01840979 -0.019552253 -0.0154500455
-0.0006558206 0.012430173 -0.004631062 -0.028592108 -0.030560097 0.017954607 0.0027574901 0.00055807095
-0.0030357947 -0.0020726284 0.08422212 -0.06968659 -0.0028043531 -0.003302386 0.0056526274 0.003709079
0.09560712 0.07126415 -0.017745826 -0.0010285969 -0.00022612419 0.041383754 0.1293375 -0.10660395
-0.010781581 0.0022141896 0.009983506 0.0074417223 -0.16076192 -0.060199525 0.035929658 0.042828836
0.022536084 0.033860054 0.10685283 -0.05488701 -0.001254163 -0.0049161124 0.0047595087 0.011455823

momentum_buffer f4 [16]
00000000: 2af7 24ad 3b70 ab2d 61b3 92ad d879 182d
00000010: d041 b92b d7a8 baad 7514 a4ab c0b2 0fad
00000020: 5c2a b32c 2ff9 87ac a85e b1aa 1432 042c
00000030: 899f 962d 95c2 312d 271e a9ad 25f9 94ac
-9.377202e-12 1.949029e-11 -1.6677939e-11 8.667254e-12 1.3163307e-12 -2.1220732e-11 -1.1658579e-12 -8.168299e-12
5.092189e-12 -3.8645957e-12 -3.1507197e-13 1.8786127e-12 1.7123873e-11 1.0104491e-11 -1.9226466e-11 -4.2340736e-12

momentum_buffer f4 [3, 16]
00000000: 50c8 20bd 3e15 da3c 189a 713d 7343 a6bc
00000010: 48e9 6ebc 95be 133e c030 3e3d 180d 263d
00000020: b1fd ba3d 6ca3 e13d 4183 103e a513 353e
00000030: 03b7 c5bc 458a 383e 5ecc 323d f2f8 f53d
00000040: bcd3 0cbd a089 59bc c26d cf3d a4a8 30bd
00000050: a00d 5d3c 4e9c 5abd 1013 9f3b 8867 4dbd
00000060: 5c29 df3d 422e 82bd bec4 e43d 82fd 073e
00000070: 8a5f 37bd e434 183e effa 03bd 0da8 dd3d
00000080: 787c 62be 80f6 803e d8a7 16bc 2010 4dbc
00000090: d8f1 de3d cab8 c5be c2bb 5b3e f6d6 943e
000000a0: 46a7 06be 599c 90be 25a1 66be ba8f 9abe
000000b0: dc1f 5fbc ca4a adbe d88d 2c3e 5b3c 76be
-0.039253533 0.026621457 0.058984846 -0.020295834 -0.014581986 0.1442817 0.04643321 0.04053983
0.09130419 0.110174984 0.1411257 0.17683275 -0.024135118 0.18021496 0.04365193 0.12010373
-0.034381613 -0.013277441 0.101283565 -0.04312958 0.013492018 -0.05337172 0.0048545673 -0.050147563
0.108965605 -0.06356479 0.11170338 0.132803 -0.044768848 0.14863926 -0.03222173 0.10823069
-0.22117794 0.25188065 -0.0091952905 -0.0125160515 0.10885972 -0.38617545 0.21458343 0.29070252
-0.13149747 -0.28244284 -0.2252241 -0.3018778 -0.013618436 -0.33846122 0.16850984 -0.24046461

momentum_buffer f4 [3]
00000000: cd19 893d 12fe b23d c60b ebbd
0.06694374 0.08739866 -0.11476855

momentum_buffer f4 [16]
00000000: 805d 0bbb 26e4 d4bd 19a6 b13c e09f 75ba
00000010: 56ce 1ebd 29dc 22be 306d e6bc 4fb9 b5bc
00000020: 085b b03b f9c0 1fbd addc 383c 0a68 85bd
00000030: 9411 0ebb b5e7 0dbe d714 28bd 470b 18bd
-0.0021265447 -0.10395078 0.021685647 -0.00093698315 -0.038770996 -0.15904297 -0.028128237 -0.022183089
0.0053819455 -0.039002392 0.011283082 -0.065139845 -0.0021677958 -0.1385792 -0.0410355 -0.03712013

momentum_buffer f4 [16]
00000000: 68c8 56bd 78f4 2dbb d5b9 4f3d 449c 693c
00000010: 868a 783d 7038 c7bd b197 29bc 1b14 ecbc
00000020: b9fe e6bc 00b4 7a39 b802 323c 2aad 7dbd
00000030: e0b8 0e3a 3296 fbbd a25b d9bc b498 1abd
-0.052437216 -0.002654342 0.050714333 0.014258448 0.06067898 -0.097275615 -0.010351107 -0.02881818
-0.028197633 0.00023908913 0.010864906 -0.06193272 0.00054444186 -0.12284507 -0.026532952 -0.037743285
