examples/toy_examples/outputs/best_model_20231127-123632.pth (torch, 8370 bytes, 14 tensors)

enc.lins.0.weight f4 [16, 14]
000000 5c c0 e2 be 00 8d 13 3e 2d b5 c5 3d c4 7e a2 bd
       -0.44287384 0.14409256 0.09653697 -0.07934335
000010 41 ed 90 3c aa 8f bb 3c 04 51 23 be 36 2e 10 bc
       0.017691256 0.022895653 -0.15948874 -0.00880008
000020 70 b9 9d bc 7a 1d 11 3d 20 c1 c0 bd 0b 74 50 3d
       -0.019253463 0.0354285 -0.09411836 0.050891917
000030 3d 1c 35 3e b1 70 32 3d 13 07 83 3e 06 3f 70 3e
       0.17686553 0.043564502 0.25591335 0.23461542
000040 5b d2 59 3d 18 12 2c 3e 58 0a df 3d 28 54 81 3e
       0.053179126 0.16803777 0.10890645 0.2525952
000050 dd 10 50 be b0 64 5d 3d d6 ba 3e bd 02 3c c1 bc
       -0.20318933 0.0540511 -0.0465649 -0.023588184
000060 7c 9a 70 bd 6c 44 e9 3d c4 05 56 3e 75 10 2b be
       -0.058741078 0.113900036 0.20900637 -0.16705497
000070 f8 ca e2 3e c3 c5 18 be 3a 16 2c bc 39 75 1b bd
       0.44295478 -0.1491919 -0.010503346 -0.03795359
000080 3a 5b 3e 3c 68 f4 63 3c e3 9c 0c 3d 4f cb a9 bd
       0.01161843 0.013913251 0.034329306 -0.08290731
000090 b8 0d 10 3b b5 5c f0 3d 87 79 ab 3d 1f 11 e2 3c
       0.0021980833 0.117364325 0.08372789 0.027596055
0000a0 73 7a c0 3c 8b a1 e3 bd 59 54 d0 3e 97 ca 9a bd
       0.023495888 -0.11114796 0.40689352 -0.07558172
0000b0 ad c6 8f 3c e8 40 ca bb 0b 2f 09 3e e5 01 5e be
       0.01755079 -0.006172288 0.13396852 -0.2168041
0000c0 e1 61 af bd fa 55 1d be 92 90 4d 3e 70 88 21 be
       -0.08563591 -0.15364829 0.2007468 -0.15774703
0000d0 73 54 55 3d a9 5a 83 be 54 4a ce 3b 52 26 02 3e
       0.05208249 -0.25655106 0.0062954817 0.1270993
0000e0 35 ce fb 3d e2 41 8c 3e 50 98 79 bc d8 ea a4 bd
       0.1229519 0.27394015 -0.015234068 -0.080526054
0000f0 4a 94 25 bd 76 1c 14 3e 8d a0 07 3d 73 15 50 3e
       -0.040424623 0.14463982 0.033112098 0.20320682
000100 28 20 47 be cc 1c f6 3d b2 53 24 3e b1 84 eb 3d
       -0.1944586 0.12017211 0.16047552 0.11499918
000110 92 5d 2c bc ba 1c 0d 3e 9a e4 9d be ef d6 5a be
       -0.010520356 0.1378049 -0.30838472 -0.21371053
000120 6b c7 1f bd 33 13 23 bd 9e ad 1a 3e 48 40 48 3e
       -0.03900854 -0.03981323 0.15105292 0.19555771
000130 4a 68 15 3e 63 7e df bd 29 7c 51 be 2d a8 7c be
       0.14590564 -0.10912778 -0.2045752 -0.24673529
000140 1c 47 a0 3d 17 78 6c be eb 15 85 be 9a a6 f7 bd
       0.07826063 -0.23092686 -0.25993285 -0.120923236
000150 b6 42 82 be b9 67 40 3d 5f 9e 41 be e9 cb 0c be
       -0.2544152 0.046973918 -0.1890807 -0.1374966
000160 a5 da 89 3e cd 70 c0 bc 3a 37 5a 3e 0e 29 84 3c
       0.26924625 -0.023491288 0.2131013 0.016132858
000170 7c 55 fa bc 91 ce c8 bd d9 1b 78 be 3c 22 66 be
       -0.03055834 -0.098050244 -0.24229373 -0.22473997
000180 69 9f 2e 3e 6a 84 40 bd 1b 94 3a be 3e b7 e9 3e
       0.17052998 -0.04700128 -0.1822056 0.45647615
000190 1d 7b 9b 3d 50 42 95 bd 3b 13 45 be c4 3a 5d be
       0.07591841 -0.07288039 -0.19245617 -0.21604449
0001a0 54 14 5b be 33 fb 62 3e 50 05 3d 3e a7 9a 31 3d
       -0.21394473 0.22166137 0.18459058 0.04336038
0001b0 f6 cb 14 be 3a db 80 bd 2e c2 76 be e5 68 0d 3e
       -0.1453093 -0.06291814 -0.24097511 0.13809545
0001c0 04 6b 7a be 82 0e 85 be ec d0 aa bd fe 49 14 3e
       -0.24454886 -0.2598763 -0.0834063 0.14481351
0001d0 1a de f6 3c 62 d1 f1 3c 9f e6 ac bd e4 6b a7 3c
       0.030135203 0.029518787 -0.08442425 0.020437188
0001e0 b6 ae b3 3c 7a 10 c1 bd 17 bf 2b 3e 0f c8 d6 bd
       0.021933895 -0.09426971 0.16772114 -0.10487377
0001f0 8b 2c 2f 3e 42 ac 05 be 90 4e 32 be 97 b8 c3 3e
       0.17106836 -0.13053992 -0.17412782 0.38226768
000200 af 0f 6f bd 1a 24 90 3e eb 38 09 be 70 a3 a5 bb
       -0.058364566 0.28152543 -0.13400619 -0.0050548837
000210 9e 5c b4 bd 55 05 a2 3d f8 64 5b 3e 78 71 a7 3d
       -0.08806728 0.07911173 0.21425235 0.08175939
000220 5f e7 95 3d b5 9a 35 be 62 e3 4b 3d 31 71 2a bd
       0.07319521 -0.17734797 0.049777396 -0.041611854
000230 20 26 c0 3d 39 c6 22 be 68 7a 44 3e 8f 66 71 3e
       0.09382272 -0.15895928 0.1918732 0.23574279
000240 39 91 28 3e a1 bc 6b 3c d9 19 fa 3d 30 31 7f be
       0.16461648 0.014388234 0.12211961 -0.24921107
000250 50 1b 59 3e 9a af 8e bd 22 03 db 3d 3a ac 66 bd
       0.21201825 -0.06967087 0.10693957 -0.05631659
000260 cb 88 d0 bd 97 96 d8 bd 15 01 cf 3e eb a9 d7 be
       -0.10182341 -0.10575598 0.40430513 -0.42121825
000270 2a f4 3a 3e a0 0b 30 3e 5b 60 7c b9 df e5 3b be
       0.18257204 0.17191935 -0.00024068488 -0.18349408
000280 91 b3 38 be 46 c3 f5 bd 29 d1 8b 3e 54 e5 2d be
       -0.18037249 -0.12000136 0.27308014 -0.16982013
000290 e6 3b d6 3d 07 4a 2e 3e 05 d0 ed bd e4 0c 2a bd
       0.104606435 0.17020427 -0.11611942 -0.0415162
0002a0 c5 fe b6 be fb 64 d9 3e ee 9e cb 3d cf 32 19 3e
       -0.3574125 0.42459854 0.09942423 0.14960788
0002b0 56 9f 1f 3d 69 06 44 3d 6c bf ff bd fe 39 1c bd
       0.038970314 0.047857676 -0.12487683 -0.038141243
0002c0 ae c2 40 3d 06 dc 5a 3d d4 aa 32 3e c8 47 fe bd
       0.04706066 0.053432487 0.17447978 -0.12416035
0002d0 3f 77 51 3e 26 aa 5c 3d 27 7a 80 3e 45 3d bf be
       0.20455645 0.053873204 0.25093195 -0.37351432
0002e0 9f 3b 75 bd 78 26 04 3d 6e 8f 1e bd 79 6b ec bd
       -0.059871312 0.03226325 -0.038711004 -0.11543936
0002f0 81 cd 1d 3e 4f 4b b1 3b ed 61 f9 3d f8 1a fc 3d
       0.15410425 0.005410589 0.12176881 0.123098314
000300 37 50 2f be 7e bd b7 bd 5e de 80 bc d9 9f af bd
       -0.17120443 -0.0897169 -0.015731033 -0.085754104
000310 fe 40 3e be 23 c3 27 be 74 b5 9e bc 0c 28 16 3e
       -0.1857948 -0.16383033 -0.019373633 0.14663714
000320 7c b1 32 3e 1a d9 37 3e 8f 8a 14 3b 9b fa 19 bb
       0.17450517 0.17953911 0.0022665595 -0.002349532
000330 03 b2 9a 3d 1a 19 08 3d e2 f2 42 bd 3c 35 d0 3d
       0.07553484 0.033227064 -0.047594912 0.10166404
000340 b9 d3 52 be 99 f5 65 be 3f 2a 10 be 0d 23 1e be
       -0.20588578 -0.2245697 -0.14078616 -0.15443058
000350 57 9c 57 be ff 04 8c be 8e 59 3c 3d 1d 78 01 bd
       -0.21055733 -0.27347562 0.045983844 -0.03160869
000360 ae 0a 3e be 7e 95 b1 bd 04 d4 7a 3d ad 1b 1f be
       -0.18558761 -0.086710915 0.06123735 -0.15537901
000370 cc 5b e5 3b f4 fd 80 bb 47 cf a1 3d ad 70 08 3e
       0.0069994684 -0.0039365236 0.07900863 0.13324232

enc.lins.0.bias f4 [16]
000000 5d d0 32 be 54 57 ec 3d 46 a8 4e 3e e0 f3 8c 3c
       -0.17462297 0.11540094 0.20181379 0.017206132
000010 d8 6c 0b 3e 62 38 cf bd 98 70 59 3d 64 ef 9f 3d
       0.1361574 -0.10118176 0.053085893 0.07809332
000020 cc cf fc bd d8 f8 28 3e 36 61 81 be d4 9a cd bd
       -0.123443216 0.16501176 -0.2526948 -0.10039297
000030 fe 06 21 be c4 76 22 be 85 d5 25 be e2 f0 80 be
       -0.15725324 -0.15865618 -0.16194732 -0.2518378

enc.lins.1.weight f4 [3, 16]
000000 e3 4a 0e 3d 29 71 29 be 41 6f 14 bf 56 ce 99 be
       0.034739386 -0.16547073 -0.5798226 -0.30040234
000010 ed a2 89 be b3 97 8a 3c cf b4 9c be 17 6a 8a 3d
       -0.26882115 0.016918039 -0.30606696 0.06758516
000020 9b 2e b4 3d ac e6 20 3e d6 db 61 3d 62 49 7f 3e
       0.08797952 0.15712994 0.055141293 0.24930337
000030 9c 0e ed 3e 30 11 31 3e c4 7b 04 3e b9 65 ba 3d
       0.4630021 0.17291713 0.12937838 0.09101433
000040 8d dc 14 bf 49 e5 a4 bd 88 8a 64 be ec cc 7e be
       -0.58149034 -0.08051545 -0.2231847 -0.24882859
000050 a7 ab 25 3d 88 2d 1e be 32 d7 ad bd 30 b9 a4 3d
       0.040446904 -0.15447056 -0.08488311 0.08043134
000060 a3 5e 95 be 66 ef 94 3e 82 1f 89 3d 22 0c 02 3f
       -0.29173765 0.29088897 0.06695463 0.50799763
000070 2c a7 23 3e ff 9c 51 3e de f9 57 bd 92 0b 37 be
       0.1598174 0.20470046 -0.052728526 -0.17875507
000080 aa dd 1f bd d3 b8 b0 3d ce 50 8d bd 96 51 ec 3d
       -0.039029755 0.086290024 -0.06900178 0.11538999
000090 46 12 0d 3d f8 2a 6e 3d 35 23 56 bc 15 95 7f 3e
       0.034441255 0.058146447 -0.013069917 0.24959214
0000a0 ea 01 84 be 19 48 40 3e 23 61 9b bc 7d b5 9c be
       -0.2578271 0.18777503 -0.018967217 -0.30607215
0000b0 b1 27 bb 3e 73 c3 24 be 72 30 7a bd 11 d5 30 3e
       0.3655372 -0.16090183 -0.061081357 0.17268778

enc.lins.1.bias f4 [3]
000000 c2 37 90 3c 07 30 95 3e 81 dc 16 be
       0.017604712 0.29138204 -0.14732553

enc.norms.0.module.weight f4 [16]
000000 67 c4 89 3f c6 b7 72 3f 25 0a 89 3f 5d 30 81 3f
       1.0763062 0.94811666 1.0706221 1.0092884
000010 ab 7f 72 3f 67 fc 74 3f da a4 72 3f eb 7c 73 3f
       0.94726056 0.95697635 0.94782794 0.95112485
000020 3c 0f 7c 3f c0 97 78 3f 4d a4 6f 3f 2e a8 88 3f
       0.98460746 0.9710655 0.9361008 1.0676324
000030 b7 3e 85 3f 6c 10 73 3f 8c c2 6e 3f 8a c2 74 3f
       1.0409764 0.9494693 0.93265605 0.95609343

enc.norms.0.module.bias f4 [16]
000000 ef f5 3e 3e a5 6f 80 3c a5 f4 72 3d b3 2b e6 3c
       0.18648504 0.015678236 0.059315342 0.02809701
000010 04 df cc 3d f8 78 6a 3c b8 aa b5 bd c8 94 a8 3d
       0.10003474 0.014311068 -0.08870453 0.08231503
000020 a7 b2 fa 3d 2d 93 a0 3d eb 7d 01 bd 80 c8 53 3e
       0.122411065 0.078405716 -0.031614225 0.20681953
000030 b6 b2 39 3e 28 fb ef 3d 5a 13 68 3d 0a b5 61 3c
       0.18134579 0.11717826 0.05665908 0.013776073

enc.norms.0.module.running_mean f4 [16]
000000 00 29 14 3e 39 f2 9a c1 53 79 43 c1 10 f0 86 c1
       0.14468765 -19.368273 -12.21712 -16.867218
000010 bb 15 b5 c1 9a 83 20 41 ae 7e 8f c1 b5 c5 42 c1
       -22.63561 10.032129 -17.936855 -12.173268
000020 7c cb fa 41 56 00 7d 41 b9 34 83 41 b1 be a8 41
       31.349358 15.812582 16.400743 21.093111
000030 83 5c 8c 3e 4d d6 8c 41 dc 5a 89 41 24 06 49 c1
       0.2741433 17.60464 17.169365 -12.563999

enc.norms.0.module.running_var f4 [16]
000000 3b a6 9c 48 47 b6 18 49 78 10 97 48 0a 77 a2 48
       320817.84 625508.44 309379.75 332728.3
000010 3b 14 e0 48 02 b8 2e 49 63 66 07 48 cc 27 e1 48
       458913.84 715648.1 138649.55 461118.38
000020 2a ee 24 49 86 0c 93 48 0d 8d 73 47 44 cd 98 48
       675554.6 301156.2 62349.05 312938.12
000030 2d 5c 94 48 96 dd 69 48 8c 89 a1 48 b0 fe 68 48
       303841.4 239478.34 330828.38 238586.75

momentum_buffer f4 [16, 14]
000000 19 6b f7 3d 55 65 8b 3e 9c 4e 17 3c 3b 39 05 bd
       0.12080974 0.27225748 0.0092350505 -0.032525282
000010 a2 9f 7f 3c b6 c5 d4 bc f3 dc 8c bd f8 ac bf 3a
       0.015602024 -0.025973182 -0.0687808 0.0014623692
000020 d4 02 42 3c 2a a4 8e bd a8 44 a3 bd 97 b4 8d bc
       0.011841495 -0.069649056 -0.079720795 -0.017298026
000030 00 4f 01 bc a5 b3 5e bd 1c c6 f5 bc 49 de 84 3c
       -0.00789237 -0.05437054 -0.030001692 0.016219275
000040 60 b0 7b bb b0 f8 26 3b cd a1 a2 3b e3 30 df 3b
       -0.0038404688 0.002547782 0.004963136 0.0068112477
000050 ee 25 ec bb 24 7e 91 ba de f5 b6 39 50 e0 43 39
       -0.00720667 -0.0011100215 0.0003489693 0.00018680212
000060 3a 2f 16 bb 36 2a 7a bb 80 dd 32 b9 28 4e 05 bb
       -0.0022916333 -0.0038172132 -0.00017057918 -0.0020340774
000070 69 14 02 3e d7 40 d2 3e 1a fb 32 bd ea 6b e6 bc
       0.12703098 0.41065094 -0.0436965 -0.02812763
000080 c5 07 2b bd 2c a6 bd 3c ae 48 85 bc 33 cf 18 bd
       -0.041755456 0.023150526 -0.016270008 -0.037306976
000090 f4 21 02 bd 05 18 85 3c 73 74 39 3d 3e ba 9e bd
       -0.03177066 0.016246805 0.04527707 -0.07750367
0000a0 e1 a7 87 bd 60 e0 f5 3b bf aa 8f 3d f3 d0 e8 3e
       -0.06623817 0.007503554 0.07014989 0.45471916
0000b0 34 1b 98 bc c2 9d 80 bc 08 98 cc bc f6 bc 62 ba
       -0.018567659 -0.015700225 -0.024974838 -0.0008649373
0000c0 64 4e db 3b 41 6d 8a bc cc 22 7c bc 2f 5d 83 3c
       0.0066926945 -0.0168978 -0.015389156 0.016035644
0000d0 30 f4 c4 3b 05 c1 20 bd ce 78 10 bd 8a ae aa 3c
       0.0060105547 -0.039246578 -0.03527146 0.02083518
0000e0 9c 68 ed bd f5 3b 1a 3d 48 5b 56 bc 16 a7 cf 39
       -0.11592218 0.037654836 -0.013083287 0.00039606605
0000f0 62 99 94 bb cc 96 8c 3b 4a b7 80 ba cd 07 8b bc
       -0.004534886 0.0042904373 -0.0009820249 -0.016971493
000100 ce ca 74 bc 7a 49 1f 3c 02 de 66 3c 69 52 a1 bc
       -0.0149409305 0.009722108 0.014091017 -0.019692617
000110 f0 90 73 bc a0 05 84 3c 39 13 26 bd 4d 68 74 3d
       -0.014866099 0.016115963 -0.040545676 0.05966978
000120 31 bf 87 ba b6 69 e9 bb c8 44 00 3b 98 95 14 bc
       -0.0010356662 -0.0071231974 0.0019572247 -0.009068869
000130 9a e2 22 3a 38 83 e3 3a f8 9c dd 3a 2e 90 10 bb
       0.0006213576 0.0017357832 0.0016907742 -0.0022058594
000140 f9 b5 05 bc 44 3b 14 bb 68 ab 2e bb ca ca c4 bb
       -0.008161061 -0.0022618333 -0.002665246 -0.0060056197
000150 16 79 69 3d 52 88 ac 3e 80 99 0c bc dd 14 7f 3c
       0.057000242 0.33697754 -0.008581519 0.015568939
000160 7f 09 5d bb 44 3d 9b 3c 86 43 08 3b 86 58 07 3b
       -0.0033727584 0.018950112 0.00207922 0.002065213
000170 9c 3b a4 3b e0 21 a1 39 da 93 f9 3b 27 ee 20 bc
       0.005011989 0.00030733552 0.0076165022 -0.009822405
000180 f7 08 24 bb e7 f5 db bb d3 8b 4b 3e 36 4d 85 3d
       -0.0025029758 -0.0067126635 0.19877557 0.065088674
000190 a7 08 da 3b b1 eb a6 bb 90 14 92 3b 02 6e e5 bb
       0.0066538635 -0.0050940146 0.0044580176 -0.0070016393
0001a0 19 8b 40 bc e0 ef 5a bb e5 9e 2c bc 50 4b e3 3c
       -0.011751913 -0.0033407137 -0.01053593 0.027745873
0001b0 cb be 74 3b ee bf 66 bb 0f 23 ac bb 55 e3 b1 3c
       0.0037345167 -0.0035209614 -0.0052532027 0.021714846
0001c0 04 fa de bc 12 79 a1 3c 23 88 fc 3b ce 70 49 bc
       -0.027218826 0.019711051 0.0077066584 -0.012294961
0001d0 10 b2 a2 b9 27 e4 88 bc f7 3b a4 bc 61 49 03 3b
       -0.00031031715 -0.016710354 -0.020048125 0.002003275
0001e0 89 39 11 3c 47 87 10 bd 55 e8 0f bd 72 ef bc 3b
       0.008863815 -0.03528526 -0.03513368 0.005765849
0001f0 4d e2 55 3b 32 54 82 bc af 62 a0 3e 84 0b 16 3e
       0.0032636106 -0.015909288 0.3132529 0.1465283
000200 84 b2 42 3c 14 b0 88 3a 4b 15 61 3c a5 84 31 bc
       0.011883382 0.0010428452 0.013737987 -0.010834848
000210 b8 57 77 3b 7e 4e d2 3b 30 35 a0 bb 96 c9 01 3d
       0.0037741493 0.0064180484 -0.004889153 0.031686388
000220 50 9d 8e 3c 04 77 24 3c 8a 3b 84 3b 59 ab 88 3c
       0.017408997 0.010038141 0.004035418 0.016683267
000230 88 33 4c 3e d6 87 f2 3d b4 02 cc 3b 80 db 14 ba
       0.19941533 0.11842315 0.006225908 -0.000567846
000240 dd 5d ca bb 96 57 ab ba b0 78 d9 39 4e 8b b1 3b
       -0.00617574 -0.0013072367 0.00041479385 0.0054182177
000250 48 44 8c 3b 41 38 1f bc c7 4d 15 3c 42 7d 42 3c
       0.0042806007 -0.009718002 0.009112782 0.011870684
000260 a5 50 1a 3c 38 c2 8d bb 40 9f 35 3b 80 3c 71 3b
       0.009418641 -0.004326131 0.0027713329 0.0036809742
000270 80 34 eb b8 fb 1d 5d bc d3 1a 20 bd 1c 53 3e 3c
       -0.00011215452 -0.013495917 -0.03908808 0.0116164945
000280 40 bd fa 3c d4 66 86 3c d0 42 07 3a e3 94 17 bc
       0.03060782 0.016406454 0.0005159797 -0.009251806
000290 a8 52 8c 3d 77 e5 45 3c 14 75 c9 bb 55 b1 90 bc
       0.06851703 0.012078634 -0.00614799 -0.017662684
0002a0 9d 9a dc 3e f8 46 a6 3e 59 c7 ef 3c 62 18 d7 3c
       0.4308671 0.3247602 0.029269861 0.026256744
0002b0 02 b1 d7 3c 00 ae 61 b9 2c fa 77 3c f7 83 c1 3c
       0.026329521 -0.00021522492 0.015135329 0.023622496
0002c0 2c e6 ab 3b 4e 35 70 3d fc 3a 03 3d 92 ac 17 3d
       0.0052459445 0.058644585 0.032038674 0.03702981
0002d0 e6 a9 b3 3c a8 ea 25 3d 79 ee a9 3e 07 b7 4d 3e
       0.0219316 0.04050699 0.33189753 0.2008935
0002e0 63 0b 42 3c f0 1a c1 3a 14 95 b6 bc 3a 37 05 3c
       0.011843535 0.001473276 -0.022287883 0.008130843
0002f0 d0 ad a6 3a e2 ee 2a 3b 7c df b5 ba b2 82 b9 bb
       0.0012716595 0.0026082327 -0.0013875808 -0.005661332
000300 38 85 ee 3c 37 18 35 3c f6 35 41 3b f1 c3 1e 3c
       0.029116258 0.011053137 0.0029481626 0.009690271
000310 cd 6b 2e 3c 72 32 86 bc 5c 25 79 3b 3d af c6 bb
       0.010645819 -0.016381476 0.0038016653 -0.0060633705
000320 59 18 07 bb 46 73 da bb d2 a4 38 bc a8 9e 48 3a
       -0.0020613878 -0.0066665737 -0.011269765 0.0007653036
000330 d4 cf 21 3b 00 db 60 bc 42 dc 59 bc 6c a6 ab 3b
       0.0024690526 -0.013724089 -0.013297142 0.005238345
000340 ba 60 45 3b 8b 5d e4 bb 00 ef b2 bd 3a f0 05 3e
       0.0030117468 -0.006969159 -0.08736992 0.1307992
000350 76 de 2b bb 36 cb 8a bc dc e4 b1 3b 60 f1 e7 bc
       -0.0026225126 -0.016942602 0.0054288935 -0.028313339
000360 0e 90 91 bc d2 ca a9 ba 30 ea 73 39 0b fb 92 3b
       -0.017768886 -0.0012954122 0.00023261528 0.004485493
000370 cb 97 84 bc 68 36 c2 bb a2 da 98 bb 74 29 ac bb
       -0.016185662 -0.005926896 -0.004664735 -0.005253965

momentum_buffer f4 [16]
000000 17 10 68 ad ee 85 3d ac 74 1b 9e 2d 0c b3 bd ad
       -1.3191246e-11 -2.6932861e-12 1.7974712e-11 -2.1566325e-11
000010 a9 fe c9 ac e9 f6 49 ac 6c b3 1c ad ea 06 88 2c
       -5.7410366e-12 -2.870088e-12 -8.907413e-12 3.86612e-12
000020 b5 28 04 2d 55 fe 83 2d 0e c4 f2 2c 84 96 ec 2d
       7.51237e-12 1.5005922e-11 6.89982e-12 2.6896936e-11
000030 58 67 8b ac d1 d2 b4 2d 85 9f ae ac 8e 24 d1 ab
       -3.962091e-12 2.0557252e-11 -4.9630877e-12 -1.4860489e-12

momentum_buffer f4 [3, 16]
000000 be 7a 3f be 4f 18 b0 bc 0e 4e 2b 3e a9 bf d2 3d
       -0.18699166 -0.021495966 0.16728994 0.102904625
000010 ce 04 d8 bd 8e 7e 0f 3c 21 b8 86 bd c6 a1 70 be
       -0.105477914 0.0087582 -0.065780886 -0.23499212
000020 74 16 1f 3d 2c ae 91 be 0a 91 18 3e a7 07 83 3e
       0.038839772 -0.28453195 0.14899078 0.25591776
000030 ea 39 ca be 6c b1 0f 3e 4e 84 d0 3c b2 0d 6e 3d
       -0.3949731 0.14032525 0.025453713 0.05811853
000040 be d3 2e be 6f 46 48 3d a6 bd 63 3e a5 e8 23 3e
       -0.1707296 0.048895296 0.22240314 0.16006716
000050 3a ba 54 3d 0c e7 da 3c c9 b9 21 be c2 08 ef bc
       0.051935412 0.0267215 -0.15793528 -0.02917898
000060 3a ed 91 3d 85 6f b3 bc dc 34 a7 3e f4 65 ea 3e
       0.071253255 -0.021903763 0.32657516 0.4578091
000070 f3 a7 93 bd d0 2e a5 3e 1d e7 31 3d 30 38 94 3b
       -0.07209768 0.32262278 0.043433297 0.0045232996
000080 6b 01 4b be 19 a1 d7 3d b0 ac 67 bc 62 dd e0 3c
       -0.1982476 0.10528774 -0.014140293 0.027449314
000090 b6 8b cf 3d e9 e8 83 bd 09 24 e0 bd e4 60 95 bd
       0.101340696 -0.064409085 -0.10944373 -0.07293871
0000a0 a9 15 d9 bd 78 09 e9 bd bb 69 83 be 5b 0e df be
       -0.105998345 -0.11378759 -0.25666603 -0.4356564
0000b0 9b 19 5d be 6c 87 96 be 6d 90 a8 bd a6 8f bc bd
       -0.21591799 -0.29400194 -0.08230672 -0.09207086

momentum_buffer f4 [3]
000000 a8 78 92 bd 35 af 05 3e 12 26 5a be
       -0.071519196 0.13055117 -0.21303585

momentum_buffer f4 [16]
000000 d4 b5 b5 3d c0 f6 12 3c 6f 52 04 be f7 08 84 bd
       0.088725716 0.008969963 -0.12922071 -0.064470224
000010 52 5a 06 3d 0a 7d f7 bb ba fe 31 3d 66 e8 0f bd
       0.03280098 -0.0075527476 0.043455817 -0.03513374
000020 10 ee 04 3c 90 a3 90 bd f9 d6 1b 3d d2 ca b8 3e
       0.008113399 -0.07062447 0.03804681 0.3609224
000030 55 f2 76 be 82 86 0b 3e e2 d4 bd 3b fa c0 35 bc
       -0.2411588 0.1362553 0.0057932 -0.0110933725

momentum_buffer f4 [16]
000000 a0 a9 dc 3c 3d e7 51 3c 30 81 fc bd 7f a2 b6 bd
       0.026936352 0.012811479 -0.12329328 -0.089177124
000010 10 67 eb 3c 15 35 0e bd 31 94 8f 3d b0 22 16 bd
       0.028735667 -0.03471859 0.07010687 -0.036654174
000020 52 e0 83 3c c1 ef 49 bd 2f 9a ac 3c e2 b7 5b 3e
       0.016098175 -0.049300913 0.021069614 0.21456864
000030 f0 a0 fb bd 2d 08 90 3d bd 67 35 3c 61 78 71 bd
       -0.12286556 0.070328094 0.011072096 -0.058952693
