examples/toy_examples/outputs/best_model_20231127-112824.pth (torch, 8181 bytes, 14 tensors)

enc.lins.0.weight f4 [16, 14]
000000 b0 d9 e4 be e3 05 34 3e a7 bc 5b 3d cb 5d b1 bd
       -0.44697332 0.1758037 0.05364671 -0.08660468
000010 77 be bf 3c 31 32 1d 3d ac 10 12 be cd a3 18 bd
       0.02340625 0.038377944 -0.14264172 -0.037265588
000020 52 23 c0 bc 8f 68 db 3b 11 a7 a2 bd e0 29 8d 3d
       -0.023454342 0.006695814 -0.07942022 0.06892753
000030 e1 e1 44 3e 5c 05 2f 3d 3f f5 6e 3e 3f 6f 89 3e
       0.19226791 0.04272972 0.23335741 0.26842687
000040 b5 f3 6d 3d fd ca 2c 3e 4e 6b f9 3d 44 c6 6d 3e
       0.058093745 0.16874309 0.1217867 0.23220164
000050 4f a7 4a be e0 5b 5c 3d f2 83 40 bd 8c 73 b1 bc
       -0.19790386 0.053798556 -0.047000833 -0.021661542
000060 24 ba 8c bd 63 ee ef 3d 00 25 52 3e 7c 17 2f be
       -0.06871441 0.117153905 0.20521927 -0.17098802
000070 f2 1f dc 3e 97 0f 16 be bb 9b 15 bd ea ac 97 bc
       0.42993122 -0.14654385 -0.03652547 -0.018515069
000080 e7 19 45 bd 9c 68 d4 bc 60 4b 5e 3c 3e c6 b1 bd
       -0.048120406 -0.025928788 0.0135677755 -0.0868039
000090 4a d9 c2 3c e1 09 ed 3d fe 25 d1 3c 6a 75 07 3d
       0.023785252 0.1157415 0.025530811 0.03307096
0000a0 7e 19 30 3d 6a 9d ef bd b9 42 c6 3e 26 9d f1 bd
       0.04299306 -0.11699946 0.3872278 -0.11797552
0000b0 8d 41 19 bd 54 a1 ac bc 32 c7 1b 3e ec 09 67 be
       -0.03741603 -0.021073021 0.15212706 -0.22562379
0000c0 5d 67 d1 bd eb ef 1e be c1 91 58 3e 59 cf 26 be
       -0.10224793 -0.15521209 0.2114935 -0.16290034
0000d0 ee b1 80 3c 6a 56 89 be b8 29 83 bb df 20 ef 3d
       0.015709843 -0.2682374 -0.004002776 0.116761915
0000e0 2f b4 d3 3d 98 4e 99 3e 4c 13 0e bd d6 82 a5 bd
       0.10337102 0.29942775 -0.03468637 -0.080815956
0000f0 b1 6d 6b bd f5 1e f0 3d c3 b1 75 3b 65 76 56 3e
       -0.057477657 0.117246546 0.0037489987 0.20943601
000100 50 ec 3d be af 78 0c 3e d2 38 0b 3e 73 d1 ed 3d
       -0.18547177 0.13717912 0.13595894 0.11612215
000110 da 2d 34 bc c8 0a ed 3d 9e 6c aa be df aa 4c be
       -0.01099726 0.11574322 -0.33285993 -0.19987057
000120 f8 76 29 bd 85 da 48 bd 77 3f 28 3e df 99 44 3e
       -0.041373223 -0.04903652 0.1643046 0.19199322
000130 5b 4f 14 3e 55 c4 d6 bd 79 17 47 be 4b e2 79 be
       0.14483397 -0.10486666 -0.19442548 -0.2440273
000140 a9 08 ad 3d 98 94 63 be 34 10 81 be 9d 63 f0 bd
       0.084489174 -0.22224653 -0.25207675 -0.1173775
000150 5c da 57 be 4c fd 33 3d d7 48 57 be 10 6c 0f be
       -0.21079391 0.043942735 -0.2102388 -0.14006066
000160 d9 b6 97 3e f8 d6 df 3b 4b 8c 86 3e 6c 24 8d 3c
       0.2963169 0.006831046 0.2627891 0.017229281
000170 49 74 e6 bc 18 e3 f4 bd 33 46 64 be c2 82 4f be
       -0.028131621 -0.11957377 -0.22292404 -0.20264724
000180 ac 7e 44 3e 49 d9 6b bd 8a bc 4f be ed fe e8 3e
       0.19188946 -0.057580266 -0.20286766 0.45506993
000190 f6 bf b1 3d f8 70 82 bd 9e b6 4c be 1b 0d 6d be
       0.08679192 -0.06369203 -0.19991538 -0.2314953
0001a0 c0 8c 33 be d7 f1 6c 3e da 22 30 3e 9b e6 05 3d
       -0.1753416 0.2313913 0.17200795 0.032690626
0001b0 7c 86 17 be cb f0 8a bd 7b 19 84 be 3c f9 02 3e
       -0.14797395 -0.06784209 -0.2580069 0.12790388
0001c0 43 00 87 be 45 76 63 be 46 2c a3 bd 31 ed 33 3e
       -0.26367387 -0.22213085 -0.07967429 0.1757095
0001d0 56 a1 a2 3d 15 c1 b8 3c 74 9f 84 bd e8 df bc 3c
       0.07940929 0.022553006 -0.06475726 0.023055986
0001e0 3b f2 0d 3d 8a 2e 97 bd 7f 14 4c 3e f6 16 a4 bd
       0.034654837 -0.073819235 0.19929694 -0.08012192
0001f0 00 ad 3d 3e 13 b2 ca bd 5f 3a 53 be f5 87 ba 3e
       0.18523026 -0.09897246 -0.20627736 0.36431852
000200 77 32 84 bd d4 75 84 3e 81 96 4e be f7 63 2a bd
       -0.06454938 0.25871146 -0.201746 -0.04159924
000210 a1 46 39 bc e4 ed fa 3d fb 44 6b 3e 64 a2 c4 3d
       -0.011308343 0.12252405 0.22975533 0.09601286
000220 2a 5b 56 3d 82 c8 25 be 0f 82 63 3d 97 1c 5e bd
       0.052333035 -0.16189769 0.055543955 -0.054226484
000230 c8 9f 86 3e a0 11 d7 bc ca b5 28 3e 33 aa 7e 3e
       0.26293778 -0.026253521 0.16475597 0.24869613
000240 2c 6b 0b 3e 06 2d 9d bc ba ff c7 3d 2f 98 80 be
       0.13615102 -0.019186508 0.09765573 -0.25116107
000250 09 09 5e 3e 9d 7a e2 bb d5 1e cb 3d 8f 9d 5d bd
       0.21683134 -0.0069115893 0.0991799 -0.054105338
000260 40 24 be bd 20 30 a3 bd 74 ac af 3e bf 96 ca be
       -0.09284258 -0.079681635 0.3431126 -0.39568135
000270 00 23 86 3e 2a 1f a0 3e 67 0d 12 be 16 fb 81 be
       0.26198578 0.31273776 -0.14262925 -0.25386876
000280 bd 90 5d be 36 25 25 be f2 0e 64 3e 0b 7d 26 be
       -0.21637245 -0.16127476 0.22271326 -0.16258638
000290 10 e7 1c 3e 0c 3f 4c 3e 03 39 b5 bd 4b 85 c7 3b
       0.15322518 0.19945925 -0.08848765 0.006088888
0002a0 d7 02 b9 be 16 4f e3 3e e5 48 b0 3d a0 f4 2f 3e
       -0.3613498 0.44396275 0.086076535 0.17183161
0002b0 f3 1f 7d bd b9 52 d7 bc 6a 50 a1 bd 0b 7d 3d 3c
       -0.061798047 -0.026284562 -0.07876666 0.011565457
0002c0 c6 89 2a 3d 05 35 2b 3d 15 cd a3 3d ae 8c f7 bd
       0.041635297 0.04179861 0.07998101 -0.120873794
0002d0 25 4b 3d 3e 6e 83 89 bc 64 cd 7d 3e f0 5e b0 be
       0.18485697 -0.016786303 0.24785382 -0.34447432
0002e0 95 d2 68 bd f2 25 e0 3d 74 bc 01 be 4d 35 34 be
       -0.05684145 0.109447375 -0.12669545 -0.17598458
0002f0 fd 18 07 3e 9a d9 cc bc 7a eb ae 3d 5d 98 02 3e
       0.13193126 -0.025006104 0.08541007 0.12753434
000300 b3 12 0c be e4 a0 91 bd 10 40 53 ba 14 60 17 bd
       -0.13679008 -0.071107656 -0.0008058557 -0.03695686
000310 d9 36 74 be b2 59 00 be 11 df dc bc 83 98 2f 3e
       -0.23849048 -0.12534216 -0.026961835 0.17148022
000320 fc 28 1f 3e 7b 78 29 3e 2d ae b4 3b 52 f1 20 bc
       0.15542978 0.16549866 0.0055139274 -0.00982316
000330 35 53 8f 3d a6 02 52 3d 66 c0 12 bd 1b 49 db 3d
       0.06998292 0.051272057 -0.035828017 0.10707303
000340 b0 40 51 be 9d 17 54 be c9 4f 15 be 2e e8 2f be
       -0.20434833 -0.20712133 -0.14581217 -0.17178413
000350 4a 6d 6e be b3 a7 78 be 76 04 90 bb 7b ba e3 bc
       -0.23283878 -0.24282722 -0.004395063 -0.027798882
000360 29 0d 21 be ea 26 b5 bd 31 fd 9a 3d f6 fd 20 be
       -0.15727676 -0.08845313 0.07567824 -0.15721878
000370 b5 aa 34 3d 20 85 9e 3b 76 cf b8 3d b4 cf 12 3e
       0.04410811 0.004837647 0.09023945 0.14337045

enc.lins.0.bias f4 [16]
000000 5d d0 32 be 54 57 ec 3d 46 a8 4e 3e d6 f3 8c 3c
       -0.17462297 0.11540094 0.20181379 0.017206114
000010 d8 6c 0b 3e 62 38 cf bd 98 70 59 3d 64 ef 9f 3d
       0.1361574 -0.10118176 0.053085893 0.07809332
000020 cc cf fc bd d8 f8 28 3e 36 61 81 be d4 9a cd bd
       -0.123443216 0.16501176 -0.2526948 -0.10039297
000030 fe 06 21 be c4 76 22 be 85 d5 25 be e2 f0 80 be
       -0.15725324 -0.15865618 -0.16194732 -0.2518378

enc.lins.1.weight f4 [3, 16]
000000 f2 fa 2d 3d e0 06 26 be c7 15 13 bf 52 8a 92 be
       0.04247565 -0.1621356 -0.57455105 -0.28621155
000010 a9 61 72 be 49 26 8c 3c 6d 52 9f be 7d 3c 3c 3d
       -0.23670067 0.0171081 -0.31117573 0.045956124
000020 9d c5 d9 3d 4d 36 10 3e dd ee cb bd 06 27 7c 3e
       0.10633395 0.14083214 -0.09957669 0.24624261
000030 13 35 e2 3e 3b f9 02 3e 1b 8c f8 3d c7 e7 02 3e
       0.44181117 0.12790386 0.12136098 0.12783729
000040 9b 66 18 bf d6 4a 79 bd 03 61 73 be dd ca 97 be
       -0.59531564 -0.060862385 -0.23767476 -0.2964696
000050 e6 07 a0 3c 35 fb 1b be c6 ad cb bd 23 1e f7 3d
       0.019535016 -0.15232547 -0.09945254 0.12066295
000060 1a 9e 92 be c1 02 90 3e bb 4f b1 bd e2 cd 13 3f
       -0.28636247 0.281271 -0.086577855 0.5773603
000070 b1 fa 1d 3e 02 42 19 3e 19 0e bd bd c3 eb 7e be
       0.15427662 0.14966586 -0.092312045 -0.24894623
000080 40 ca 95 bc 74 9f 8d 3d ee 28 a9 bd fd d5 bb 3d
       -0.018284917 0.06915179 -0.0825976 0.091716744
000090 fa e6 32 3d 9d 5f 6d 3d b4 77 06 3c 7e 5c 8f 3e
       0.043677308 0.057952512 0.00820725 0.28000253
0000a0 af af 84 be 3a 97 20 3e cb 6c db 3d 7e 5f ae be
       -0.25915286 0.15682688 0.1071411 -0.3405723
0000b0 4b ab ad 3e 87 6d 0d be 50 29 a0 bd 09 b3 20 3e
       0.3391975 -0.13811313 -0.0782038 0.15693296

enc.lins.1.bias f4 [3]
000000 96 a6 6a 3d 89 6a c3 3e 8c 3f 27 be
       0.057287775 0.38167217 -0.16332835

enc.norms.0.module.weight f4 [16]
000000 a7 8d 8b 3f 6f ad 71 3f d6 bd 89 3f 7a 0e 82 3f
       1.0902604 0.94405264 1.0761058 1.0160668
000010 4d 39 71 3f ab d0 74 3f a8 c4 72 3f 3d af 76 3f
       0.9422806 0.956309 0.94831324 0.9636114
000020 bb 8e 7d 3f 4a e0 75 3f b1 20 71 3f 4d db 8c 3f
       0.99045914 0.9604536 0.9419051 1.1004425
000030 78 52 82 3f db a6 6e 3f b9 c3 6f 3f 33 ab 77 3f
       1.0181417 0.9322335 0.93658024 0.96745604

enc.norms.0.module.bias f4 [16]
000000 00 bb 03 3e a8 6f 3d bc 3a b8 1d 3c 68 96 c1 bb
       0.12864304 -0.011562265 0.009626443 -0.0059078224
000010 75 ef 4c 3d 9d c3 19 bd 5c 1b a1 bd 56 08 9a 3d
       0.05003305 -0.037540067 -0.078665465 0.07521121
000020 16 f1 8a 3d b8 10 91 3d 9c a5 b1 bc 0f 2f 79 3e
       0.06784265 0.07083267 -0.021685414 0.24334358
000030 85 96 48 3e 3a f2 93 3d 4b bf 22 3d c5 a7 51 3d
       0.19588669 0.072239354 0.039733212 0.051185388

enc.norms.0.module.running_mean f4 [16]
000000 f8 0d 36 be b5 3a da 3d 7e fd 4c 3e 84 79 26 3c
       -0.17778766 0.10655729 0.20018575 0.0101608075
000010 eb 79 01 3e 45 1e cf bd e5 0f 1a 3d 88 2d 99 3d
       0.12644164 -0.10113195 0.037612814 0.074793875
000020 da b0 e0 bd b0 b2 35 3e a5 2a 7e be 1c ae 9a bd
       -0.10971232 0.17743945 -0.24820955 -0.0755274
000030 53 81 1c be a2 30 13 be 01 78 1e be 3c 66 83 be
       -0.15283708 -0.1437402 -0.15475465 -0.25663936

enc.norms.0.module.running_var f4 [16]
000000 bc 23 97 3d 27 6a 22 3e 17 8f 91 3d f7 de 78 3d
       0.07379863 0.15860806 0.0710737 0.06075951
000010 ab 44 ef 3d 5d 0c 37 3e 71 92 c1 3c e8 a4 d5 3d
       0.11683019 0.1787581 0.023629399 0.10431844
000020 6c e5 17 3e 27 d6 76 3d b1 5f 26 3d 40 f1 86 3d
       0.14833611 0.060262825 0.040618602 0.065889835
000030 7d c4 a1 3d 56 32 49 3d 76 e1 aa 3d a1 78 87 3d
       0.07898805 0.04912027 0.083437845 0.06614805

momentum_buffer f4 [16, 14]
000000 2c 67 8c 3d cd 39 d0 3d d5 78 ef 3b 82 5d 4e bd
       0.06855616 0.101672746 0.0073081055 -0.050382145
000010 c0 39 1a 38 6e de 1a bd 2a 9d 8a bd 1a 3c 8a bb
       3.6770245e-05 -0.03780978 -0.06768258 -0.0042185904
000020 97 a1 83 bb ac 58 82 bd 8a fb 1d bd c8 22 d7 bb
       -0.0040170657 -0.06364569 -0.038569964 -0.0065654255
000030 8c c0 8f bb 32 30 29 bd cc cf c8 bc 71 60 55 3c
       -0.004386967 -0.04130573 -0.024513148 0.013023482
000040 bb 07 f3 ba 78 0e 0c b9 7e 42 fb 3b fd fa 59 3b
       -0.0018541733 -0.0001335683 0.0076678386 0.0033261173
000050 57 35 8f bb 93 9c 32 3a 1d a6 d8 39 72 1d 4e bb
       -0.0043703723 0.00068134925 0.00041322495 -0.0031450656
000060 8c 8b d9 b9 d6 06 35 bb a7 74 0f bb 16 db 29 bb
       -0.00041493436 -0.0027622483 -0.0021889599 -0.002591794
000070 cc 7b 11 3e 64 27 d1 3e 28 8e e1 bc 01 51 c0 bc
       0.14207381 0.40850365 -0.027533606 -0.023476126
000080 70 c2 49 3b 69 c2 0c bb cc 2b 39 bc e1 85 fe bc
       0.003078606 -0.0021478182 -0.011301946 -0.031069698
000090 8e a1 0e bd f5 b8 f8 3b 3b d5 74 3d b5 6a 90 bd
       -0.03482204 0.007590408 0.059773665 -0.07051603
0000a0 e4 2d 91 bd d2 e4 38 3c 92 0d ce 3d be 6a d4 3e
       -0.07088831 0.011285024 0.10061182 0.41487688
0000b0 aa 57 2a bc bc 19 99 bc 09 66 47 3c 2a f9 28 3b
       -0.010396877 -0.018689029 0.012170323 0.002578328
0000c0 ec 58 dd 3b b0 d6 79 bc a7 f3 96 bc 48 fe f1 3a
       0.006754985 -0.015248939 -0.01842673 0.0018462623
0000d0 66 dd 27 bc e7 d4 02 bd f3 bd 07 bd bd ba 85 3c
       -0.010245657 -0.03194132 -0.033140134 0.016324395
0000e0 c6 9d a7 bd 74 31 a3 3c 3c 95 da bb 68 7f b6 3a
       -0.0818439 0.019921042 -0.006670622 0.0013923468
0000f0 ce 35 10 3b 90 21 85 3a 4c 1e 81 3a 4d 53 71 bc
       0.0022004726 0.0010157097 0.0009850948 -0.014729333
000100 7f 2c 6e bc d6 a7 25 3c dd e9 37 3c 27 02 91 bc
       -0.014536976 0.010110816 0.011225191 -0.017701222
000110 ea 47 8c bc 28 3d 74 3c a4 e1 a8 bc 1c d3 1d 3d
       -0.017124135 0.014907159 -0.020615406 0.038531408
000120 97 7b 7e 3a 80 95 c3 bb 00 b8 7d 39 79 93 e7 bb
       0.00097077474 -0.0059687495 0.00024196506 -0.0070671407
000130 1f 24 21 bb 35 0d b6 ba 7d 12 c4 ba ed 8b d5 bb
       -0.002458818 -0.0013889434 -0.0014959123 -0.0065169246
000140 99 12 82 ba f0 7f ae b9 62 57 46 3a 71 36 72 bb
       -0.0009923755 -0.00033283187 0.00075661216 -0.003695872
000150 78 18 25 3d b1 89 8c 3e 80 96 da b7 1a cc ba 3c
       0.04030654 0.274488 -2.6057707e-05 0.022802401
000160 ac 74 05 3b 0e 37 af 3c 14 5a fa ba 02 25 32 bb
       0.0020363731 0.021388557 -0.0019100332 -0.0027182703
000170 91 66 92 bb 32 1a 9a bb c1 84 0c 3c 38 23 7b bb
       -0.0044677933 -0.0047028298 0.008576573 -0.0038320553
000180 5c ca f0 ba 16 c4 87 bb 33 d9 38 3e 16 e0 94 3d
       -0.0018370855 -0.0041432483 0.18051605 0.072693035
000190 f6 54 15 bb a8 2a 14 3b a2 a3 4a bb f8 96 32 ba
       -0.0022786236 0.0022608433 -0.0030920287 -0.0006812657
0001a0 6c ec 32 bc 70 32 3d 39 a3 5b 4f 3a d8 d8 02 3d
       -0.010920625 0.00018043234 0.0007910078 0.03194508
0001b0 49 5d 42 3c 9b bd ac ba d1 15 89 3b 2f bc ad 3c
       0.011863061 -0.0013179065 0.004183509 0.021207897
0001c0 70 be 4e bd e8 3b 13 3d 84 2b 87 3a 7a 35 93 bc
       -0.050474584 0.035945803 0.0010312651 -0.017969836
0001d0 4e 29 81 bc c1 25 49 bc 31 bd b3 bc c0 c4 bd 38
       -0.015766766 -0.012277068 -0.0219408 9.04887e-05
0001e0 56 1b 4f 3b 65 27 03 bd f8 41 f5 bc e2 32 b9 3b
       0.0031601987 -0.03201999 -0.029938683 0.0056518177
0001f0 de 87 8f 3a bc 2b 92 bc 28 03 73 3e 70 9a f9 3d
       0.0010950526 -0.01784312 0.23731673 0.1218766
000200 7f 3b 1b bb da 17 c5 bb f4 91 12 3b 20 5e 89 bc
       -0.0023686585 -0.006014806 0.0022364827 -0.016768515
000210 c8 19 aa bc b0 5d ec 3b 04 1a 2c 3c 25 25 2a 3d
       -0.020764247 0.007213317 0.0105042495 0.04153933
000220 80 41 0f 39 4e ee 01 3c c7 20 6a 3c ef d6 c9 3c
       0.00013661943 0.007930351 0.014290041 0.024638621
000230 80 ee b3 3c 94 9b 4d 3e 82 aa 31 bc 46 13 db bb
       0.021964312 0.2007888 -0.010843875 -0.006685647
000240 a6 e4 ae bb 49 ad a4 3b c0 59 4a 3c 2c b4 0b bc
       -0.0053373156 0.00502554 0.0123505 -0.008526843
000250 f2 a4 1a bc 65 c2 89 3c 82 9b 88 3c 58 6e a1 bc
       -0.00943874 0.016816327 0.016675714 -0.019705936
000260 b2 cd 97 bc af 13 bf 3c 6b c0 8d 3e e0 ed 56 3e
       -0.0185307 0.023324816 0.27685866 0.2098918
000270 00 29 e7 39 27 26 8a 3c aa a4 29 bd 6e 35 32 3d
       0.000440903 0.016863896 -0.0414168 0.043507986
000280 12 9f 34 3d 00 2e 40 3c 77 eb ad 3b a1 b8 43 3d
       0.044097014 0.011729717 0.0053076106 0.047783498
000290 4e e7 9f 3c 83 e0 99 3c a0 68 0f 3c 28 26 2d bc
       0.019519474 0.018783813 0.008752972 -0.010568179
0002a0 fe 92 c0 3e e8 48 8f 3e 65 ae 1d 3c 1a ff 89 3c
       0.37612146 0.2798531 0.009624098 0.016845275
0002b0 50 ce c3 ba f8 aa 80 bb 52 39 91 3b 76 e5 b5 3c
       -0.0014938805 -0.003926631 0.004431882 0.022204142
0002c0 1e 74 c6 3c 86 87 46 3d ea 77 ec 3c 18 16 dc 3c
       0.02422529 0.04846909 0.028865773 0.026866004
0002d0 9c ac 0c 3d 45 8b 17 3d 17 7e 5e 3e 3a 92 23 3e
       0.0343443 0.036998052 0.21727787 0.1597375
0002e0 12 00 85 3b d0 47 3f ba 18 d3 80 bc 28 d4 06 3a
       0.0040588463 -0.00072967727 -0.015725657 0.0005143308
0002f0 f8 ff c8 bb 98 c3 a3 3b 06 42 ce 3b ff 9f f4 bb
       -0.0061340295 0.004997682 0.0062944917 -0.007465362
000300 62 c3 3d bc 29 2c 86 3c ec 6b 6a 3c fe f2 70 bc
       -0.011582227 0.01637848 0.014307957 -0.014706371
000310 9c eb 4f bc 90 6e 24 ba 80 ff c8 b9 01 cd 31 bc
       -0.012690451 -0.00062725786 -0.00038337335 -0.010852099
000320 09 e7 2c bc 4b fd 18 bc 75 ab 53 bc 00 f5 19 39
       -0.01055313 -0.0093377335 -0.0129192965 0.00014682487
000330 97 67 13 3b ae e2 66 bc 3b 8b 50 bc d2 e2 4f 3b
       0.0022492164 -0.014092131 -0.012728508 0.0031720889
000340 c7 8f bd 3a ab b6 23 bc 91 42 e0 bd 30 1e 13 3e
       0.0014462405 -0.009992282 -0.109501965 0.14366984
000350 96 13 5a 3b fc f7 79 bc 7d a5 8e bb b0 fa ec bc
       0.0033275834 -0.015256878 -0.004353224 -0.02892813
000360 09 29 dc bc 1b fd 6b ba 30 83 d7 ba a8 f4 79 bc
       -0.026875036 -0.0009002254 -0.0016442295 -0.0152560845
000370 7a 1e a8 bb 82 90 42 ba 50 f9 81 3b ff bd 47 bc
       -0.005130586 -0.0007422046 0.003966488 -0.012191295

momentum_buffer f4 [16]
000000 24 99 08 32 8c 11 4d b0 2c d7 d4 b3 27 16 8a b3
       7.951062e-09 -7.46035e-10 -9.911159e-08 -6.430155e-08
000010 1a 65 ea 30 e1 04 ea b1 3c f7 6e b2 e0 0b 7a b2
       1.7054476e-09 -6.810851e-09 -1.3909638e-08 -1.4554615e-08
000020 86 9d 86 32 03 70 e7 b2 a6 90 3a 32 6e 36 33 33
       1.5671286e-08 -2.6942876e-08 1.0859514e-08 4.172619e-08
000030 84 f9 21 32 8f ca 05 b3 e4 f5 53 b1 87 24 52 b2
       9.428167e-09 -3.11507e-08 -3.0844314e-09 -1.2231914e-08

momentum_buffer f4 [3, 16]
000000 f1 2f f0 bd 14 96 d9 bc 16 ad d9 3d 9c e4 41 3d
       -0.11727894 -0.02656082 0.10628717 0.04733716
000010 87 3f c1 bd 56 a6 0c 3c ec c1 42 bd aa a5 39 be
       -0.09435945 0.008584579 -0.04754822 -0.18129602
000020 0f 93 04 3d 0e 98 5c be 1a 3f f0 3c 6a 17 24 3e
       0.03236681 -0.2154238 0.029326964 0.16024557
000030 1a 42 83 be 04 1b ce 3d 46 d6 1c 3c 04 be 67 3d
       -0.2563637 0.100637466 0.009572571 0.056577697
000040 fe c6 65 be 8c 93 28 3d ea eb 2e 3e f0 ad 11 3e
       -0.22439191 0.041156337 0.17082182 0.14226508
000050 95 fb 0b 3d c4 73 e5 bc bd 54 23 be 61 c9 bd bc
       0.034175474 -0.028009303 -0.15950294 -0.023167314
000060 c0 fe 5f 3b 9e 84 d1 bc 6a a5 c4 3d 93 7e bd 3e
       0.0034178942 -0.025575932 0.09601863 0.3701063
000070 cc 86 8f bd fc 45 99 3e e0 8c 8a bc e4 57 95 bc
       -0.07008132 0.29936206 -0.016912878 -0.018230386
000080 26 91 27 be 01 47 9d 3d 20 56 af bc a0 ab 8c ba
       -0.16363963 0.076795585 -0.021403372 -0.00107323
000090 76 7f bd 3d 8a d2 1f bd 99 11 cc bd 20 06 81 bd
       0.09252827 -0.039019145 -0.09964294 -0.062999964
0000a0 fc 77 3f bd e6 2a 9d bd fc 1c 21 3d 9a 69 b6 be
       -0.046745285 -0.07674198 0.039334282 -0.35627443
0000b0 f6 fd 26 be f6 7e 77 be da b5 41 bd 1f 86 a2 bd
       -0.16307816 -0.24169526 -0.047292568 -0.07935738

momentum_buffer f4 [3]
000000 5a bc 61 bd 04 e5 bb 3d 38 b0 1b be
       -0.055111267 0.09174541 -0.15203941

momentum_buffer f4 [16]
000000 a8 66 ec 3d 9a 54 f9 3b 2f 0c bc bd f1 58 63 bd
       0.115430176 0.0076089622 -0.09182011 -0.055504743
000010 a6 11 e4 3c 10 09 d0 3a 62 26 14 3d 75 dd e3 bc
       0.027840447 0.0015871841 0.036169417 -0.02781556
000020 1c 20 53 3c de 90 45 bd 50 fc 02 bc a3 0e a5 3e
       0.012886073 -0.04823386 -0.007994726 0.3223773
000030 80 81 1c be 54 8c c1 3d c8 4c d5 3b 24 9d 09 3b
       -0.15283775 0.094505936 0.006509397 0.0020998204

momentum_buffer f4 [16]
000000 c4 f1 36 3d 4e 7f c9 3b 17 32 e8 bd 54 6d c6 bd
       0.04466416 0.006149209 -0.11337679 -0.096888214
000010 de b2 84 3c 6e 6b 8a bc a5 2a 68 3d ef e5 d5 bc
       0.016198572 -0.01689693 0.056681294 -0.026110617
000020 8b 0b db 3c 43 6c 3b bd 14 21 c1 bc e0 fe a5 3d
       0.026738903 -0.045757543 -0.023575343 0.08105254
000030 73 a2 f8 bd 46 9a 27 3d e4 f8 05 3c 58 31 59 bd
       -0.1214036 0.04091861 0.008177016 -0.053025573
