examples/toy_examples/outputs/best_model_20231127-114307.pth (torch, 9955 bytes, 20 tensors)

inner_products.O_mat.0.weight f4 [2, 2]
000000 38 f7 91 3f b4 7b da bd 3a 6d 81 3d 4c 7b 8c 3f
       1.140357 -0.10668126 0.063196614 1.0975127

inner_products.O_mat.1.weight f4 [2, 2]
000000 d7 63 0a 3f 25 3d 2f be c0 9c 12 be c8 a7 18 3f
       0.54058594 -0.17113169 -0.14317608 0.59631014

inner_products.O_mat.2.weight f4 [2, 2]
000000 d1 53 26 3f 78 6b 67 be 37 ac 31 3d b4 1f ca 3e
       0.64971644 -0.2259959 0.043377127 0.39477313

enc.lins.0.weight f4 [32, 3]
000000 7b 6c 16 bf da 2d ae 3d fb bc 8b bd b3 eb 90 bd
       -0.5875928 0.08504839 -0.068231545 -0.07076206
000010 5e a3 73 3e b7 5d ec be ef ac a3 be f4 c7 91 3e
       0.23792788 -0.4616525 -0.31967875 0.28472865
000020 dd d3 17 bf 0c 3e 1f 3f dd a7 cf bd fe 46 fc bc
       -0.5930765 0.6220405 -0.10139439 -0.03079557
000030 b7 16 92 3e 54 4e 39 3e 78 45 9a be 2a cc 91 3d
       0.28532955 0.18096286 -0.30131125 0.07119019
000040 89 c2 60 3e 60 0f 03 3f db a6 e2 be 2a 3d a3 be
       0.2194921 0.51195335 -0.44267926 -0.31882602
000050 18 45 bb 3d da a3 85 bc 94 aa d9 be fb 06 f5 be
       0.09144038 -0.016313482 -0.42512953 -0.47856888
000060 d7 80 02 bf d2 31 d8 be 6b 22 66 be ca 64 08 bf
       -0.50977844 -0.4222551 -0.22474067 -0.5327879
000070 2a 0c be be d4 01 be 3d 92 59 f9 3e ce db 90 bc
       -0.37118655 0.092776924 0.4870115 -0.017682936
000080 fb 2a 49 3c 6e fe a6 3d 0d c5 ae 3e d6 8f b8 be
       0.012278314 0.08153997 0.34134713 -0.36047238
000090 ae 75 84 3d 00 22 06 3f e2 55 e3 3e b7 8d 10 bf
       0.06467758 0.5239563 0.4440146 -0.5646624
0000a0 d5 11 ef bd 48 2b a1 3d 9e 92 9a bb 6a 73 ee be
       -0.11673323 0.07869583 -0.004717185 -0.4657243
0000b0 bc 0c bf be 30 36 08 3f 4a 09 29 3d 26 f0 6e bd
       -0.37314403 0.53207684 0.041268624 -0.058334492
0000c0 27 b6 9c 3d 7f 29 d0 be d5 68 43 39 a3 f6 a1 3e
       0.0765193 -0.4065666 0.00018635702 0.3163348
0000d0 43 ec b6 be bd c4 3f 3e 27 96 f1 3a 3f 34 ad 3e
       -0.35727128 0.18727393 0.001843159 0.33828923
0000e0 2d 44 bd 3e f5 c1 0e 3e ca 8e 61 bc 93 ce 02 bf
       0.36966076 0.13941176 -0.013766954 -0.5109646
0000f0 40 fd d6 3e 1e 50 1c 3e 1b b0 5b be df e9 0d bf
       0.4199009 0.15264937 -0.21453898 -0.55434984
000100 c7 19 fb 3e f8 2f 11 be 22 7b 9b bc ea 7b 9f be
       0.49043104 -0.14178455 -0.018979613 -0.31149226
000110 b3 b8 a1 3e 11 ee 11 3f c3 f2 b2 3e 36 9e 46 be
       0.31586227 0.57003886 0.34950837 -0.1939629
000120 d7 e4 00 3f 55 1e 8b 3d f1 48 87 3d 75 e8 e1 be
       0.5034918 0.06792895 0.06605709 -0.44122663
000130 6b 6d 7e be 60 0c 17 bf f4 8d 03 3f 5a b8 fa 3e
       -0.24846427 -0.5900326 0.5138848 0.48968774
000140 b3 9f 98 3e d4 0e 91 3e 33 c1 a8 3d 30 2c 07 3f
       0.2980934 0.28331625 0.08239975 0.528018
000150 67 c7 9e be e2 50 1f be 7a f7 05 bf db 03 78 be
       -0.31011507 -0.15558198 -0.52330744 -0.2422022
000160 b6 28 91 be 76 7f 0b 3e 54 c1 b9 be 96 19 e2 bd
       -0.28351372 0.13622841 -0.3628031 -0.110400364
000170 ae c7 00 bf a1 70 db be a9 d5 e7 3d f0 41 17 bf
       -0.5030469 -0.42859367 0.11320049 -0.5908499

enc.lins.0.bias f4 [32]
000000 e8 6c 1d 3e 9a 27 08 bf 3d b0 cd be a9 58 f5 bd
       0.15373576 -0.5318543 -0.40173522 -0.11979801
000010 5c 0b 0d bf 24 bd ee 3e 58 34 f2 3e f6 66 9a be
       -0.5509546 0.46628678 0.4730556 -0.30156678
000020 28 b1 f7 3d 28 39 97 3e 9f de 3b 3e 20 64 9e bd
       0.12094337 0.29535794 0.18346642 -0.07733941
000030 7f 68 0b bf d6 f1 d6 3e e9 a2 01 bf 02 fc da bd
       -0.54456323 0.4198138 -0.50639206 -0.10692598
000040 a6 b1 12 3d 8e b5 42 be 94 3c 58 be 32 7b ff be
       0.03581395 -0.1901457 -0.21116859 -0.49898678
000050 fe 4c 02 3d d8 41 86 bd 96 da 00 3f 42 a3 42 be
       0.031811707 -0.065555274 0.50333536 -0.1900759
000060 ec 79 e4 3e e0 e6 df 3c 2f cf 84 be 96 99 0c be
       0.4462427 0.02733177 -0.2593932 -0.13730463
000070 80 2e 86 bd 18 f7 c3 3b 40 ce c2 bd 48 74 2f 3e
       -0.06551838 0.0059803836 -0.09511995 0.17134202

enc.lins.1.weight f4 [3, 32]
000000 48 76 92 3e 2b 08 36 3e bf 54 4f 3e 2a c1 93 3e
       0.28605866 0.17776553 0.20247172 0.2885831
000010 3a 40 d3 bd 03 7e 16 3e 78 bd fc bd 8a fb 50 3e
       -0.103149846 0.14696507 -0.12340826 0.20408455
000020 c4 17 71 be e5 7c 57 bb a6 20 01 3e 43 85 9b 3d
       -0.23544222 -0.003288084 0.1261011 0.07593777
000030 84 b0 51 3c 38 3a c3 bc b2 be 60 3e c3 71 3c bd
       0.012798432 -0.023831472 0.21947744 -0.04600693
000040 69 62 6f 3e 94 88 76 3e dd bd 02 3e 11 ef 04 bd
       0.23377384 0.24075538 0.1276774 -0.032454554
000050 cd d9 ee 3c 15 93 07 3e 1e b8 02 3b b6 34 fc bd
       0.02915659 0.13239701 0.0019946168 -0.12314741
000060 9e 99 90 3d 13 7d 3a 3d d8 9b 89 bd 45 51 3e 3d
       0.0706055 0.045529436 -0.06719178 0.046464223
000070 47 cf 6d 3d de 95 87 be 87 54 19 3d 62 2d 18 3e
       0.058059003 -0.26481527 0.037434127 0.14861062
000080 e3 b3 81 be d6 d1 66 bd 1f 24 a5 3d 64 be ed be
       -0.25332555 -0.05635246 0.0806353 -0.4643432
000090 a9 3a db bd 29 07 c4 ba 12 67 2c 3e ca be df bd
       -0.10704548 -0.0014955747 0.16836193 -0.10925062
0000a0 c1 bc a0 bc a3 4f c2 be 5e 5a a3 be cf 6c ce 3d
       -0.019621255 -0.37951383 -0.31904882 0.10079347
0000b0 3a a9 03 3d de 15 2b 3e 5c a5 6a 3c 48 3c 0d bf
       0.03214381 0.1670756 0.014321651 -0.55170107
0000c0 dd 59 62 3d 7a 60 42 3d 93 70 14 bd 37 f2 15 3e
       0.05526148 0.04745529 -0.03624017 0.14643179
0000d0 0a 92 04 be 2c 79 b9 3c b8 71 2b bb 27 df c2 bc
       -0.12946334 0.022640787 -0.002616031 -0.023788048
0000e0 82 9b 61 be 8f 77 42 3a 5e ea 63 bd eb 52 b3 3c
       -0.22031978 0.00074183283 -0.05564343 0.021890124
0000f0 fc e9 8c bd 24 a2 23 be 60 ec d9 3d 1a 59 a2 3d
       -0.068805665 -0.1597982 0.10640788 0.07927151
000100 41 59 55 3e 80 80 05 3d cd 39 eb bd d2 35 0e be
       0.20834829 0.03259325 -0.11485634 -0.13887718
000110 c9 44 d4 3d b5 5b 3e 3d 6c 40 68 3c 60 bb 38 3d
       0.10364682 0.046474177 0.014175516 0.04510057
000120 15 6d 17 bd 5e 8f 09 3e 9e 94 b9 bd 48 08 dc 3d
       -0.036969263 0.13433596 -0.090615496 0.10743767
000130 31 d3 b0 3e 7b c2 e0 3d 38 eb a1 3e a8 7e 0a 3d
       0.34536126 0.10974594 0.3162477 0.033812195
000140 37 4c b1 3d 94 aa de bd f5 30 99 3d eb 35 34 be
       0.08657115 -0.10872379 0.07480041 -0.17598693
000150 32 3c 03 3e 05 57 1d bd 9e 69 e7 3d 24 47 04 3e
       0.12815931 -0.038413066 0.11299442 0.12917763
000160 60 a6 2b bd 13 42 98 bd 43 53 c9 bd d6 d9 2e bd
       -0.041906714 -0.07434478 -0.09830334 -0.042688213
000170 26 bb d3 bd af 81 bb 3e d8 69 f4 3d c5 ee 22 bc
       -0.1033843 0.36622378 0.119342506 -0.009944622

enc.lins.1.bias f4 [3]
000000 b1 49 03 bf 76 fb 65 3f 8d 43 ba be
       -0.5128432 0.89836824 -0.36379662

enc.norms.0.module.weight f4 [32]
000000 e9 e1 7d 3f b5 66 7a 3f e7 5a 75 3f 3a 5c 7d 3f
       0.99172837 0.9781297 0.9584183 0.9896885
000010 10 57 76 3f bf cf 6e 3f a6 bc 67 3f c8 ca 79 3f
       0.96226597 0.93285745 0.9052223 0.97575045
000020 14 ec 73 3f fe a1 7d 3f 7d c4 7a 3f 16 4d 78 3f
       0.952821 0.99075305 0.9795607 0.96992624
000030 a9 0c 7a 3f c4 b4 65 3f 54 4e 82 3f d4 6f 83 3f
       0.9767557 0.8972895 1.0180154 1.0268502
000040 32 8e 7b 3f 5c 6e 79 3f d0 8a 70 3f 06 73 77 3f
       0.9826385 0.9743402 0.9396181 0.96659887
000050 73 0e 71 3f 89 b7 73 3f 35 96 6d 3f 3b f5 72 3f
       0.9416267 0.9520193 0.9280732 0.9490544
000060 b3 b6 78 3f c6 b2 74 3f b6 82 6f 3f a2 4c 6c 3f
       0.97153777 0.95585287 0.93558824 0.9230443
000070 20 64 76 3f 69 04 83 3f 9b de 71 3f 05 ed 72 3f
       0.9624653 1.0235721 0.94480294 0.94892913

enc.norms.0.module.bias f4 [32]
000000 1e fe 90 be d7 2c c0 3a e1 a1 ca 3d d8 2a c4 3e
       -0.28318876 0.0014661801 0.09894157 0.38313937
000010 09 6e f4 bb ff 7c ea bc a1 a8 62 3e e4 bb 8f bd
       -0.0074594063 -0.028624056 0.2213464 -0.07018259
000020 5d fb bc 3d 6d d1 90 be 0b d9 3a 3e 24 a7 49 bc
       0.09227631 -0.2828478 0.18246858 -0.012307916
000030 2d af c3 3d 7b 51 80 3e 7d b6 05 be 53 19 98 3e
       0.095548965 0.25062165 -0.13057895 0.2970682
000040 03 72 23 be 98 30 fe bc 05 83 31 3d 5a 30 05 3e
       -0.15961461 -0.03102903 0.04333784 0.13006726
000050 a6 9f 88 3d d1 fd af 3c 47 cf c8 3d e5 1e a4 bc
       0.066710755 0.021483334 0.0980516 -0.020034263
000060 64 77 95 3d 43 18 94 3c c3 0f 5d 3c 87 9a ef bc
       0.072981626 0.018077975 0.013492527 -0.029248489
000070 f5 55 66 bd 72 b9 e9 3d 4a 48 f1 3d 14 b4 b3 3d
       -0.05623432 0.11412324 0.11781366 0.087745816

enc.norms.0.module.running_mean f4 [32]
000000 27 04 b2 be ab 02 18 bf c5 42 2d bf 5c fc d1 3e
       -0.34768793 -0.5937907 -0.6768001 0.41012847
000010 ca c6 9d be 23 6f 08 3f 88 96 be 3d 01 52 a5 be
       -0.30815727 0.5329458 0.09306055 -0.32289127
000020 93 ac a3 be 76 d9 25 be 0a 64 19 3f ed 2d f7 bb
       -0.319676 -0.16196236 0.5991827 -0.0075433166
000030 80 6f f6 be 17 52 80 bd c7 70 04 bf 0e c9 b1 3e
       -0.48131943 -0.062656574 -0.51734585 0.34723705
000040 63 05 c8 3d 52 51 a0 3d 64 ab 50 be d3 9a c4 be
       0.097666524 0.078280106 -0.2037788 -0.38399372
000050 bd a5 c7 3e e2 22 09 bf 6d 4b f9 3e 49 a0 98 3e
       0.38993636 -0.5356885 0.48690358 0.29809788
000060 14 8f 60 3f c0 4f b6 be 7c 4f 3e 3e 54 02 e0 3d
       0.8771832 -0.3560772 0.18585008 0.10937944
000070 3e dc ab be 9e 21 4f be 8f c7 d1 be d3 eb 4a be
       -0.3356647 -0.20227668 -0.40972564 -0.19816522

enc.norms.0.module.running_var f4 [32]
000000 48 0d 01 3c 90 29 d8 3b d0 3e 51 3c 62 68 0d 3c
       0.007876702 0.0065967515 0.012771323 0.008630844
000010 67 4b 9b 3b af f4 fa 3b c7 53 eb 3b 67 95 1e 3c
       0.0047392133 0.007658563 0.007181618 0.009679175
000020 3e 1e 42 3c 99 7d 25 3c 39 5f ac 3b dc 3e c4 3b
       0.011848031 0.010100746 0.005260375 0.0059889387
000030 18 28 38 3c 5a 1a fa 3b 2d 01 08 3c a1 d8 d1 3b
       0.011240028 0.007632536 0.008301062 0.006403998
000040 89 a9 79 3b 39 a9 bd 3b 82 79 c1 3b 86 f9 d8 3b
       0.0038095436 0.005787995 0.0059043774 0.0066215424
000050 d7 74 b6 3b b5 c7 47 3c 92 87 98 3b d3 59 38 3c
       0.0055681276 0.01219361 0.004654833 0.0112518845
000060 0b 57 c4 3b 3c c0 74 3c b7 8e 6c 3c d2 05 14 3c
       0.0059918216 0.01493841 0.014438323 0.009034591
000070 12 c5 1f 3c f0 66 73 3b 0d 3b 20 3c da 02 58 3c
       0.009751575 0.0037140213 0.009779704 0.013184274

momentum_buffer f4 [2, 2]
000000 e8 88 8d 3e 08 57 68 bd 08 c1 48 3e fd 9e 11 3d
       0.27643514 -0.056723624 0.19604886 0.035552014

momentum_buffer f4 [2, 2]
000000 04 7f 77 3b c2 60 06 bd e5 b5 dd 3c c6 d5 e0 3d
       0.0037764916 -0.03280712 0.027064273 0.10978274

momentum_buffer f4 [2, 2]
000000 4b 27 0b 3d d7 7a e2 bb 62 2c 83 bc aa 02 cb bd
       0.03397302 -0.0069116163 -0.016012374 -0.099126175

momentum_buffer f4 [32, 3]
000000 be 6d d7 3c ba a3 b1 3d c0 21 f1 bd 5c ca be bb
       0.026297446 0.086738065 -0.117740154 -0.005822463
000010 ce 89 cd bc 12 8c 44 bc 24 59 b4 3c d2 e4 07 bc
       -0.025090124 -0.011996286 0.022015162 -0.008294301
000020 a0 54 81 bc 39 c1 d9 bc b3 69 1f be 26 55 89 bc
       -0.015787423 -0.026581394 -0.15567665 -0.016764235
000030 0e be 1d bd d5 00 77 3d c0 89 2a b9 19 e3 35 3c
       -0.03851133 0.060303528 -0.00016263779 0.011101508
000040 c5 4c 32 bc dd b6 4a 3b 7a dc f0 bc c9 90 4b 3d
       -0.010882561 0.003093175 -0.029402006 0.049698625
000050 db 67 00 3d 84 d6 0e bc 08 76 f4 bb 85 e2 e1 3b
       0.031349044 -0.008718137 -0.0074603595 0.0068934583
000060 68 af 95 bc d0 38 9d b9 83 17 2c 3d f6 8c fe 3c
       -0.018272117 -0.00029987702 0.04201461 0.031073075
000070 03 99 4e bd 5b 31 c1 bc c2 40 90 bb b0 21 99 bd
       -0.050438892 -0.023583105 -0.004402251 -0.074771285
000080 d8 a7 39 3d 3e 76 e8 3d 0a 5a 16 bd bb 4a 16 bc
       0.045326084 0.11350678 -0.03670696 -0.009173091
000090 f3 b0 e3 3d 77 0b a1 bd cd ad 9c 3d 9b 22 ce 3b
       0.11117735 -0.07863515 0.07650337 0.0062907464
0000a0 6d ea 1a 3c 1c c1 74 3d 3e 7c f6 3c 91 cd 0c 3d
       0.0094553055 0.059754476 0.03008854 0.03437573
0000b0 af 2e 31 bd cb 0d ec ba fa 85 38 3d e1 8f ad 3c
       -0.04325741 -0.0018009482 0.045049645 0.02118677
0000c0 a3 9a 5d 3d 54 6e 25 3c ce cf 54 bd 94 e8 c8 bc
       0.05410255 0.010097105 -0.05195599 -0.024524964
0000d0 7e 2e 13 bd 33 ee dd bc cf 07 87 3c ca 7b 8a bc
       -0.03593301 -0.027091121 0.016483216 -0.01690473
0000e0 30 9f 7a 3c 52 62 14 3e 22 2b df bc 0b ec 24 3d
       0.015296742 0.14490631 -0.027242247 0.04026417
0000f0 74 df 20 bc f3 6b fc 3b fe 85 5d bc e2 69 fb 3b
       -0.0098189 0.0077032982 -0.013520716 0.0076725343
000100 00 3c ef 3a 69 06 c1 bc 08 b2 d8 bc 1a 5c 69 3b
       0.0018252134 -0.023562627 -0.02645208 0.0035607875
000110 a6 22 09 3b 2e 08 3d ba 74 80 2e 3c 67 03 8b 3c
       0.0020925193 -0.00072109967 0.010650743 0.016969396
000120 d8 28 17 bc 91 83 0e 3d f1 3a 04 3d a8 f3 9d 3c
       -0.0092260465 0.03479344 0.032282773 0.019281223
000130 ef b4 bc bb 08 4c 44 bc 2c 50 21 bd 4a 2d 40 3d
       -0.0057588737 -0.011981018 -0.0393831 0.04691819
000140 f1 00 17 bc f6 2a d1 3b 80 f0 88 b9 c2 ed 5d bb
       -0.009216533 0.006383295 -0.00026119128 -0.0033863639
000150 2e f2 4b 3d 64 16 ed 3a 62 e5 f5 bc 86 12 15 be
       0.049791507 0.0018088338 -0.030016605 -0.14557847
000160 14 00 03 3e 09 a3 0f 3c 58 16 0d bd 96 dc 42 bc
       0.12792999 0.008766898 -0.034445137 -0.011893412
000170 33 b4 e0 3c b9 c7 59 3c 46 4f 0e bc b7 f6 38 bc
       0.027429676 0.0132922465 -0.008685892 -0.01128929

momentum_buffer f4 [32]
000000 e0 05 af b1 8e 64 93 b3 d8 4d 3c b3 38 87 f0 b1
       -5.0938382e-09 -6.863512e-08 -4.384296e-08 -7.000292e-09
000010 de 80 87 b3 b6 af aa b2 68 c9 82 31 2d 0c df 33
       -6.309868e-08 -1.9870509e-08 3.806395e-09 1.03864615e-07
000020 25 f4 22 b2 8a e2 9b b3 4b 74 4b b5 5e 82 df b3
       -9.485153e-09 -7.258957e-08 -7.579262e-07 -1.04079604e-07
000030 1c cb bb 31 5e 7e fe b2 4f a4 90 b3 ea b4 39 b3
       5.465507e-09 -2.9626957e-08 -6.73541e-08 -4.323821e-08
000040 28 6e 30 b3 e4 d0 71 b3 7d bc 55 b3 00 2b 70 b0
       -4.107838e-08 -5.630217e-08 -4.9764356e-08 -8.73726e-10
000050 28 ad c1 33 58 03 f9 b1 2c 72 10 34 3a e9 ff 32
       9.01876e-08 -7.247234e-09 1.345258e-07 2.9791966e-08
000060 40 ca 80 30 46 e8 fc b1 60 52 e3 b1 e8 34 ab 31
       9.370709e-10 -7.3605717e-09 -6.6159345e-09 4.9827698e-09
000070 b5 f8 e1 32 b2 0e ac 32 7f 44 17 33 32 b6 cf b1
       2.6306546e-08 2.0030118e-08 3.5219724e-08 -6.045206e-09

momentum_buffer f4 [3, 32]
000000 90 e1 f5 bd 26 cb 51 bd 52 d4 8c bd 3c 30 c2 bc
       -0.12005913 -0.051219128 -0.068764344 -0.02370464
000010 0c 7a a3 bd a2 44 c2 bd 52 e1 18 be 7f 7d 22 3d
       -0.07982263 -0.09485747 -0.14929703 0.039670464
000020 16 cc a4 bd 46 28 04 be 1e d9 44 bd 24 8b c4 bd
       -0.08046739 -0.12905988 -0.04805862 -0.095968515
000030 29 fd 1c be e2 ed 2a be 6a 17 2f 3d a4 1f 91 bd
       -0.15330948 -0.16692308 0.04274694 -0.07086113
000040 c1 a0 be 3c db ae 8c 3c 82 c9 02 be 43 76 36 bc
       0.023270013 0.017173221 -0.12772182 -0.011136594
000050 f4 c8 89 bd 90 7a 0b be 3a 4e 7e bd 94 7c cc bd
       -0.06727782 -0.13620973 -0.06208632 -0.09984699
000060 a1 a0 94 bd 4d 0c f3 bc 02 e6 e4 bd 59 a4 77 bd
       -0.072572 -0.029668951 -0.11176683 -0.06045947
000070 1e ca 5e bc 40 d1 10 be fb 79 36 bd 46 bb 7a bd
       -0.013597993 -0.14142323 -0.044549923 -0.061213754
000080 64 15 ce 3d e7 bc 8c bd e8 57 d2 bd f8 54 01 3f
       0.10062674 -0.06871968 -0.10270673 0.5052028
000090 2b 5d 7c 3e 02 44 18 3d 7e af 22 3d d2 ad 03 bd
       0.24644916 0.037174232 0.039718144 -0.03214819
0000a0 12 91 ae 3c a5 c3 1a 3e 8e ce df 3e 7c 30 82 bb
       0.02130941 0.15113695 0.43712276 -0.003973065
0000b0 ff 29 ac 3c 0c 7c 3a 3d 85 27 0b bd 11 77 fe 3e
       0.021016119 0.045528457 -0.033973236 0.49700215
0000c0 6b 10 4c bd e6 b8 02 3e 8e 2d 87 3c f6 bc d2 3d
       -0.049820345 0.12765846 0.016501214 0.10289948
0000d0 08 1c a9 3e c1 94 8e bd 20 75 37 bb 9c cb 88 3e
       0.330292 -0.06961966 -0.0027993396 0.26717842
0000e0 08 a6 c3 3e dc b9 37 bd 70 52 50 3e e6 32 01 3e
       0.3821261 -0.044854984 0.20343947 0.12617072
0000f0 08 04 5d bd ea 6d 80 3d 7c 6c a1 bd 96 f6 b9 bd
       -0.053958923 0.062709644 -0.0788202 -0.09080236
000100 cc 88 04 3e dc 50 31 3d 95 61 da 3d b5 13 52 3e
       0.12942809 0.043290004 0.106631435 0.2051533
000110 17 99 a3 3d 72 b3 6f bc 9b 17 27 3e 3f 43 41 bd
       0.07988184 -0.014630185 0.16317599 -0.04718327
000120 89 4a ee 3d 2e 34 07 3e aa 87 2d 3e ba 4e 00 3d
       0.1163531 0.13203499 0.16946283 0.03132508
000130 ec 4d 48 bd 13 69 50 3e 09 54 99 bd fc b0 4c 3e
       -0.048902437 0.20352583 -0.074867316 0.19989389
000140 ce 70 d6 bd 7a 71 0b 3d f2 7c 34 bd d3 20 8f 3d
       -0.104707345 0.034043767 -0.04406447 0.069886826
000150 c7 6b 05 3e 6b 43 c9 3d 2a 1e 53 3d 7f e3 d8 3d
       0.13029395 0.09827312 0.05154244 0.105902664
000160 53 82 20 3e 46 f7 c2 3d 2a 12 83 3d 0e 82 12 3d
       0.15674715 0.0951982 0.06399949 0.03576856
000170 0c ec 8c 3d 66 e1 08 3e 53 bd e7 3d 7d 88 f5 3d
       0.0688096 0.13367233 0.113154076 0.11988924

momentum_buffer f4 [3]
000000 06 ff 08 be 4e 07 2b 3e be 56 a0 3e
       -0.13378534 0.16702005 0.3131618

momentum_buffer f4 [32]
000000 d3 de ae bc 3a 98 7c bb 9c a0 e8 bc 74 23 51 be
       -0.021346485 -0.0038542883 -0.028396897 -0.2042368
000010 a9 83 27 bc 47 25 84 bc 18 a4 16 3d d4 3a 3c 3c
       -0.010224261 -0.016131056 0.036777586 0.011488635
000020 bc 6a 51 3c c8 d1 a0 bc d9 a6 0f be 6b 3e 86 bb
       0.012781795 -0.019631281 -0.14028491 -0.0040967963
000030 f3 9b c8 bc 46 23 46 3d 25 83 29 bc b8 15 5a be
       -0.024488425 0.048373483 -0.010346209 -0.21297348
000040 da 70 4b ba bc c8 e8 3b 01 d3 a7 bc 3a 8c 11 3c
       -0.00077606516 0.0071040075 -0.020486357 0.00888353
000050 86 b9 e2 bc e0 06 c3 bc 00 e8 71 3b 49 c7 ad 3c
       -0.027676355 -0.02380699 0.0036911964 0.02121319
000060 d5 64 bb bd 84 3d 0c bc 16 41 28 bc e6 e3 de ba
       -0.091500916 -0.008559588 -0.010269424 -0.0017005175
000070 8f 4e a9 bb 0f a4 83 3d fb 03 84 3b 48 85 65 bc
       -0.0051668356 0.06427776 0.004028795 -0.0140088275

momentum_buffer f4 [32]
000000 d6 cb 28 3d a4 1d bb bc 0b 6c 95 bd 59 e4 34 be
       0.041210018 -0.022841282 -0.07295998 -0.17665233
000010 d1 cd 4b bb d0 44 5f bc da 73 d7 bc 84 af c8 3c
       -0.0031098018 -0.013627246 -0.02630036 0.024497755
000020 15 7f b7 3c c2 b5 8e 3d 78 29 03 be fe 2a db 3c
       0.022399465 0.06968261 -0.12808788 0.026753899
000030 70 12 77 3d 63 3a 1a bd f6 df 04 3d f2 5e 1c be
       0.060320318 -0.03765334 0.03244015 -0.15270594
000040 32 6c 0f 3d df a0 55 3c 55 40 b0 bc dd c4 2a bd
       0.035015292 0.013038843 -0.02151505 -0.04169165
000050 08 24 e7 bc 60 a1 04 bd c7 ce c1 3c dc e5 b9 3c
       -0.028215423 -0.03238046 0.02365817 0.022692613
000060 5a f0 c1 bd 74 4d 74 bc 1c 22 0d bd 67 02 e2 b9
       -0.094696715 -0.014911044 -0.034456357 -0.0004310787
000070 04 b1 66 bc 46 08 bf 3d d2 0f 40 bb 45 0d 43 bd
       -0.01408029 0.0932775 -0.0029306305 -0.047620077
