examples/toy_examples/outputs/best_model_20231127-112433.pth (torch, 8757 bytes, 14 tensors)

enc.lins.0.weight f4 [32, 6]
0	0xbe9ce351	-0.3064218
1	0x3e8f1c47	0.2795126
2	0x3e9b15dc	0.30290115
3	0x3ea6c1b1	0.3256965
4	0xbe4d116b	-0.20026176
5	0xbde9b49a	-0.114114
6	0xbeae7c52	-0.34079224
7	0xbe90564b	-0.28190836
8	0xbd57a25c	-0.052645072
9	0xbda3362f	-0.07969319
10	0x3e9832cf	0.29726264
11	0x3e9f882c	0.31158578
12	0x3ebe9c93	0.37228832
13	0xbe26967b	-0.16268341
14	0xbeb07cd3	-0.34470233
15	0xbebd7d3e	-0.37009615
16	0x3e0e7a79	0.13913907
17	0xbea1f6e9	-0.3163369
18	0xbecf6c26	-0.40512198
19	0xbe3c0513	-0.1836131
20	0xbeb1af37	-0.3470399
21	0xbe281bec	-0.16416901
22	0xbe8b96b8	-0.27263427
23	0xbe578ea6	-0.2105051
24	0x3ebc373c	0.3676089
25	0xbddc08c0	-0.107438564
26	0x3eb53c57	0.35397598
27	0x3dded650	0.108807206
28	0xbdb88a2c	-0.09010729
29	0xbe0e01a3	-0.13867812
30	0xbe9479ff	-0.28999326
31	0xbeaaa399	-0.3332794
32	0x3e8dc417	0.27688667
33	0xbe03d518	-0.12874258
34	0xbecb0889	-0.3965495
35	0x3ec0c03b	0.3764666
36	0xbdd45498	-0.103676975
37	0xbe88f8fc	-0.2675246
38	0xbe90439e	-0.28176588
39	0xbeac790f	-0.3368611
40	0xbecf74ff	-0.40518948
41	0x3eb7746d	0.35831013
42	0x3eac88d6	0.33698148
43	0xbdc9d69c	-0.098553866
44	0xbeb484dd	-0.35257617
45	0xbde26ca2	-0.11055876
46	0xbebc0ca9	-0.3672841
47	0x3e1afdf0	0.15135932
48	0xbe28fca3	-0.16502623
49	0xbe044726	-0.12917766
50	0xbd7e3fb7	-0.062072482
51	0x3e6d269b	0.23159258
52	0x3e3aec5e	0.1825423
53	0x3d221c71	0.039577905
54	0xbe81d180	-0.25355148
55	0x3d6a54e4	0.057209864
56	0xbd8012a6	-0.06253557
57	0xbeaafe78	-0.3339727
58	0x3ec25505	0.3795549
59	0xbdda75c1	-0.10666991
60	0x3e8ea10c	0.27857244
61	0xbeb85d89	-0.36008862
62	0x3ddff245	0.10934881
63	0x3e329947	0.17441283
64	0xbec3f927	-0.38276026
65	0x3dd4bf5c	0.103880614
66	0xbecb78fb	-0.39740738
67	0x3e017376	0.12641701
68	0xbe0d734f	-0.13813518
69	0x3e26c119	0.16284598
70	0x3eb6e850	0.35724115
71	0x3dca50e2	0.098787084
72	0xbd2dada8	-0.04240194
73	0xbe41fee7	-0.18944894
74	0x3e289379	0.16462506
75	0xbe43b7e4	-0.19113117
76	0x3e57f793	0.21090536
77	0xbe178e3d	-0.14800353
78	0x3e996cdd	0.2996587
79	0x3e9fe3c3	0.31228456
80	0x3e802760	0.2503004
81	0x3c5ae617	0.013360522
82	0x3e2f4544	0.17116266
83	0xbebb248a	-0.36551315
84	0x3e97e42a	0.29666263
85	0xbeaf76c8	-0.3427031
86	0x3e3cef08	0.18450558
87	0x3c99389d	0.018703753
88	0xbe21f736	-0.1581696
89	0xbe1f8640	-0.15578556
90	0x3e80fe17	0.25193855
91	0xbe73eef4	-0.23821622
92	0xbd5030e7	-0.050827887
93	0x3e5b3207	0.21405803
94	0x3d149cc4	0.036282316
95	0xbeb7b499	-0.35879973
96	0xbee16dd2	-0.440291
97	0xbe02c199	-0.12769164
98	0x3ebc846d	0.36819783
99	0xbe973efc	-0.2954024
100	0x3e5bd6c6	0.21468648
101	0x3e981f7a	0.29711515
102	0xbe4d947f	-0.20076178
103	0xbe2414c9	-0.16023554
104	0xbe959d75	-0.29221693
105	0x3d55238c	0.052035853
106	0xbd872ef3	-0.06600752
107	0x3c5d29c8	0.013498731
108	0x3e2a48e0	0.16629362
109	0x3e4aa490	0.19789338
110	0xbde5562c	-0.111980766
111	0x3da2a12c	0.07940897
112	0x3d9c72e1	0.07639099
113	0xbbbd83b5	-0.005783523
114	0x3da4ce85	0.08047203
115	0xbe86ba6c	-0.26314104
116	0x3ebc4b4a	0.3677619
117	0x3d1f74dd	0.03892981
118	0xbdcafdde	-0.099117026
119	0xbebc011d	-0.367196
120	0xbeb8f820	-0.36126804
121	0x3dd1be03	0.1024132
122	0xbd5beba0	-0.053691506
123	0xbe41afbb	-0.18914692
124	0x3e42a4bc	0.19008154
125	0xbc6968eb	-0.014246206
126	0x3e06b1de	0.13153788
127	0x3eb3203e	0.34985536
128	0xbe3ebccb	-0.18626706
129	0xbe4e7ab1	-0.2016399
130	0xbda079d4	-0.07835737
131	0xbd1987c2	-0.037482984
132	0xbe8c04de	-0.27347463
133	0xbd8e2734	-0.06941071
134	0xbbc7697e	-0.0060855737
135	0x3e43cd24	0.19121224
136	0x3eb196ad	0.3468527
137	0x3e952a3f	0.29133794
138	0x3c9526a5	0.018206904
139	0x3e4b4583	0.19850735
140	0x3e0e025c	0.13868088
141	0x3d7db35b	0.061938625
142	0xbdec389c	-0.11534235
143	0x3dd7aecb	0.10531386
144	0xbea99545	-0.33121696
145	0xbeb2a417	-0.34890816
146	0x3c8fa79a	0.017535973
147	0xbde27f16	-0.11059396
148	0xbe4f0e51	-0.20220305
149	0xbec436d0	-0.3832307
150	0x3eb542e7	0.35402605
151	0xbdcbef57	-0.0995776
152	0xbe4d4c3b	-0.20048611
153	0xbe130190	-0.14356065
154	0x3e1328e9	0.14371075
155	0xbe9e502e	-0.30920547
156	0x3e669897	0.22519146
157	0xbcf930fd	-0.030418867
158	0x3e12dda4	0.14342362
159	0x3e1f2854	0.15542728
160	0xbe8400fc	-0.25782
161	0x3e2dcfc0	0.16973782
162	0x3ead491f	0.3384485
163	0xbe06ecb2	-0.1317623
164	0x3e3e2003	0.18566899
165	0xbe0e36ee	-0.13888142
166	0x3d796767	0.060889628
167	0x3e0df559	0.13863124
168	0xbe2e3444	-0.17012125
169	0x3ea00128	0.31250882
170	0xbea7f50d	-0.32804146
171	0xbde65892	-0.11247362
172	0xbe875305	-0.26430526
173	0xbe970bf2	-0.295013
174	0xbe70bd05	-0.23509605
175	0xbec6fa30	-0.38862753
176	0x3dce4aae	0.10072838
177	0xbd577baa	-0.05260817
178	0xbeb25467	-0.3483002
179	0xbb8eec3e	-0.0043616584
180	0xbe852e0f	-0.26011702
181	0x3ebeeb32	0.37288815
182	0xbe7b2944	-0.2452746
183	0xbceda1fb	-0.029007902
184	0x3cfaba85	0.030606518
185	0x3d9f13e1	0.077674635
186	0xbdb84e7c	-0.08999345
187	0x3e9adf2a	0.30248386
188	0x3ed145a2	0.40873438
189	0xbde0497b	-0.10951515
190	0x3e85d00c	0.2613529
191	0x3e98e4ba	0.29862005

enc.lins.0.bias f4 [32]
0	0xbeb8e7bf	-0.36114308
1	0x3dca3ef8	0.098752916
2	0x3e6ccd54	0.23125201
3	0xbd826b70	-0.06368148
4	0x3e66b814	0.22531158
5	0x3c638280	0.013886094
6	0x3e9f2034	0.31079257
7	0x3c1004cf	0.008790209
8	0xbe85d240	-0.2613697
9	0x3e9ebd7e	0.31003946
10	0x3df8a850	0.12141478
11	0x3eb1d49a	0.34732515
12	0x3dcf8df0	0.10134494
13	0x3e5dfc4c	0.21678275
14	0x3e82540c	0.25454748
15	0x3d8cc970	0.06874359
16	0xbdc25cec	-0.0949038
17	0x3dacae94	0.08431736
18	0xbe91bdcb	-0.28465113
19	0x3c64823f	0.013947069
20	0xbe065dba	-0.13121691
21	0x3cd37210	0.025811225
22	0xbea57ef2	-0.32323414
23	0x3e7f6f90	0.24944901
24	0xbec0d8ed	-0.376655
25	0x3e330654	0.17482883
26	0x3e89a784	0.26885617
27	0xbebf91a0	-0.3741579
28	0x3ebcdac2	0.3688565
29	0xbe9b626c	-0.30348527
30	0xbda42e34	-0.08016625
31	0x3e58a174	0.2115534

enc.lins.1.weight f4 [3, 32]
0	0xbd4e384a	-0.05034665
1	0x3e25ee55	0.16204198
2	0x3d8d9ee7	0.06915074
3	0x3df24398	0.11829299
4	0xbd75ecfc	-0.06004046
5	0x3c83dd22	0.016096655
6	0x3e594def	0.21221136
7	0x3e0925c1	0.13393308
8	0xbc82ad35	-0.015951732
9	0x3de4919f	0.111605875
10	0xbea744bd	-0.3266963
11	0x3e9c3015	0.30505434
12	0xbda98dcf	-0.08279001
13	0xbd90f94a	-0.07078798
14	0xbe8d0320	-0.27541447
15	0xbe069f5b	-0.13146727
16	0x3e18dd57	0.14928184
17	0x3e1ca845	0.15298565
18	0xbbc6e781	-0.006070078
19	0xbdd6ef65	-0.1049488
20	0x3e95deb5	0.29271474
21	0x3bce12ca	0.006288861
22	0x3d63309f	0.05546629
23	0xbdd95ee6	-0.106138036
24	0x3c696dcb	0.014247368
25	0x3e6ee0b3	0.23327903
26	0xbc936572	-0.017992709
27	0x3da7acd2	0.0818726
28	0xbd22cbba	-0.03974507
29	0x3d4af01b	0.04954539
30	0xbdb9258d	-0.09040365
31	0x3d8dbaf9	0.06920428
32	0xbef99c65	-0.48752132
33	0x3e483c4f	0.19554256
34	0x3e35fbdf	0.17771862
35	0xbc95a118	-0.018265292
36	0x3e19032a	0.14942613
37	0xbc86f0b4	-0.016472198
38	0xbc9dab2e	-0.019246664
39	0x3e81eebb	0.2537745
40	0xbdd8f426	-0.105934426
41	0x3e29fcd3	0.16600351
42	0xbe5bc8cd	-0.21463318
43	0x3e492e34	0.19646531
44	0x3df37c20	0.11888909
45	0x3dff30a8	0.12460452
46	0xbd0613b9	-0.032733653
47	0x3bdb3a0c	0.0066902693
48	0x3d60dfbf	0.05490088
49	0x3df078bc	0.11741778
50	0x3dfc4c02	0.12319185
51	0xbe90acf5	-0.28256956
52	0x3debe6ea	0.11518653
53	0xbcdecdb7	-0.027197702
54	0xbd06d0a3	-0.032913815
55	0x3e40ebce	0.18839952
56	0xbdae6409	-0.08515174
57	0x3df7ba76	0.120961115
58	0x3e0baba2	0.13639691
59	0x3e84b2a4	0.25917542
60	0xbd1f01c5	-0.038820047
61	0xbdc75664	-0.097332746
62	0xbe213944	-0.15744501
63	0xbdb416b6	-0.08793394
64	0x3e064cac	0.13115185
65	0xbd126a29	-0.035745773
66	0xbe3ce98d	-0.18448468
67	0x3dbae742	0.0912614
68	0x3e7836af	0.2423961
69	0x3d43a373	0.0477633
70	0x3c771654	0.015081007
71	0xbe15c308	-0.1462518
72	0xbe259f6f	-0.161741
73	0x3db462b1	0.088078864
74	0xbe34522d	-0.17609473
75	0x3d8f6ce2	0.070031896
76	0xbdf2eacc	-0.1186119
77	0x3d543706	0.051810287
78	0xbe18e478	-0.14930904
79	0xbd76bc1f	-0.060238
80	0xbd8b8a50	-0.068134904
81	0xbd9af8aa	-0.0756696
82	0x3e37b518	0.17940176
83	0xbd098dc7	-0.033582475
84	0xbe0a1842	-0.13485816
85	0x3c818383	0.01580978
86	0xbcbbac73	-0.022909379
87	0x3e4ce75a	0.20010129
88	0xbd9c0af5	-0.076192774
89	0x3cf34e88	0.029700533
90	0x3c974194	0.018463887
91	0xbe18e304	-0.1493035
92	0x3dee63ce	0.1164013
93	0xbe4d39bc	-0.20041555
94	0x3de1d396	0.11026685
95	0x3d5cbf6e	0.0538935

enc.lins.1.bias f4 [3]
0	0xbeaa9c01	-0.33322147
1	0xbe9db59b	-0.30802616
2	0x3e087bbe	0.13328454

enc.norms.0.module.weight f4 [32]
0	0x3f869157	1.0513104
1	0x3f76353e	0.9617499
2	0x3f78ad47	0.971394
3	0x3f76b571	0.9637061
4	0x3f7630a0	0.96167946
5	0x3f72ff65	0.9492095
6	0x3f74f441	0.956852
7	0x3f7e300c	0.99292064
8	0x3f76b4de	0.9636973
9	0x3f7a724c	0.97830653
10	0x3f7d3eb2	0.9892379
11	0x3f7ff925	0.9998954
12	0x3f7645f4	0.9620049
13	0x3f742eb2	0.9538375
14	0x3f78e34d	0.97221833
15	0x3f70690c	0.9391029
16	0x3f76c45e	0.9639338
17	0x3f7696d1	0.9632388
18	0x3f77fb0b	0.96867436
19	0x3f7a0fc9	0.97680336
20	0x3f7e5ab4	0.9935715
21	0x3f74b4db	0.95588464
22	0x3f73b5fc	0.9519956
23	0x3f7ac73e	0.9796027
24	0x3f75537b	0.95830506
25	0x3f78fe79	0.97263294
26	0x3f76a40a	0.96344054
27	0x3f7d8db2	0.99044335
28	0x3f73244c	0.9497726
29	0x3f77ce8d	0.96799546
30	0x3f729960	0.9476528
31	0x3f6ee442	0.93317044

enc.norms.0.module.bias f4 [32]
0	0x3df1ca6a	0.118061855
1	0xbdcdb9c8	-0.100452006
2	0xb9e057f1	-0.0004279013
3	0xbd86689a	-0.0656292
4	0x3e0a5347	0.1350833
5	0xbd6af584	-0.05736305
6	0x3c09b0ea	0.008403996
7	0xbd494c9a	-0.04914532
8	0x3d017229	0.031603012
9	0xbd9cbd4c	-0.07653293
10	0x3e02dc1e	0.1277928
11	0xbe06362e	-0.13106605
12	0xbd67dffe	-0.0566101
13	0xbc47e0dd	-0.012199608
14	0x3dd65f8d	0.104674436
15	0xbbeab64a	-0.007162844
16	0xbd4d11a1	-0.05006564
17	0xbd582960	-0.052773833
18	0xbb35725f	-0.0027686579
19	0x3cfab616	0.030604403
20	0x3d73db3f	0.05953526
21	0xbd403cbd	-0.046932925
22	0xbd1ea0d0	-0.03872758
23	0x3d28cac8	0.041209012
24	0xbbc68792	-0.0060586417
25	0xbd2e9c28	-0.04262939
26	0xbccd3b5b	-0.025052717
27	0xbd386aa6	-0.045023583
28	0x3cd1dcf6	0.025618058
29	0x3d115a21	0.035486344
30	0x3d9c46b2	0.076306716
31	0xbbed21fe	-0.007236718

enc.norms.0.module.running_mean f4 [32]
0	0xbeacfdf4	-0.337875
1	0x3dae7783	0.08518889
2	0x3e530686	0.20607957
3	0xbd898773	-0.06715288
4	0x3e718b5a	0.23588315
5	0x3caa9914	0.020824946
6	0x3e9c5647	0.30534574
7	0x3c6e4fc9	0.014545389
8	0xbe82b38b	-0.25527605
9	0x3e8eea85	0.279133
10	0x3e13b5ab	0.1442477
11	0x3eafde9d	0.34349528
12	0x3dad677e	0.08467005
13	0x3e59d336	0.21271977
14	0x3e85ef25	0.26159015
15	0x3da0a00e	0.07843028
16	0xbdedffb0	-0.11621034
17	0x3db33d71	0.087519534
18	0xbe90c76f	-0.28277156
19	0x3c9fefd7	0.019523544
20	0xbe181b5b	-0.14854185
21	0x3c8b5ba0	0.017011464
22	0xbea5b7bb	-0.32366738
23	0x3e83af29	0.25719574
24	0xbec1c0d5	-0.37842432
25	0x3e25f133	0.16205291
26	0x3e92e642	0.28691298
27	0xbec32e35	-0.3812119
28	0x3ebc8c23	0.36825666
29	0xbe976cbc	-0.29575145
30	0xbdac6b4e	-0.08418904
31	0x3e4c99f3	0.19980602

enc.norms.0.module.running_var f4 [32]
0	0x3d1ef489	0.038807426
1	0x3e718071	0.23584153
2	0x3d5c6e1a	0.05381594
3	0x3e5b1274	0.21393758
4	0x3d677621	0.05650914
5	0x3e7869f7	0.24259172
6	0x3dccab7f	0.09993648
7	0x3d5a1a00	0.05324745
8	0x3d589f80	0.052886486
9	0x3d08b824	0.033378735
10	0x3d62db72	0.05538506
11	0x3d8337a2	0.064070955
12	0x3d28fb98	0.041255563
13	0x3e6ef905	0.23337181
14	0x3d46f0ab	0.048569363
15	0x3cd7a3fa	0.026323307
16	0x3e4adde5	0.19811209
17	0x3da524a4	0.08063629
18	0x3da95b6f	0.08269393
19	0x3d291926	0.04128375
20	0x3d620fa2	0.05519069
21	0x3e20947a	0.1568164
22	0x3d9679bb	0.07347437
23	0x3d1432a0	0.036181092
24	0x3e941f6f	0.28930232
25	0x3d5d6161	0.054047946
26	0x3ce3f360	0.027826011
27	0x3d2f92a1	0.042864446
28	0x3d45c5f3	0.048284482
29	0x3e80b97e	0.2514152
30	0x3d6c7b39	0.0577347
31	0x3d709a92	0.05874116

momentum_buffer f4 [32, 6]
0	0xbeddf626	-0.4335186
1	0xbef60079	-0.48047236
2	0x3d55d7b6	0.05220767
3	0xbbf58a43	-0.0074932887
4	0x3d4c40cc	0.049866483
5	0x3c8b14e8	0.016977742
6	0x3cee50d3	0.029091274
7	0xbcec1b20	-0.028821528
8	0xbc266e92	-0.010158198
9	0x3be63a31	0.00702598
10	0xbb902249	-0.0043986184
11	0x3c240d7f	0.010012983
12	0x3d26dcbc	0.040737852
13	0x3d9d3877	0.076767854
14	0xbc1a0094	-0.009399552
15	0x3be32ad9	0.006932598
16	0xbc85d752	-0.016338024
17	0x3b5f4e71	0.0034073854
18	0x3a510b20	0.0007974375
19	0x3c79612a	0.01522092
20	0xbc518290	-0.012787476
21	0x3c21d9c0	0.009878576
22	0xbbdbcc07	-0.0067076716
23	0x3bedaf63	0.0072535737
24	0x3d12ae13	0.03581054
25	0x3c9f66f8	0.019458279
26	0xbc8e7cc4	-0.017393477
27	0xbc953add	-0.018216545
28	0x3cf11144	0.029427178
29	0x3b056fe0	0.0020360872
30	0xbb9ec732	-0.0048455233
31	0x3b8140fb	0.003944514
32	0xbaff231c	-0.001946542
33	0x3ab0c058	0.0013485057
34	0xb98126ae	-0.00024633616
35	0x3ab6a9ad	0.0013936065
36	0x3cdcbce7	0.026945544
37	0x3ca92a04	0.020649917
38	0xbbe93aa8	-0.007117588
39	0x3c7d1ddd	0.0154490145
40	0xbc6e76cb	-0.01455469
41	0x3c806b71	0.015676232
42	0x3d9e407c	0.07727143
43	0x3e518178	0.20459545
44	0x3c4015cd	0.011723948
45	0xbb4cfc74	-0.0031278403
46	0x3c184fa4	0.009296332
47	0x3c0fd570	0.008778915
48	0xbc2ea70c	-0.010659944
49	0x3c154840	0.009111464
50	0x3c877ee2	0.016539995
51	0xbacaf852	-0.0015485382
52	0x3bbccedb	0.005761964
53	0xbbd35dc8	-0.0064503886
54	0xbd10cf7e	-0.03535413
55	0xbd21f6fa	-0.039542176
56	0xbd2cd487	-0.04219487
57	0x3c03e835	0.008050968
58	0xbc8bd122	-0.017067496
59	0x3ada20fc	0.001664191
60	0x3e00d930	0.1258285
61	0x3d95dc6a	0.07317431
62	0x3b545c94	0.0032403814
63	0xbcdede71	-0.027205678
64	0x3ba0f02b	0.0049114428
65	0xbcbfacc7	-0.023397816
66	0x3d72e012	0.05929572
67	0x3dc153cb	0.0943981
68	0xbd363643	-0.04448534
69	0x3d230e37	0.03980848
70	0xbc2cfeff	-0.010558843
71	0x3ce5eb52	0.028066311
72	0x3c8bad13	0.017050302
73	0x3cbf7314	0.023370303
74	0x3b9d1576	0.004793818
75	0xbca4d341	-0.020120265
76	0xbc184a94	-0.009295125
77	0xbc891434	-0.016733266
78	0xbc2e7768	-0.010648586
79	0x3b4cd35a	0.0031253905
80	0x3b27f863	0.0025630228
81	0xbb83afd0	-0.004018761
82	0x3c049282	0.008091571
83	0xba2e2978	-0.00066437526
84	0x3d51da9e	0.05123388
85	0x3d630174	0.055421308
86	0x3c9f0280	0.019410372
87	0xbd5df866	-0.05419197
88	0x3d0215dd	0.03175913
89	0xbd248026	-0.040161274
90	0x3d286d3a	0.04111979
91	0x3d18bcb5	0.03728934
92	0x3c0ce0af	0.008598491
93	0xbcdb8dff	-0.026801107
94	0x3c93d436	0.018045526
95	0xbc38e93a	-0.011286074
96	0xbc2efa10	-0.010679737
97	0x3c92ed64	0.017935462
98	0xbb9f777b	-0.004866538
99	0x3c52c130	0.012863442
100	0x3aaf44fb	0.0013371998
101	0x3c1f5eaa	0.0097271595
102	0x3cb47557	0.022028608
103	0xb98e4ec0	-0.00027143024
104	0xbbecfa04	-0.0072319526
105	0x3c8e44ab	0.017366728
106	0xbc92292d	-0.0178419
107	0x3c59417c	0.013260242
108	0x3bfde0ad	0.0077477307
109	0xbbc06a51	-0.005872049
110	0x3c10893b	0.008821781
111	0xbc4c0336	-0.012451937
112	0x3cc50ce7	0.024054004
113	0xbb1e7c30	-0.0024182908
114	0x3da6157b	0.08109566
115	0x3dbb91db	0.09158679
116	0x3d69fd3b	0.057126265
117	0xbc8f87f5	-0.017520884
118	0x3d17f1af	0.03709572
119	0xbb25a9b4	-0.0025278153
120	0x3d5afac8	0.05346182
121	0x3e889d11	0.26682332
122	0xbcef36ac	-0.029200874
123	0x3d320d22	0.043469556
124	0xbbacebde	-0.005277141
125	0x3cd2b0af	0.025719015
126	0x3b727ad8	0.003699949
127	0xbae5d27f	-0.0017534046
128	0xba0fbca9	-0.00054831296
129	0x372fff00	1.0490185e-05
130	0xb9ef6fa5	-0.00045668814
131	0x398374a8	0.00025073183
132	0x3ba46662	0.005017088
133	0x3d4364d1	0.047703568
134	0xba051ec4	-0.0005078132
135	0x3c257b60	0.010100216
136	0x3ab712ba	0.0013967373
137	0x3bfe7ebc	0.0077665728
138	0x3e310b73	0.17289524
139	0x3cdf8dfc	0.027289383
140	0x3c67a78c	0.014139067
141	0xbd2060fe	-0.039155
142	0x3d80ebf4	0.062950045
143	0xbc02bfed	-0.007980329
144	0xbbb07390	-0.00538487
145	0x3b3e619d	0.0029049881
146	0x3b884308	0.0041583814
147	0x3b22b4ba	0.002482696
148	0x3b1f06e1	0.0024265575
149	0x395676d2	0.00020452894
150	0x3d717742	0.058951624
151	0x3e30c83d	0.17263885
152	0xbbe0c284	-0.0068591256
153	0x3c12b190	0.008953467
154	0xbbd9a0cc	-0.006641483
155	0x3c153112	0.009105938
156	0x3ce8c643	0.028414851
157	0x3d852624	0.06501415
158	0x3a329254	0.0006811966
159	0xbc3ad3fe	-0.011403082
160	0x3c83fbac	0.016111217
161	0x3c07fc52	0.008299904
162	0x3db92440	0.09040117
163	0x3e391f4c	0.18078345
164	0xbce606bd	-0.028079385
165	0xbc2a2a61	-0.0103860805
166	0xbd0b8c0f	-0.034069117
167	0xbbdbd0e3	-0.006708251
168	0x3c0aa5b8	0.008462362
169	0xbca66df7	-0.020316107
170	0xbc4232bb	-0.011852915
171	0xbc802171	-0.015640946
172	0xbb18be3f	-0.0023306755
173	0xbba8d08c	-0.005151814
174	0xbbb8bbae	-0.0056376075
175	0x3af8faf0	0.0018995684
176	0x3c112fb0	0.008861467
177	0x3bbc5b50	0.00574819
178	0x3b5f56be	0.0034078802
179	0xbadccb11	-0.0016845186
180	0xbc6ab2e8	-0.014324881
181	0xbc7951f0	-0.015217289
182	0xbbc6980d	-0.0060606063
183	0xbc20ce62	-0.0098148305
184	0x3b3cb068	0.002879167
185	0x3a8761d1	0.0010328834
186	0xbcd2dac2	-0.025739077
187	0xbc52e9aa	-0.012873093
188	0xba70f060	-0.0009191092
189	0x3bc56646	0.006024155
190	0x3a9e244c	0.0012065261
191	0x3bfbe1cc	0.007686829

momentum_buffer f4 [32]
0	0xb38b002c	-6.472723e-08
1	0x30bc6078	1.3706218e-09
2	0x31cda23e	5.98473e-09
3	0x3041cd5c	7.0504824e-10
4	0xb2ffc6d3	-2.9776322e-08
5	0xadc89740	-2.2804536e-11
6	0x330ae835	3.234182e-08
7	0xb1f16087	-7.024997e-09
8	0x32a25c47	1.8901245e-08
9	0x30ea5640	1.7050255e-09
10	0x33b0884b	8.22043e-08
11	0xb2bedf14	-2.2220355e-08
12	0x32385501	1.0729537e-08
13	0xb2326717	-1.0384404e-08
14	0x3347b562	4.6498265e-08
15	0xb206ff67	-7.857898e-09
16	0xb2a12d4e	-1.8763469e-08
17	0xb290043e	-1.6765735e-08
18	0x30cf6270	1.508921e-09
19	0x3262df82	1.3205751e-08
20	0xb2c191a8	-2.2534394e-08
21	0xb083ef1a	-9.599461e-10
22	0xb14db46d	-2.9933986e-09
23	0xb2af2586	-2.0389745e-08
24	0x32064e39	7.817612e-09
25	0x32fc8134	2.9395416e-08
26	0x3338f872	4.3066798e-08
27	0x3359f1d6	5.0744198e-08
28	0xb27f15b7	-1.4847891e-08
29	0xb2c92456	-2.3416003e-08
30	0x327fd49a	1.48912935e-08
31	0x315cee0f	3.2149534e-09

momentum_buffer f4 [3, 32]
0	0x3e1ec78a	0.15505806
1	0xbe1ba687	-0.15200244
2	0xbdcf062b	-0.10108598
3	0xbe25cbfa	-0.16191092
4	0xbd13b106	-0.036057495
5	0xbe26af0d	-0.16277714
6	0xbe0a786f	-0.13522504
7	0xbca8e7e6	-0.02061839
8	0xbe0aec8f	-0.13566802
9	0xbe202c41	-0.15641882
10	0xbd87d19d	-0.066317774
11	0xbcd01718	-0.025401637
12	0xbe6973d6	-0.22798094
13	0x3c9a898e	0.01886442
14	0xbde840b5	-0.11340467
15	0xbda79c2b	-0.081840836
16	0xbe3f6243	-0.18689828
17	0xbe0ce243	-0.13758187
18	0x3d29a899	0.041420553
19	0xbe5c47f0	-0.21511817
20	0xbdf8067a	-0.1211061
21	0x3d644e5a	0.055738784
22	0xbdc9702e	-0.0983585
23	0x3dc8a7d0	0.09797633
24	0xbe4eb48a	-0.20186058
25	0xbd67f11b	-0.05662642
26	0x3d02e0bb	0.0319526
27	0xbd8f945b	-0.070107184
28	0x3dfe12e4	0.12405947
29	0xbe42b4c6	-0.19014272
30	0x3e2c04cf	0.1679871
31	0x3d934418	0.07190722
32	0x3ca5b5c8	0.020228282
33	0xbc210463	-0.009827706
34	0x3d1fb77a	0.038993336
35	0xbc09997c	-0.00839841
36	0x3d38b6f2	0.045096345
37	0x3c36707e	0.011135219
38	0x3d4ac99e	0.049508683
39	0x3cb20f64	0.021735854
40	0xbcc48670	-0.023989886
41	0xbd48d760	-0.049033523
42	0x3b6e9c60	0.0036409125
43	0xbd8d5d28	-0.06902534
44	0x3ba73d24	0.005103724
45	0x3e1a43a2	0.15064862
46	0x3bdb07a0	0.0066842586
47	0xbc93e6c9	-0.018054383
48	0xbd2380a6	-0.03991761
49	0x3c059600	0.008153439
50	0x3e1bd69d	0.15218587
51	0x3be30ff8	0.006929394
52	0xbd416076	-0.047211133
53	0x3e264dfa	0.16240683
54	0xbd2b04c2	-0.041752584
55	0x3e2ae92e	0.16690513
56	0x3c3c4a37	0.011492304
57	0x3d3c8af8	0.04603097
58	0x3d18a0d2	0.037262745
59	0x3d1f3380	0.038867474
60	0x3e05a8de	0.13052699
61	0x3ce2ca3c	0.027684323
62	0x3df0bc60	0.1175468
63	0x3e04e229	0.12976898
64	0xbe79b7f4	-0.24386579
65	0x3e49818d	0.19678326
66	0x3ba03668	0.004889298
67	0x3e664390	0.2248671
68	0xbc8e0256	-0.017335098
69	0x3e47762c	0.19478673
70	0x3e631e94	0.22179633
71	0xbc88033c	-0.016603105
72	0x3e6af044	0.22943217
73	0x3def0680	0.11671162
74	0x3d990df0	0.074733615
75	0x3db0a7e9	0.08625776
76	0x3e1b6695	0.1517585
77	0xbceed38d	-0.02915361
78	0x3c82ebcc	0.015981577
79	0xbd1e042a	-0.03857819
80	0x3e4219f7	0.18955217
81	0x3e6a4e22	0.22881368
82	0xbd56bbea	-0.052425303
83	0x3df25364	0.11832312
84	0x3dff13ae	0.124549255
85	0xbd809ee6	-0.062803075
86	0x3e498194	0.19678336
87	0xbe01c2fd	-0.12672038
88	0x3e568cbe	0.20952126
89	0x3c1577a4	0.009122763
90	0xbcf6cccb	-0.03012695
91	0x3cb6e016	0.02232365
92	0xbe10f226	-0.14154872
93	0x3e6233db	0.22090094
94	0xbe32bec8	-0.1745559
95	0xbdbef003	-0.09323122

momentum_buffer f4 [3]
0	0xbd889606	-0.0666924
1	0x3e0fb138	0.14032447
2	0x3d4eebc6	0.05051782

momentum_buffer f4 [32]
0	0xbd29498b	-0.0413299
1	0xbd20dea2	-0.03927482
2	0xba809060	-0.0009808652
3	0x3abd6f48	0.001445272
4	0x3b92e3a1	0.004482702
5	0x3bed1d10	0.0072361305
6	0xbcdf437a	-0.027253855
7	0x3bde4720	0.006783381
8	0xbd05b9d6	-0.03264793
9	0xbc773754	-0.015088875
10	0x3c02e959	0.007990205
11	0xbc840b08	-0.016118541
12	0x3ab48b48	0.0013774419
13	0x3c88b29b	0.016686728
14	0x3cec8db5	0.028876165
15	0x3c636609	0.013879308
16	0xbd3d3eb7	-0.046202388
17	0xbd29018e	-0.04126125
18	0x3c190808	0.009340294
19	0x3c8a6868	0.016895488
20	0xbd674f13	-0.056471895
21	0xbbb57716	-0.005537878
22	0xbc19efb5	-0.0093955295
23	0xbb464830	-0.003025543
24	0xbcaa6440	-0.020799756
25	0xbbf41fbc	-0.007450072
26	0x3b8cc489	0.0042958898
27	0x3ae406e0	0.0017397068
28	0xbcdf9b2c	-0.027295671
29	0xbd65824e	-0.05603247
30	0xbd563df4	-0.052305177
31	0xbc4a6000	-0.01235199

momentum_buffer f4 [32]
0	0xbd571fe9	-0.052520666
1	0xbd2ab5f0	-0.041677415
2	0x3cad3afd	0.021146292
3	0xbb020a70	-0.0019842647
4	0x3b3db45e	0.0028946619
5	0x3bd21be9	0.0064120186
6	0xbcdbeee8	-0.026847318
7	0x3d0160a2	0.031586297
8	0xbcf38ced	-0.029730285
9	0x3bed777e	0.0072469106
10	0xbab83880	-0.0014054924
11	0xbbd41038	-0.00647166
12	0xbb356754	-0.0027679997
13	0xba4e8fe0	-0.00078797154
14	0x3badb148	0.0053006746
15	0x3c22c7d4	0.009935338
16	0xbcfa4f22	-0.030555312
17	0xbd35a322	-0.04434503
18	0xbc8262e7	-0.015916301
19	0x3b97eb7e	0.004636227
20	0xbcd8a156	-0.026444118
21	0xbba3b058	-0.004995387
22	0xbc167958	-0.009184204
23	0xbd05df1d	-0.03268348
24	0xbc9b4ff4	-0.018959023
25	0x3b3f00a8	0.0029144678
26	0x3bf4d355	0.007471482
27	0x3c83609e	0.016037282
28	0xbcafa64e	-0.021441605
29	0xbd77d7ce	-0.06050854
30	0xbd351a44	-0.044214502
31	0xbc19089c	-0.009340432
