examples/toy_examples/outputs/best_model_20231127-123834.pth (torch, 8370 bytes, 14 tensors)

enc.lins.0.weight f4 [16, 14]
-0.44033116 0.15389787 0.08789332 -0.06811913 -0.0011527785 -0.0067202104 -0.16097967 -0.021776645
-0.021260269 0.03738833 -0.10336465 0.061673917 0.17724666 0.04426243 0.21223141 0.2882263
0.071224496 0.17058785 0.10960387 0.23889793 -0.20673245 0.059425138 -0.04572369 -0.019798752
-0.06133125 0.11255169 0.20237662 -0.15427345 0.44025877 -0.13513035 0.004966866 -0.0030811774
0.0065340293 0.0012470963 -0.0019129302 -0.06890578 0.03721538 0.100205444 0.07628197 0.02675264
0.041197546 -0.11531088 0.40977082 -0.096959576 0.039414313 0.0144151645 0.08732993 -0.21061048
-0.082670406 -0.16625038 0.19354892 -0.16489038 0.06843342 -0.2868416 -0.018041074 0.12741926
0.12307525 0.2812119 -0.02374555 -0.08124556 -0.03829015 0.11948932 0.028804127 0.20617425
-0.1907432 0.11950546 0.17181028 0.111879304 -0.009914925 0.13438691 -0.31305873 -0.20655535
-0.04130057 -0.038251024 0.15718865 0.18831247 0.15278204 -0.109229796 -0.20130521 -0.24951483
0.08398536 -0.22674704 -0.2597454 -0.11812867 -0.251221 0.050421778 -0.1887789 -0.15744509
0.28579146 -0.019968845 0.19051796 0.027324792 -0.02228113 -0.10686015 -0.23672523 -0.20883216
0.18641198 -0.0771302 -0.181494 0.4598935 0.06797319 -0.07937323 -0.19887947 -0.20725301
-0.19639766 0.22688368 0.1748636 0.022217212 -0.1612856 -0.061575484 -0.24252644 0.14021187
-0.27431232 -0.21855266 -0.07556542 0.1659057 0.081738636 0.01772598 -0.065187566 0.023300616
0.023913728 -0.08463952 0.17824271 -0.07082319 0.1831817 -0.110428385 -0.18032423 0.38100708
-0.10787478 0.24629894 -0.15044934 0.003470485 -0.047551125 0.10771183 0.2227038 0.053555828
0.06101619 -0.1402774 0.08207965 -0.07745019 0.11906641 -0.2308877 0.202722 0.20776589
0.1778965 -0.005756738 0.10790347 -0.24686538 0.21322452 -0.07327312 0.07876255 -0.036726076
-0.08368139 -0.09507153 0.37503052 -0.44756922 0.10702922 0.23651782 0.017354231 -0.18992518
-0.18723337 -0.13356124 0.26737297 -0.17403628 0.102881834 0.21979108 -0.050480966 -0.01122751
-0.37859586 0.4338502 0.06085738 0.14991882 0.0033920382 0.012261818 -0.09853739 -0.010311487
0.043276485 0.032007966 0.10277695 -0.08681723 0.22882189 0.04262438 0.21164103 -0.35752943
-0.09925166 0.076973826 -0.049068782 -0.13034463 0.115305044 0.004974488 0.124774784 0.13810465
-0.19471101 -0.06978276 0.003826218 -0.07548032 -0.20045829 -0.15379924 -0.029003609 0.17076579
0.16576731 0.1723579 0.0121434145 -0.010805696 0.0726886 0.04602895 -0.061584733 0.109644644
-0.20076169 -0.20949936 -0.17378248 -0.15108247 -0.2199415 -0.23322794 0.022712948 -0.033148833
-0.15508804 -0.09973608 0.06602049 -0.16887565 0.022041611 -0.0021858672 0.08002109 0.1292615
00000000: 1673 e1be 6797 1d3e 6a01 b43d 0b82 8bbd
00000010: d418 97ba 3635 dcbb dbd7 24be ef64 b2bc
00000020: 042a aebc 8124 193d d8b0 d3bd ca9d 7c3d
00000030: 2680 353e 864c 353d 3153 593e 6692 933e
00000040: 26de 913d 95ae 2e3e fe77 e03d a9a1 743e
00000050: acb1 53be c667 733d c448 3bbd fe30 a2bc
00000060: 7a36 7bbd 8081 e63d d13b 4f3e dcf9 1dbe
00000070: 9969 e13e 9c5f 0abe 18c1 a23b 94ed 49bb
00000080: 691b d63b 9c75 a33a 49bb faba 791e 8dbd
00000090: 286f 183d 8338 cd3d b939 9c3d 5a28 db3c
000000a0: c2be 283d 1c28 ecbd 7bcd d13e be92 c6bd
000000b0: e770 213d 952d 6c3c 09da b23d 46aa 57be
000000c0: 1a4f a9bd 8a3d 2abe b031 463e 06d9 28be
000000d0: d226 8c3d e7dc 92be e0ca 93bc 327a 023e
000000e0: e00e fc3d 02fb 8f3e 0786 c2bc 1264 a6bd
000000f0: 22d6 1cbd d1b6 f43d a2f6 eb3c 581f 533e
00000100: 2f52 43be 47bf f43d 09ef 2f3e fa20 e53d
00000110: 3672 22bc b99c 093e 3c49 a0be 3f83 53be
00000120: c92a 29bd 1bad 1cbd 10f6 203e fcd4 403e
00000130: e572 1c3e dfb3 dfbd f422 4ebe d180 7fbe
00000140: 8400 ac3d 6030 68be 59fd 84be 72ed f1bd
00000150: 0aa0 80be 1187 4e3d 424f 41be 4939 21be
00000160: 4253 923e b495 a3bc 2417 433e 3ed8 df3c
00000170: eb86 b6bc 7fd9 dabd 1968 72be 19d8 55be
00000180: c8e2 3e3e 70f6 9dbd 90d9 39be 2977 eb3e
00000190: 8735 8b3d 6f8e a2bd 0fa7 4bbe 223a 54be
000001a0: 781c 49be 3254 683e 720f 333e df00 b63c
000001b0: 0d28 25be 9336 7cbd da58 78be b393 0f3e
000001c0: aa72 8cbe 45cc 5fbe 0bc2 9abd 2fe3 293e
000001d0: 9666 a73d 1336 913c 0f81 85bd efe0 be3c
000001e0: b9e6 c33c 7c57 adbd 4285 363e c00b 91bd
000001f0: fc93 3b3e 4728 e2bd eaa6 38be 5c13 c33e
00000200: 74ed dcbd ca35 7c3e 640f 1abe 1471 633b
00000210: f8c4 42bd 0598 dc3d 770c 643e 5b5d 5b3d
00000220: 1dec 793d e1a4 0fbe 6019 a83d 359e 9ebd
00000230: 17d9 f33d d36d 6cbe 5b96 4f3e 95c0 543e
00000240: 802a 363e 05a3 bcbb 7ffc dc3d 47ca 7cbe
00000250: 8757 5a3e 3810 96bd 434e a13d 156e 16bd
00000260: 2661 abbd ddb4 c2bd 0004 c03e cb27 e5be
00000270: 2332 db3d ba31 723e 762a 8e3c bf7b 42be
00000280: 1bba 3fbe 47c4 08be 1ce5 883e 9136 32be
00000290: b6b3 d23d ea10 613e 21c5 4ebd 97f3 37bc
000002a0: 51d7 c1be 9d21 de3e 9745 793d 5284 193e
000002b0: f54c 5e3b cbe5 483c f9cd c9bd 83f1 28bc
000002c0: af42 313d c91a 033d b97c d23d 3bcd b1bd
000002d0: 4950 6a3e e796 2e3d 6db8 583e 190e b7be
000002e0: 7444 cbbd 74a4 9d3d 59fc 48bd 1079 05be
000002f0: 0d25 ec3d 0801 a33b ec89 ff3d 4e6b 0d3e
00000300: 5362 47be 44ea 8ebd 49c1 7a3b 6d95 9abd
00000310: f044 4dbe 8c7d 1dbe fa98 edbc 3add 2e3e
00000320: e8be 293e 977e 303e 2cf5 463c 600a 31bc
00000330: c3dd 943d da88 3c3d 4640 7cbd 5f8d e03d
00000340: 7994 4dbe 0087 56be 09f4 31be 5db5 1abe
00000350: 5838 61be 4ed3 6ebe 8110 ba3c 12c7 07bd
00000360: 66cf 1ebe 6e42 ccbd c035 873d bded 2cbe
00000370: 9c90 b43c c440 0fbb 19e2 a33d 205d 043e

enc.lins.0.bias f4 [16]
-0.17462297 0.11540094 0.20181379 0.017206132 0.1361574 -0.10118176 0.053085893 0.07809332
-0.123443216 0.16501176 -0.2526948 -0.10039297 -0.15725324 -0.15865618 -0.16194732 -0.2518378
00000000: 5dd0 32be 5457 ec3d 46a8 4e3e e0f3 8c3c
00000010: d86c 0b3e 6238 cfbd 9870 593d 64ef 9f3d
00000020: cccf fcbd d8f8 283e 3661 81be d49a cdbd
00000030: fe06 21be c476 22be 85d5 25be e2f0 80be

enc.lins.1.weight f4 [3, 16]
0.005486715 -0.1510014 -0.5622784 -0.34991017 -0.27282086 -0.008453408 -0.3094982 0.04659301
0.045929745 0.14983918 0.07053233 0.1952842 0.43175718 0.20744652 0.12264141 0.117535464
-0.6082779 -0.07482146 -0.23867922 -0.2437629 0.028163161 -0.15947224 -0.076859616 0.100333065
-0.30927244 0.2534627 0.117021896 0.5395094 0.18358323 0.14763115 -0.06802203 -0.22896859
-0.04447858 0.07892277 -0.100100674 0.09819549 0.027548013 0.061053112 -0.012008217 0.23643683
-0.242055 0.16411906 -0.010585079 -0.31721428 0.3806753 -0.13955076 -0.08915815 0.13428487
00000000: e7c9 b33b 1ca0 1abe 7af1 0fbf 6d27 b3be
00000010: 2daf 8bbe 2a80 0abc 8c76 9ebe 50d8 3e3d
00000020: d420 3c3d 716f 193e 4173 903d 95f8 473e
00000030: 470f dd3e dc6c 543e 6b2b fb3d 6fb6 f03d
00000040: 1ab8 1bbf fe3b 99bd 5368 74be fb9c 79be
00000050: 6eb6 e63c b14c 23be 9368 9dbd 6c7b cd3d
00000060: f558 9ebe ddc5 813e 2da9 ef3d 4a1d 0a3f
00000070: 3efd 3b3e 9f2c 173e 224f 8bbd be76 6abe
00000080: 2c2f 36bd 43a2 a13d 9501 cdbd b81a c93d
00000090: 5fac e13c d412 7a3d 1dbe 44bc 7f1c 723e
000000a0: 44dd 77be d40e 283e 0a6d 2dbc e969 a2be
000000b0: dfe7 c23e 65e6 0ebe 8c98 b6bd f981 093e

enc.lins.1.bias f4 [3]
0.09134054 0.3111579 -0.09726283
00000000: c010 bb3d 1750 9f3e bc31 c7bd

enc.norms.0.module.weight f4 [16]
1.0971062 0.94276994 1.0696148 1.0181669 0.94713163 0.9570566 0.9460871 0.94473296
0.98851496 0.95622754 0.9397794 1.0748336 1.0377456 0.9451311 0.93475544 0.9587516
00000000: fa6d 8c3f 5f59 713f 23e9 883f 4b53 823f
00000010: 3877 723f a901 753f c432 723f 05da 713f
00000020: 510f 7d3f 54cb 743f 6295 703f 2694 893f
00000030: d9d4 843f 1df4 713f 224c 6f3f bf70 753f

enc.norms.0.module.bias f4 [16]
0.13039835 -0.013862294 0.023631157 0.054416772 0.07767846 -0.0073896013 -0.09815015 0.10892693
0.07305908 0.08406126 -0.026853377 0.20132919 0.18732491 0.10543155 0.051660717 0.050406158
00000000: 2587 053e ad1e 63bc 2196 c13c 1fe4 5e3d
00000010: e215 9f3d 7824 f2bb f202 c9bd 1515 df3d
00000020: 00a0 953d 4f28 ac3d 9dfb dbbc 3d29 4e3e
00000030: 1ad2 3f3e 7fec d73d 309a 533d b076 4e3d

enc.norms.0.module.running_mean f4 [16]
-2.8878284 -20.471478 -4.100651 -5.0806155 -21.112772 5.059662 -24.972084 -15.851235
25.891708 8.529 17.818161 32.117447 -2.6439285 24.528822 14.623808 -7.243352
00000000: 2ed2 38c0 96c5 a3c1 8838 83c0 6794 a2c0
00000010: f5e6 a8c1 c0e8 a140 d4c6 c7c1 a99e 7dc1
00000020: 3822 cf41 c976 0841 988b 8e41 4478 0042
00000030: 2036 29c0 073b c441 1efb 6941 8ac9 e7c0

enc.norms.0.module.running_var f4 [16]
313916.06 674894.75 322510.9 315453.75 477489.78 714178.4 134950.16 472040.56
637516.4 293692.72 116108.516 346948.94 312066.12 229114.75 335936.2 281866.66
00000000: 8247 9948 ecc4 2449 dd79 9d48 b807 9a48
00000010: 3926 e948 265c 2e49 8ac9 0348 127d e648
00000020: c6a4 1b49 9767 8f48 42c6 e247 9e68 a948
00000030: 4460 9848 b0be 5f48 0608 a448 55a1 8948

momentum_buffer f4 [16, 14]
0.100781865 0.17462648 0.0059550954 -0.034298986 0.012962645 -0.013235182 -0.08406031 -0.00393985
0.015329139 -0.08228545 -0.055322934 -0.013374941 0.010199262 -0.05304392 -0.031063529 0.009436347
-0.0011851268 0.0031086144 0.0046879565 0.0032376545 -0.0070662834 -0.0008174689 -0.0005772139 0.0003574516
-0.011108183 -0.0019895518 -0.00061255076 -0.0024290318 0.11124438 0.37215513 -0.0008094888 -0.012017365
0.021242006 -0.002544698 0.001357656 -0.04663224 -0.043193717 0.03180185 0.06111368 -0.07846058
-0.06778898 0.029619783 0.050190695 0.36689073 -0.00713726 -0.00935265 0.005883457 -0.0046083173
0.010775476 -0.03337558 -0.03326426 0.02424454 0.013609268 -0.05024223 -0.040338065 0.028614689
-0.097780965 0.03527512 -0.0037879108 0.000117910095 0.0048311865 -0.0027651507 0.002588147 -0.020460773
-0.019384116 0.018095914 0.0057302327 -0.02353414 -0.020612095 0.016949113 -0.02816087 0.051413145
-0.0008192225 -0.0038171324 -0.003124131 -0.0034777543 -0.003050915 -0.0026413691 -0.0009979171 -0.0075217057
0.0003650221 -0.0026714061 0.0015215827 -0.005321116 0.053115714 0.22782205 -0.01714439 0.019613275
0.007757592 0.0052542062 -0.0013067771 -2.1531945e-05 -0.003910817 -0.0013377969 -0.0020450936 -7.723353e-05
-0.0028353303 0.004619814 0.13580662 0.0495362 -0.0025331737 -0.00084197917 0.0035573798 0.000738406
-0.009457632 -0.0025925934 -0.005910151 0.019694386 -0.008030829 0.0022252477 0.0022219473 0.010982809
-0.05468849 0.069102794 0.0017808806 -0.015218251 -0.0054098163 -0.009764342 -0.023518207 -0.00019819126
0.0090585435 -0.032112498 -0.02093079 0.00072024623 0.0030013393 -0.019419104 0.22498739 0.10664022
-0.0079354625 -0.009726511 -0.006089461 -0.005253179 -0.012715853 0.007875525 0.005602045 0.027027138
-0.024847876 0.017040143 0.014382627 0.010850709 0.1567588 0.08782421 0.005242427 0.0023590336
-0.0042098113 -0.0011037651 0.018965058 0.0058952994 0.003921139 0.005155551 0.011146684 0.007134328
0.0039548036 0.005594423 0.35422647 0.29620224 0.024352849 -0.013642094 -0.0019394802 -0.014629823
0.060888924 0.016573248 -0.002331273 -0.0032266905 0.04667387 0.025626149 -0.014264211 -0.010859877
0.26294518 0.21818186 0.0006910581 2.4433248e-05 -0.002210413 0.0074090976 0.005353081 0.024003463
0.014626101 0.03278482 -0.020638105 0.04621702 0.039199486 0.023908047 0.24378759 0.13371573
0.016049683 -0.011452085 -0.010527557 -0.014659481 0.003030525 -8.1450446e-05 -0.003144146 -0.0010235095
0.009502588 0.014378043 0.003268519 0.009477362 0.005814898 -0.015066821 0.0017566155 -0.00948939
-0.0062394687 -0.003644131 -0.011623289 -0.0005499992 0.004094525 -0.015797008 -0.008360664 0.0016502109
0.0018616683 -0.01157427 -0.052817054 0.119310066 -0.0018767278 -0.008559507 -0.013719169 -0.005081992
-0.030183064 -0.0021812236 0.004066156 -0.017468384 -0.020971106 -0.0034309693 0.013010664 -0.016419245
00000000: b966 ce3d 49d1 323e f622 c33b 187d 0cbd
00000010: 4661 543c 60d8 58bc d027 acbd db19 81bb
00000020: 1227 7b3c 4685 a8bd 4d9a 62bd 9222 5bbc
00000030: ce1a 273c 9544 59bd f178 febc e89a 1a3c
00000040: 4256 9bba e5b9 4b3b 6e9d 993b d42e 543b
00000050: 488c e7bb 694b 56ba 2b50 17ba 5768 bb39
00000060: 19ff 35bc 2463 02bb 9693 20ba 6430 1fbb
00000070: 18d4 e33d 1e8b be3e e033 54ba 7be4 44bc
00000080: b703 ae3c f3c4 26bb 60f3 b13a 7301 3fbd
00000090: e5eb 30bd a842 023d 5752 7a3d f1af a0bd
000000a0: f3d4 8abd 30a5 f23c c294 4d3d 1ad9 bb3e
000000b0: addf e9bb db3b 19bc 04ca c03b 5e01 97bb
000000c0: 9f8b 303c d5b4 08bd 1b40 08bd 7c9c c63c
000000d0: 68f9 5e3c ccca 4dbd 8739 25bd 5a69 ea3c
000000e0: 6341 c8bd a57c 103d 993e 78bb 8046 f738
000000f0: ee4e 9e3b 8837 35bb e79d 293b 5a9d a7bc
00000100: 70cb 9ebc e23d 943c adc4 bb3b abca c0bc
00000110: b2da a8bc ded8 8a3c a0b1 e6bc 9796 523d
00000120: 17c1 56ba db28 7abb 38be 4cbb 09eb 63bb
00000130: dcf1 47bb d21a 2dbb 8bcc 82ba a478 f6bb
00000140: 7060 bf39 c212 2fbb d86f c73a c25c aebb
00000150: dd8f 593d 2f4a 693e 6472 8cbc 05ac a03c
00000160: 6633 fe3b 7a2b ac3b 2a48 abba 809f b4b7
00000170: 5026 80bb 0459 afba fa06 06bb 70f8 a1b8
00000180: f3d0 39bb cf61 973b e410 0b3e 78e6 4a3d
00000190: 9a03 26bb 44b8 5cba ee22 693b 9691 413a
000001a0: 2ff4 1abc 80e8 29bb f1a9 c1bb 1f56 a13c
000001b0: bd93 03bc 76d5 113b 179e 113b 3df1 333c
000001c0: 0a01 60bd c485 8d3d 706c e93a f955 79bc
000001d0: d444 b1bb 9efa 1fbc 41a9 c0bc 90d1 4fb9
000001e0: 496a 143c 6588 03bd 0c77 abbc e8ce 3c3a
000001f0: 1eb2 443b d014 9fbc 1863 663e 3066 da3d
00000200: be03 02bc f25b 1fbc 1a8a c7bb dc22 acbb
00000210: 2756 50bc 5908 013c 5c91 b73b 0468 dd3c
00000220: c68d cbbc c597 8b3c 1ca5 6b3c 2cc7 313c
00000230: 6185 203e 2edd b33d aac8 ab3b 049a 1a3b
00000240: 75f2 89bb 36ac 90ba 9c5c 9b3c 5b2d c13b
00000250: e67c 803b e5ef a83b 95a0 363c 15c7 e93b
00000260: 4c97 813b 6c51 b73b 2c5d b53e d2a7 973e
00000270: a07f c73c 1783 5fbc 2836 feba edb1 6fbc
00000280: aa66 793d 9fc4 873c 45c8 18bb e276 53bb
00000290: 1a2d 3f3d eeed d13c 70b4 69bc a0ed 31bc
000002a0: c0a0 863e 116b 5f3e 2028 353a 00f6 cc37
000002b0: 94dc 10bb 04c8 f23b e668 af3b e9a2 c43c
000002c0: 50a2 6f3c 6049 063d 3e11 a9bc 0f4e 3d3d
000002d0: a48f 203d cfda c33c 74a3 793e c7ec 083e
000002e0: a07a 833c 87a1 3bbc c67b 2cbc 522e 70bc
000002f0: c69b 463b 60d0 aab8 040e 4ebb 4827 86ba
00000300: beb0 1b3c e291 6b3c a634 563b f046 1b3c
00000310: e68a be3b d4da 76bc 3c3e e63a 6379 1bbc
00000320: 7574 ccbb 5fd2 6ebb 9c6f 3ebc d22d 10ba
00000330: 5d2b 863b ba68 81bc 2bfb 08bc e44b d83a
00000340: 3903 f43a 02a2 3dbc b256 58bd d658 f43d
00000350: 89fc f5ba 2d3d 0cbc 5ec6 60bc d786 a6bb
00000360: 7942 f7bc dcf2 0ebb 643d 853b db19 8fbc
00000370: 99cb abbc 1dda 60bb ae2a 553c a781 86bc

momentum_buffer f4 [16]
1.8574246e-11 6.1013347e-12 1.02358825e-11 -1.9778151e-11 -5.8565765e-12 -2.0211656e-12 6.9352564e-13 -2.7114162e-12
-1.986208e-12 3.4954322e-12 1.4920903e-12 7.189739e-13 -6.883728e-12 -5.5302707e-12 -4.1273406e-13 -1.6373371e-11
00000000: 7c61 a32d f0ab d62c 5112 342d 70f8 adad
00000010: 5a0f ceac 153a 0eac ca35 432b 88cc 3eac
00000020: 58c4 0bac 1cf8 752c 38fe d12b 885f 4a2b
00000030: 1c33 f2ac 4094 c2ac 3f59 e8aa 8e05 90ad

momentum_buffer f4 [3, 16]
-0.1307342 -0.010071335 0.13971762 0.07715118 -0.068925835 -0.002185369 -0.056969803 -0.16998759
0.009760674 -0.1934746 0.0776429 0.17970484 -0.25897834 0.107119754 0.003059635 0.022779793
-0.13190152 0.044219863 0.16493693 0.1460295 0.037528988 0.015244089 -0.12866509 0.008825876
0.034467347 0.0064054597 0.261762 0.35424846 -0.06039776 0.25877154 0.03457862 -0.0041074604
-0.16875114 0.09190754 -0.015343912 -0.0017405953 0.08945709 -0.050458264 -0.10619573 -0.05979751
-0.0517062 -0.091270335 -0.20731115 -0.3180988 -0.18182078 -0.19202295 -0.049071584 -0.06794892
00000000: 30df 05be 3e02 25bc 2312 0f3e 7001 9e3d
00000010: fd28 8dbd 6838 0fbb 2b59 69bd 3a11 2ebe
00000020: 3ceb 1f3c 351e 46be 3e03 9f3d 8c04 383e
00000030: cf98 84be 9a61 db3d 2884 483b b09c ba3c
00000040: 3111 07be e31f 353d 3ae5 283e c288 153e
00000050: ffb7 193d 58c2 793c c8c0 03be 689a 103c
00000060: a22d 0d3d e4e4 d13b ab05 863e 0e60 b53e
00000070: a463 77bd b47d 843e 50a2 0d3d e097 86bb
00000080: 19cd 2cbe 053a bc3d 0865 7bbc b024 e4ba
00000090: 4735 b73d 53ad 4ebd 267d d9bd 3cee 74bd
000000a0: e1c9 53bd f1eb babd 6049 54be d9dd a2be
000000b0: 3a2f 3abe aaa1 44be 49ff 48bd ce28 8bbd

momentum_buffer f4 [3]
-0.05716487 0.1392498 -0.16927046
00000000: b625 6abd 8097 0e3e 3c55 2dbe

momentum_buffer f4 [16]
0.0762123 0.005884114 -0.10663598 -0.056978792 0.022145828 -0.0059630126 0.03618149 -0.019243162
0.002239272 -0.040699683 0.04147339 0.28261083 -0.17272845 0.08660468 0.0020347591 -0.0023524296
00000000: 3215 9c3d 87cf c03b f763 dabd 9862 69bd
00000010: 2b6b b53c 6065 c3bb 0b33 143d d6a3 9dbc
00000020: c0c0 123b b6b4 26bd 00e0 293d 5eb2 903e
00000030: badf 30be cb5d b13d 9859 053b 382b 1abb

momentum_buffer f4 [16]
0.026138168 0.005884024 -0.0986775 -0.08728091 0.017388532 -0.028930858 0.055368226 -0.027480412
0.0012416085 -0.04077418 0.02506853 0.116027735 -0.0687051 0.05092 0.009606385 -0.0644998
00000000: b61f d63c c5ce c03b 6e17 cabd 55c0 b2bd
00000010: 6572 8e3c 6800 edbc cbc9 623d 9a1e e1bc
00000020: 78bd a23a d402 27bd 855c cd3c f39f ed3d
00000030: 42b5 8cbd 7d91 503d 1964 1d3c 7918 84bd
