examples/toy_examples/outputs/last_model_20231127-123834.pth (torch, 8370 bytes, 14 tensors)

enc.lins.0.weight f4 [16, 14]
00000000: 1373 e1be e197 1d3e 7301 b43d ff81 8bbd
00000010: 4b15 97ba 8534 dcbb d4d7 24be db64 b2bc
00000020: 1c2a aebc 4624 193d 9db0 d3bd ac9d 7c3d
00000030: 2680 353e ce4b 353d 3153 593e 6692 933e
00000040: 26de 913d 95ae 2e3e fe77 e03d a9a1 743e
00000050: acb1 53be c667 733d c448 3bbd 2631 a2bc
00000060: 7a36 7bbd 8081 e63d d13b 4f3e dcf9 1dbe
00000070: 9369 e13e aa5f 0abe 7cc1 a23b 24f0 49bb
00000080: b619 d63b c176 a33a dec9 faba 661e 8dbd
00000090: 4f6f 183d 6438 cd3d 8939 9c3d d628 db3c
000000a0: f4be 283d 2e28 ecbd 7ecd d13e 5892 c6bd
000000b0: d770 213d c42c 6c3c f5d9 b23d 49aa 57be
000000c0: 364f a9bd 8a3d 2abe b031 463e 01d9 28be
000000d0: bd26 8c3d e7dc 92be 8aca 93bc 337a 023e
000000e0: 1a0f fc3d 02fb 8f3e 1886 c2bc 1b64 a6bd
000000f0: 29d6 1cbd cdb6 f43d 60f6 eb3c 581f 533e
00000100: 2f52 43be 44bf f43d 09ef 2f3e fa20 e53d
00000110: dd71 22bc b99c 093e 3c49 a0be 3f83 53be
00000120: c92a 29bd 1bad 1cbd 10f6 203e fcd4 403e
00000130: e572 1c3e dfb3 dfbd f422 4ebe d180 7fbe
00000140: 8400 ac3d 6030 68be 59fd 84be 72ed f1bd
00000150: 0aa0 80be ec86 4e3d 424f 41be 4939 21be
00000160: 4253 923e 6d95 a3bc 2417 433e 4ed8 df3c
00000170: df86 b6bc 8fd9 dabd 1868 72be 19d8 55be
00000180: c8e2 3e3e 91f6 9dbd a7d9 39be 2977 eb3e
00000190: 8735 8b3d 6f8e a2bd 0fa7 4bbe 223a 54be
000001a0: 781c 49be 3254 683e 720f 333e 8700 b63c
000001b0: 0d28 25be 9336 7cbd da58 78be b393 0f3e
000001c0: aa72 8cbe 41cc 5fbe 08c2 9abd 2fe3 293e
000001d0: 9966 a73d d835 913c 0f81 85bd e8e0 be3c
000001e0: 9fe6 c33c 8157 adbd 4285 363e c00b 91bd
000001f0: fc93 3b3e 5128 e2bd 29a7 38be 5b13 c33e
00000200: 75ed dcbd ca35 7c3e 640f 1abe 8b6e 633b
00000210: 0ac5 42bd 0598 dc3d 770c 643e 475d 5b3d
00000220: 03ec 793d e1a4 0fbe 6019 a83d 279e 9ebd
00000230: 34d9 f33d dc6d 6cbe 5b96 4f3e 95c0 543e
00000240: 802a 363e a2a3 bcbb 7ffc dc3d 47ca 7cbe
00000250: 8757 5a3e 3710 96bd 414e a13d 156e 16bd
00000260: 2661 abbd ddb4 c2bd 2504 c03e b727 e5be
00000270: 1d32 db3d b731 723e 782a 8e3c c47b 42be
00000280: 13ba 3fbe 47c4 08be 1ce5 883e 6b36 32be
00000290: c7b3 d23d ea10 613e 13c5 4ebd acf0 37bc
000002a0: a5d7 c1be 5521 de3e ad45 793d 5484 193e
000002b0: bb44 5e3b 04e5 483c fccd c9bd 96f1 28bc
000002c0: c042 313d 991a 033d 867c d23d 4ccd b1bd
000002d0: 4950 6a3e 3697 2e3d b3b8 583e 0e0e b7be
000002e0: 7244 cbbd 74a4 9d3d 5efc 48bd 1079 05be
000002f0: 1a25 ec3d ae00 a33b eb89 ff3d 4e6b 0d3e
00000300: 5362 47be 45ea 8ebd 15c1 7a3b 5695 9abd
00000310: f044 4dbe 8c7d 1dbe d998 edbc 3add 2e3e
00000320: e8be 293e 977e 303e 33f5 463c 630a 31bc
00000330: c3dd 943d db88 3c3d 3240 7cbd 5f8d e03d
00000340: 7994 4dbe 0087 56be 1df4 31be 56b5 1abe
00000350: 5838 61be 4ed3 6ebe 6410 ba3c 0cc7 07bd
00000360: 66cf 1ebe 6e42 ccbd c035 873d bded 2cbe
00000370: d590 b43c 7c40 0fbb 19e2 a33d 205d 043e
-0.44033107 0.15389968 0.08789339 -0.06811904 -0.0011526732 -0.006720128 -0.16097957 -0.021776607
-0.021260314 0.03738811 -0.10336421 0.061673805 0.17724666 0.044261746 0.21223141 0.2882263
0.071224496 0.17058785 0.10960387 0.23889793 -0.20673245 0.059425138 -0.04572369 -0.019798826
-0.06133125 0.11255169 0.20237662 -0.15427345 0.4402586 -0.13513055 0.004966913 -0.00308133
0.0065338267 0.0012471305 -0.0019133647 -0.06890564 0.037215527 0.10020521 0.076281615 0.02675287
0.041197732 -0.11531101 0.4097709 -0.096958816 0.039414253 0.01441497 0.08732978 -0.21061052
-0.082670614 -0.16625038 0.19354892 -0.1648903 0.06843326 -0.2868416 -0.018040914 0.12741928
0.12307568 0.2812119 -0.023745582 -0.08124562 -0.038290177 0.11948929 0.028804004 0.20617425
-0.1907432 0.119505435 0.17181028 0.111879304 -0.009914842 0.13438691 -0.31305873 -0.20655535
-0.04130057 -0.038251024 0.15718865 0.18831247 0.15278204 -0.109229796 -0.20130521 -0.24951483
0.08398536 -0.22674704 -0.2597454 -0.11812867 -0.251221 0.05042164 -0.1887789 -0.15744509
0.28579146 -0.019968713 0.19051796 0.027324822 -0.022281108 -0.10686027 -0.23672521 -0.20883216
0.18641198 -0.077130444 -0.18149434 0.4598935 0.06797319 -0.07937323 -0.19887947 -0.20725301
-0.19639766 0.22688368 0.1748636 0.022217048 -0.1612856 -0.061575484 -0.24252644 0.14021187
-0.27431232 -0.2185526 -0.0755654 0.1659057 0.08173866 0.01772587 -0.065187566 0.023300603
0.02391368 -0.08463956 0.17824271 -0.07082319 0.1831817 -0.11042846 -0.18032517 0.38100705
-0.10787479 0.24629894 -0.15044934 0.003470334 -0.047551192 0.10771183 0.2227038 0.053555753
0.061016094 -0.1402774 0.08207965 -0.07745009 0.119066626 -0.23088783 0.202722 0.20776589
0.1778965 -0.0057568112 0.10790347 -0.24686538 0.21322452 -0.073273115 0.07876254 -0.036726076
-0.08368139 -0.09507153 0.37503162 -0.44756863 0.10702918 0.23651777 0.017354235 -0.18992525
-0.18723325 -0.13356124 0.26737297 -0.17403571 0.10288196 0.21979108 -0.050480913 -0.011226814
-0.37859836 0.43384805 0.060857464 0.14991885 0.0033915478 0.012261633 -0.098537415 -0.010311505
0.04327655 0.032007787 0.10277657 -0.086817354 0.22882189 0.042624675 0.21164207 -0.3575291
-0.09925164 0.076973826 -0.0490688 -0.13034463 0.11530514 0.0049744463 0.12477478 0.13810465
-0.19471101 -0.06978277 0.0038262059 -0.07548015 -0.20045829 -0.15379924 -0.029003548 0.17076579
0.16576731 0.1723579 0.012143421 -0.010805699 0.0726886 0.046028953 -0.06158466 0.109644644
-0.20076169 -0.20949936 -0.17378278 -0.15108237 -0.2199415 -0.23322794 0.022712894 -0.03314881
-0.15508804 -0.09973608 0.06602049 -0.16887565 0.022041718 -0.0021858504 0.08002109 0.1292615

enc.lins.0.bias f4 [16]
00000000: 5dd0 32be 5457 ec3d 46a8 4e3e e0f3 8c3c
00000010: d86c 0b3e 6238 cfbd 9870 593d 64ef 9f3d
00000020: cccf fcbd d8f8 283e 3661 81be d49a cdbd
00000030: fe06 21be c476 22be 85d5 25be e2f0 80be
-0.17462297 0.11540094 0.20181379 0.017206132 0.1361574 -0.10118176 0.053085893 0.07809332
-0.123443216 0.16501176 -0.2526948 -0.10039297 -0.15725324 -0.15865618 -0.16194732 -0.2518378

enc.lins.1.weight f4 [3, 16]
00000000: d0ce b33b 24a0 1abe 7df1 0fbf 7227 b3be
00000010: 29af 8bbe b981 0abc 9276 9ebe 02d9 3e3d
00000020: 9020 3c3d b06f 193e 5673 903d a3f8 473e
00000030: 7d0f dd3e ea6c 543e 382b fb3d 42b6 f03d
00000040: 17b8 1bbf 683c 99bd 5d68 74be f89c 79be
00000050: d8b4 e63c 8d4c 23be 6168 9dbd 367b cd3d
00000060: da58 9ebe d9c5 813e a2a9 ef3d 601d 0a3f
00000070: 2dfd 3b3e 022d 173e c84e 8bbd 8176 6abe
00000080: df2d 36bd 55a2 a13d 0002 cdbd 7a1a c93d
00000090: a1ac e13c d113 7a3d f6b9 44bc b51c 723e
000000a0: 00dd 77be 070f 283e ab6d 2dbc 0c6a a2be
000000b0: f4e7 c23e 81e6 0ebe 0498 b6bd 3482 093e
0.0054873005 -0.15100151 -0.56227857 -0.34991032 -0.27282074 -0.00845378 -0.30949837 0.046593674
0.04592949 0.14984012 0.070532486 0.19528441 0.4317588 0.20744672 0.12264103 0.11753513
-0.60827774 -0.07482225 -0.23867936 -0.24376285 0.028162405 -0.1594717 -0.07685924 0.10033266
-0.30927163 0.25346258 0.11702277 0.5395107 0.18358298 0.14763263 -0.06802136 -0.22896768
-0.04447734 0.078922905 -0.10010147 0.09819503 0.027548136 0.061054055 -0.012007227 0.23643763
-0.24205399 0.16411982 -0.010585229 -0.31721532 0.3806759 -0.13955118 -0.089157134 0.13428575

enc.lins.1.bias f4 [3]
00000000: 4711 bb3d 3450 9f3e 5931 c7bd
0.09134155 0.31115878 -0.09726209

enc.norms.0.module.weight f4 [16]
00000000: fa6d 8c3f 5f59 713f 23e9 883f 4b53 823f
00000010: 3877 723f a901 753f c432 723f 05da 713f
00000020: 510f 7d3f 54cb 743f 6295 703f 2694 893f
00000030: d9d4 843f 1df4 713f 224c 6f3f bf70 753f
1.0971062 0.94276994 1.0696148 1.0181669 0.94713163 0.9570566 0.9460871 0.94473296
0.98851496 0.95622754 0.9397794 1.0748336 1.0377456 0.9451311 0.93475544 0.9587516

enc.norms.0.module.bias f4 [16]
00000000: 1e87 053e 921e 63bc 4396 c13c 13e4 5e3d
00000010: e515 9f3d f024 f2bb 1b03 c9bd 3e15 df3d
00000020: db9f 953d 7f28 ac3d 4efb dbbc 8c29 4e3e
00000030: 64d2 3f3e adec d73d 319a 533d d276 4e3d
0.13039824 -0.013862269 0.02363122 0.054416727 0.07767848 -0.007389657 -0.098150454 0.108927235
0.07305881 0.084061615 -0.02685323 0.20133036 0.18732601 0.10543189 0.05166072 0.050406285

enc.norms.0.module.running_mean f4 [16]
00000000: 2165 68c1 fb80 9a41 e11d ff40 3708 7740
00000010: 5213 89bf cd81 85c1 b056 fac1 83b6 c93f
00000020: 82ed 0c40 660b e441 4a6c 1541 76e3 b241
00000030: 4f41 e540 1386 1941 e810 b43f 947e cfc1
-14.52469 19.312979 7.9723973 3.8598764 -1.0709021 -16.68838 -31.292328 1.5758823
2.2019963 28.505566 9.338938 22.361065 7.1642222 9.595233 1.4067659 -25.936806

enc.norms.0.module.running_var f4 [16]
00000000: aac1 9548 f823 2249 fc41 9a48 ca82 9848
00000010: 6e50 e748 b609 2c49 1be4 ff47 789e e648
00000020: 0b61 1b49 d952 8f48 2106 df47 2539 a848
00000030: f062 9848 ad7b 5c48 3916 a448 52e3 8548
306701.3 664127.5 315919.88 312342.3 473731.44 704667.4 131016.21 472307.75
636432.7 293526.78 114188.26 344521.16 312087.5 225774.7 336049.78 274202.56

momentum_buffer f4 [16, 14]
00000000: b440 acbc d2a0 f9bd 5e16 11bc 8772 0a3c
00000010: 8023 763c cca8 e03c 891c 90bb 8aae ae3c
00000020: d0df c53c 5650 6d3d 232a 17bc 3785 a23c
00000030: 6015 743c 61e0 c83d b480 94bb 4acb 163c
00000040: b36d 443b 1cfe f33a cf8f d93b 7514 7bbb
00000050: 380c e5ba a760 c3bb 0dbb 9fbb 6037 39b8
00000060: f1a7 b93b 0d74 e1bb 0513 c2bb 0229 bcb9
00000070: 778a 333c 6a83 533d 509a 5d3a 08fb 17bb
00000080: ea37 7d3d 6bf6 93bc 3a04 83bc bd6c 8dbc
00000090: cde0 58bc f97a 05bd f14c 1b3d 72e8 c4bc
000000a0: 5a74 bdbc 104b d5bc 10fe bebc 76f5 a7bc
000000b0: 5c66 16bb a437 e83b d880 bc3c 62c2 e63b
000000c0: 500f 593b 2a18 13bc 2a0f 62bb 3a22 31bd
000000d0: 8efa 433c 279d 66bc faac f0bb d864 35bd
000000e0: 32da d2bb a459 e23c 22af 9e3b e2db 663b
000000f0: c4fb 883c 65d2 88bb 70ce 0738 ef0f 00bc
00000100: dc15 aebb b796 abbc d365 e33b c60a 21bc
00000110: 5e24 1bbc 62d9 99bc 0991 3b3c 5246 68bb
00000120: 0a3e df39 00bc b93b 7cf4 7c3b eb44 ed3b
00000130: 5c15 fd3a 60d3 8bb9 e46b b9ba 12b5 203b
00000140: ba56 4b3b f7c4 2bbb c67f 26bb e699 5b3b
00000150: 2dc4 033c 52c1 203e eef7 e6bb 000d 933b
00000160: fea5 7e3c 4122 c9bc e70f c639 60ca d239
00000170: ac98 c4ba b8fd f93c c3b8 bd3c 041c 07bb
00000180: 2a15 f0bb ada4 c83c c4bd df3c 6294 a33c
00000190: 2189 21bb d724 acbb c393 9b3b 623d 48bc
000001a0: ab05 2e3b 6374 113b 419c 823b cbb6 8bbb
000001b0: 78c1 4d3c 68e7 df3b b2f2 003c 2d03 86bc
000001c0: 5563 103d b469 95bd 55b4 23bc 68d0 1cbc
000001d0: fcef 183b 88b0 af3b 960d 343b 746e f63b
000001e0: 3111 583c 0bde 943c af33 c1bb 5514 513b
000001f0: 7796 943b 6867 163d c794 bcbc ea43 89bc
00000200: dce4 0bbb 7142 23bc dfba 633b 5edc 5ebc
00000210: 6403 2d3c 0af6 1d3c 5736 263c a899 acbb
00000220: cb96 8a3c 506e 743c a523 693c 8e7e febc
00000230: bc57 2dbd 2556 98bc be37 c83b 22c4 dabb
00000240: 7638 22bb c0cb 573a c298 70ba 66fb 29bb
00000250: 000a 2e38 2280 80bc c15a 72bc 0cbc fd3a
00000260: b39c 473b a4cf 42bc c959 81be 6695 6ebe
00000270: 1c53 cf3c a54d 4abd 5a52 9abc 4c3c d0bc
00000280: 4ff6 303c da7e bfbc 5a9c f7bb 3c75 38bc
00000290: acef 49bd d4c0 a5bb 9ff0 a1bb c074 703c
000002a0: b951 97bd 190d 8abd a6a8 41bc 1834 843c
000002b0: 02bf 533c e93e c93c b73c f43b c2f9 6c3c
000002c0: 38bf 743c e059 90bd c6be 8a3c 1991 013d
000002d0: dafb 023d 34a5 dcbd b41a dcbd a634 69bd
000002e0: 2ebc c33b a47f fdbc d647 4d3b e839 45bb
000002f0: d22c 813b 3027 54bb 32af 7e3b 9c02 b03a
00000300: 4748 bebc 407e 17ba 30d0 1639 0f2a ed3b
00000310: b1f9 6c3c b181 e6bc b8c4 a3bb 4897 09bc
00000320: 7604 a13b 6bf2 f73b 52c0 063b 2bc5 5c3b
00000330: 7add da3b fa8a 203b 1d71 68bb 8202 653a
00000340: 4aa6 273b a6e0 4e3c 49e2 b53c b86f eebc
00000350: af45 18bc d3eb 4f3c c7f8 153c a8ea bf3c
00000360: f171 51bb fb6b c93b 5a17 913b 6947 6bbb
00000370: bcb8 493b 5ea0 193b 0ad1 693b 5498 baba
-0.021026947 -0.12188877 -0.00885543 0.008450157 0.015023112 0.027424239 -0.004397933 0.021323461
0.024154574 0.057937942 -0.009226355 0.019838912 0.014897674 0.09808422 -0.004531944 0.009203741
0.0029972612 0.0018615159 0.006639458 -0.0038311754 -0.0017474955 -0.0059624496 -0.004874593 -4.415901e-05
0.005665772 -0.0068802894 -0.0059226775 -0.00035888707 0.010958306 0.051638998 0.00084534753 -0.0023190398
0.061820902 -0.018061837 -0.015993226 -0.017263765 -0.01323719 -0.03258798 0.037915174 -0.02403662
-0.02312677 -0.02603677 -0.023314506 -0.020502787 -0.0022949195 0.007086711 0.023010656 0.007042215
0.00331207 -0.008977929 -0.0034493902 -0.04324553 0.011961592 -0.014075554 -0.007344839 -0.044285625
-0.0064347023 0.027630635 0.004842655 0.0035226275 0.016721614 -0.0041754716 3.2378768e-05 -0.007816299
-0.0053126644 -0.02094589 0.0069396286 -0.009829229 -0.00946912 -0.018780414 0.011448153 -0.0035442305
0.00042580097 0.0056681633 0.0038597872 0.0072408817 0.0019308734 -0.00026669633 -0.0014146534 0.0024521989
0.0031027035 -0.002620993 -0.0025405749 0.0033508479 0.008042377 0.15698746 -0.0070485985 0.0044876337
0.015542505 -0.024552466 0.0003777735 0.00040205102 -0.0014999113 0.03051649 0.02315939 -0.0020616064
-0.0073267417 0.024492586 0.027312167 0.019968215 -0.0024648386 -0.005253415 0.004747839 -0.012221666
0.0026553671 0.0022194616 0.003985912 -0.004263734 0.012558334 0.0068330057 0.007870363 -0.016358936
0.03525098 -0.07295552 -0.009991725 -0.009571172 0.0023336401 0.0053616203 0.0027473918 0.0075204913
0.0131876925 0.018172285 -0.0058960537 0.0031902988 0.0045345384 0.03671971 -0.023020161 -0.016756017
-0.0021346128 -0.009964571 0.0034748835 -0.013602344 0.01055989 0.00964118 0.010144792 -0.0052673407
0.016917607 0.014918879 0.01422969 -0.031066205 -0.04232 -0.018595764 0.0061101606 -0.006676213
-0.0024752892 0.000823196 -0.0009178036 -0.0025937199 4.1494146e-05 -0.015686098 -0.014792145 0.001935841
0.003045839 -0.011890326 -0.25263813 -0.23299178 0.025308184 -0.049390454 -0.018838096 -0.025419377
0.010800912 -0.023375917 -0.0075564804 -0.01125842 -0.049300835 -0.0050583873 -0.0049420143 0.014676273
-0.07388634 -0.067407794 -0.011819994 0.016138121 0.012923958 0.02456613 0.007453527 0.014463844
0.014938168 -0.07048392 0.016936671 0.031632517 0.031978466 -0.107736975 -0.10747281 -0.056934975
0.0059733605 -0.030944653 0.0031323335 -0.003009433 0.0039421106 -0.003237199 0.0038861749 0.0013428512
-0.023227824 -0.00057790056 0.0001438267 0.00723768 0.014463828 -0.028138014 -0.004997816 -0.008397885
0.004913862 0.0075667403 0.002056141 0.0033686857 0.006679234 0.00244969 -0.0035467811 0.00087360304
0.0025581294 0.012626803 0.022202628 -0.029106006 -0.009293958 0.012690502 0.009153551 0.023427323
-0.0031958784 0.0061469055 0.0044278326 -0.0035900718 0.0030780276 0.0023441534 0.0035677576 -0.0014236071

momentum_buffer f4 [16]
00000000: 623f d02d 3ef7 beac 505a acad e826 3aac
00000010: 32e8 092d 355e 012d 7f75 24ac b0c4 13ad
00000020: 7206 b6ad d269 2b2b d265 baab a51e 3aae
00000030: 1e05 d7ac 122f 0e2d 16f2 b02c e268 55ac
2.367501e-11 -5.427574e-12 -1.9594243e-11 -2.6453787e-12 7.839106e-12 7.353719e-12 -2.3371025e-12 -8.399656e-12
-2.0693867e-11 6.089826e-13 -1.3244356e-12 -4.231872e-11 -6.1112356e-12 8.082217e-12 5.029098e-12 -3.0327342e-12

momentum_buffer f4 [3, 16]
00000000: d44d e1bd 9ec7 fabd e569 02be f1c9 23be
00000010: 73a4 09be 29f0 213d 5456 22bc bc6c 1cbe
00000020: d4dd e03c d4a3 0ebe 3657 6a3d 00f2 1c3d
00000030: da45 21be 3e27 733d b073 0a3d ecc7 053d
00000040: 402a 393d 75be 31bd ef6d c8bd c246 b1bd
00000050: 21b8 11bd ac41 a83c aab2 1d3d c0e0 7dba
00000060: 8049 6e3c b290 efbc 58cf 99bd 66ae 07be
00000070: 20bd 3c3b 5434 e6bd a05c e73b b039 833b
00000080: 3051 90bd 29a3 cb3d 2a06 cf3d fd56 c83d
00000090: 507c ae3d fcbd 8fbd 743a 86bd 572e 5b3d
000000a0: f720 c3bd 00bf aa3d d0ab 6ebd 7d42 79bd
000000b0: 5569 873d f7fa 0bbe 4c5c 94bd 14a9 13be
-0.11001173 -0.12245105 -0.12735708 -0.15995003 -0.13441639 0.039535675 -0.009908278 -0.15275854
0.027449526 -0.13929683 0.057212077 0.038316727 -0.15749303 0.059363596 0.033801734 0.032661363
0.04520631 -0.043394525 -0.09786593 -0.08656074 -0.03557599 0.020539127 0.038500465 -0.00096846744
0.014543891 -0.0292438 -0.07510251 -0.13250121 0.002879925 -0.112404495 0.0070606023 0.0040046796
-0.07046735 0.0994323 0.101085976 0.09782217 0.085198045 -0.070186585 -0.06554118 0.05351099
-0.09527772 0.083372116 -0.058269322 -0.060854424 0.06611887 -0.13669954 -0.07244167 -0.14419967

momentum_buffer f4 [3]
00000000: 8642 15be ea87 5ebd a0a0 9dba
-0.14576158 -0.054328837 -0.0012026019

momentum_buffer f4 [16]
00000000: d4d8 adbc 1e63 023d 8ded a03d 2440 ac3d
00000010: c8a0 1b3d 56e4 08bc a33e a33b 7224 c23b
00000020: ea2f a03c ccba 61bc 64ba 9abb a501 f7bc
00000030: cb6f 0cbd bcf2 883c 2c78 353c 7385 82bc
-0.021221556 0.031832807 0.07857809 0.08410671 0.03799513 -0.008355221 0.004981832 0.005924755
0.019554097 -0.013777446 -0.0047219265 -0.030152151 -0.0342863 0.016717307 0.0110760145 -0.015932774

momentum_buffer f4 [16]
00000000: 7cbc 53bc fff5 fb3c 62ee 0a3d 3f7a 9c3c
00000010: c01e d63c 5644 61bc ab5d 1f3d 3098 c0ba
00000020: 7844 de3b 2012 8bbc 5ca2 37bc a40c 7abd
00000030: e2ef 12bd 66e7 1bbc 568c 91bb 5093 bdbc
-0.012923356 0.030756949 0.033918746 0.01910126 0.02613771 -0.013749203 0.038907688 -0.0014693793
0.0067830645 -0.016976416 -0.011208143 -0.06104721 -0.0358733 -0.009515619 -0.004441778 -0.023141533
