examples/toy_examples/outputs/last_model_20231127-114307.pth (torch, 9955 bytes, 20 tensors)

inner_products.O_mat.0.weight f4 [2, 2]
000000 aa db 91 3f 4e 44 da bd 63 c3 80 3d 63 7e 8c 3f
       1.1395161 -0.10657559 0.06287267 1.097607

inner_products.O_mat.1.weight f4 [2, 2]
000000 e3 50 0a 3f 3c ba 2e be ba c1 12 be 31 8f 18 3f
       0.54029673 -0.1706323 -0.14331713 0.5959349

inner_products.O_mat.2.weight f4 [2, 2]
000000 40 2c 26 3f 2b 87 67 be fe 92 32 3d 0e 48 ca 3e
       0.6491127 -0.22610156 0.043597214 0.39508098

enc.lins.0.weight f4 [32, 3]
000000 64 6a 16 bf 48 f7 ae 3d 88 54 8b bd 0b eb 90 bd
       -0.5875609 0.08543259 -0.068032324 -0.07076081
000010 ab 25 74 3e 34 3c ec be b5 a3 a3 be e1 e3 91 3e
       0.23842494 -0.4613968 -0.31960836 0.2849417
000020 a9 cf 17 bf c1 3f 1f 3f 5c 18 cf bd 8a 44 ff bc
       -0.5930124 0.62206656 -0.10112068 -0.031160612
000030 6c 29 92 3e 00 ef 38 3e 4b 50 9a be 45 86 91 3d
       0.28547227 0.18059921 -0.30139384 0.07105688
000040 e7 d3 60 3e b7 0e 03 3f d7 93 e2 be 47 5b a3 be
       0.21955834 0.5119433 -0.44253418 -0.31905577
000050 f3 11 bb 3d cb 28 86 bc 92 98 d9 be 9e 16 f5 be
       0.09134283 -0.016376873 -0.42499214 -0.47868818
000060 98 77 02 bf d2 4b d8 be d2 14 66 be 62 7c 08 bf
       -0.50963736 -0.42245346 -0.2246888 -0.53314793
000070 80 bf bd be 9c 8f be 3d 54 5a f9 3e 59 fe 8f bc
       -0.37060165 0.09304735 0.48701727 -0.017577337
000080 af cb 47 3c 29 1e a6 3d 66 00 af 3e 5d 64 b8 be
       0.012194558 0.08111221 0.3417999 -0.3601407
000090 9f f3 82 3d 3a 33 06 3f 3e 3b e3 3e 9b 8c 10 bf
       0.06394123 0.52421916 0.44381136 -0.56464547
0000a0 ed 02 ef bd 20 80 a1 3d 87 b2 91 bb c4 65 ee be
       -0.1167048 0.07885766 -0.004446331 -0.46562016
0000b0 11 1e bf be d6 36 08 3f f8 6e 26 3d a5 63 70 bd
       -0.37327626 0.53208673 0.04063317 -0.05868878
0000c0 ae c2 9c 3d bc 28 d0 be f2 fb ec 39 ac f8 a1 3e
       0.0765432 -0.40656078 0.00045201142 0.31635034
0000d0 69 e0 b6 be e8 ea 3f 3e 84 70 de 3a 98 40 ad 3e
       -0.35718086 0.18741953 0.0016970788 0.33838344
0000e0 03 39 bd 3e 67 9d 0e 3e f4 72 65 bc ab d0 02 bf
       0.3695756 0.13927232 -0.014004458 -0.5109965
0000f0 4d ff d6 3e db 49 1c 3e 66 ac 5b be 2e e1 0d bf
       0.41991654 0.15262549 -0.21452484 -0.5542172
000100 f5 29 fb 3e 9f 48 11 be a0 6e 9b bc 9c 62 9f be
       0.49055448 -0.14187859 -0.018973649 -0.3112992
000110 a1 d1 a1 3e 2a f1 11 3f 00 eb b2 3e c3 95 46 be
       0.31605247 0.5700861 0.34944916 -0.19393067
000120 0c e6 00 3f 1f ec 8a 3d fe 32 87 3d fc e7 e1 be
       0.50351024 0.06783318 0.06601523 -0.44122303
000130 4f 6c 7e be ab 0c 17 bf 6c 96 03 3f c9 9b fa 3e
       -0.24846004 -0.59003705 0.514014 0.4894698
000140 65 b1 98 3e 24 12 91 3e 1e ca a8 3d 1d 2b 07 3f
       0.2982284 0.28334153 0.08241676 0.5280016
000150 db d5 9e be 86 53 1f be 01 f3 05 bf 05 39 78 be
       -0.31022534 -0.15559205 -0.5232392 -0.24240501
000160 18 e8 90 be 38 2e 0c 3e 93 c0 b9 be 95 ba e1 bd
       -0.28302073 0.13689506 -0.36279735 -0.11021916
000170 91 ca 00 bf 70 69 db be 24 4e e8 3d aa 41 17 bf
       -0.5030909 -0.4285388 0.11343029 -0.5908457

enc.lins.0.bias f4 [32]
000000 e8 6c 1d 3e 9a 27 08 bf 3d b0 cd be a9 58 f5 bd
       0.15373576 -0.5318543 -0.40173522 -0.11979801
000010 5c 0b 0d bf 24 bd ee 3e 58 34 f2 3e f6 66 9a be
       -0.5509546 0.46628678 0.4730556 -0.30156678
000020 28 b1 f7 3d 28 39 97 3e 9f de 3b 3e 20 64 9e bd
       0.12094337 0.29535794 0.18346642 -0.07733941
000030 7f 68 0b bf d6 f1 d6 3e e9 a2 01 bf 02 fc da bd
       -0.54456323 0.4198138 -0.50639206 -0.10692598
000040 a6 b1 12 3d 8e b5 42 be 94 3c 58 be 32 7b ff be
       0.03581395 -0.1901457 -0.21116859 -0.49898678
000050 fe 4c 02 3d d8 41 86 bd 96 da 00 3f 42 a3 42 be
       0.031811707 -0.065555274 0.50333536 -0.1900759
000060 ec 79 e4 3e e0 e6 df 3c 2f cf 84 be 96 99 0c be
       0.4462427 0.02733177 -0.2593932 -0.13730463
000070 80 2e 86 bd 18 f7 c3 3b 40 ce c2 bd 48 74 2f 3e
       -0.06551838 0.0059803836 -0.09511995 0.17134202

enc.lins.1.weight f4 [3, 32]
000000 4a ac 92 3e f5 f7 36 3e c2 40 50 3e 0a a6 93 3e
       0.2864707 0.17868026 0.20337203 0.28837615
000010 45 8b d2 bd d9 df 16 3e b5 95 fd bd 6f 98 50 3e
       -0.1028047 0.14733829 -0.1238207 0.20370649
000020 5e 70 71 be 01 bf 6d bb d4 1f 01 3e fb f7 9d 3d
       -0.23578021 -0.0036277177 0.12609798 0.07713314
000030 93 ed 5c 3c 87 67 c4 bc 90 46 60 3e 68 de 3b bd
       0.0134843765 -0.023975147 0.21901917 -0.0458664
000040 81 17 6f 3e b3 20 76 3e a6 4f 03 3e 97 cf 04 bd
       0.2334881 0.24035911 0.12823352 -0.032424536
000050 a8 8b f0 3c 53 a8 08 3e 5a 90 e6 3a 24 19 fb bd
       0.029363468 0.1334546 0.0017590628 -0.122606546
000060 cf 12 91 3d 0d 7f 3a 3d 19 96 88 bd cd 18 3f 3d
       0.070836656 0.04553132 -0.06669254 0.04665451
000070 be 07 6e 3d 84 e2 87 be e7 2b 1a 3d e8 bf 18 3e
       0.058112852 -0.26540005 0.037639525 0.14916956
000080 14 fc 81 be 4e 15 66 bd 2a a2 a5 3d e7 3b ee be
       -0.25387633 -0.05617266 0.08087571 -0.46530077
000090 bb a8 db bd 71 7d ad ba 57 5e 2c 3e 23 2c df bd
       -0.10725542 -0.0013236237 0.16832863 -0.1089709
0000a0 a7 2e a0 bc 3a 6b c2 be 5e bc a3 be b0 d9 ce 3d
       -0.019553496 -0.37972432 -0.3197965 0.10100114
0000b0 96 0a 05 3d 80 e5 2a 3e a3 d4 6e 3c 73 73 0d bf
       0.0324808 0.1668911 0.014577064 -0.55254287
0000c0 36 75 63 3d b5 2a 42 3d 54 fb 12 bd ae be 15 3e
       0.055531703 0.04740401 -0.035884216 0.1462352
0000d0 6d e7 04 be d7 78 bb 3c 17 a2 38 bb 07 7f c3 bc
       -0.12978907 0.02288477 -0.0028172785 -0.023864282
0000e0 c6 3c 62 be 13 df 66 3a 66 36 64 bd f3 ba b1 3c
       -0.22093496 0.00088070444 -0.05571594 0.02169559
0000f0 5c 86 8c bd 61 af 23 be 99 3b da 3d 32 b2 a2 3d
       -0.068615645 -0.1598487 0.106558986 0.07944144
000100 3f 88 55 3e 72 75 06 3d b9 e9 ea bd 87 e4 0e be
       0.20852755 0.03282685 -0.1147036 -0.13954364
000110 ac 19 d4 3d 04 bd 40 3d 98 78 63 3c 5c 96 36 3d
       0.10356459 0.04705526 0.013883732 0.044576988
000120 21 56 19 bd 3b 42 09 3e 9a 73 ba bd 44 bd dc 3d
       -0.037435655 0.13404171 -0.091040805 0.10778287
000130 b6 38 b1 3e 6e de e0 3d 12 9a a1 3e 1c ed 08 3d
       0.3461358 0.10979925 0.3156286 0.03342925
000140 20 31 b0 3d 7d f1 df bd 01 e3 9a 3d 98 b7 34 be
       0.0860312 -0.10934732 0.07562829 -0.1764816
000150 60 0b 03 3e e5 b5 1a bd ec e3 e6 3d 63 57 04 3e
       0.12797308 -0.037771124 0.112739414 0.1292396
000160 f8 a3 2c bd 3d 48 99 bd 8e e7 c8 bd dc 76 2e bd
       -0.04214856 -0.074844815 -0.098097906 -0.042593822
000170 22 93 d4 bd 95 4e bb 3e ed 8f f3 3d ae 07 25 bc
       -0.10379626 0.3658339 0.11892686 -0.010072632

enc.lins.1.bias f4 [3]
000000 9e 4b 03 bf 81 e2 65 3f a8 7e ba be
       -0.5128726 0.8979874 -0.36424756

enc.norms.0.module.weight f4 [32]
000000 2c f2 7d 3f 6e 71 7a 3f d7 65 75 3f 15 6f 7d 3f
       0.9919765 0.9782933 0.9585852 0.9899762
000010 8c 55 76 3f 8d d5 6e 3f 77 be 67 3f 3c c1 79 3f
       0.96224284 0.932946 0.90525 0.9756048
000020 c0 f2 73 3f d7 a2 7d 3f 6c d3 7a 3f 27 57 78 3f
       0.9529228 0.990766 0.97978854 0.97007984
000030 88 1f 7a 3f 42 b0 65 3f c1 43 82 3f db 7a 83 3f
       0.9770436 0.89722073 1.0176927 1.0271868
000040 29 83 7b 3f cd 6b 79 3f be 92 70 3f 21 75 77 3f
       0.9824701 0.97430116 0.9397391 0.966631
000050 cf 0f 71 3f bf bf 73 3f 64 94 6d 3f 35 f1 72 3f
       0.94164747 0.95214456 0.9280455 0.948993
000060 b0 c0 78 3f 4d b5 74 3f 2a 7f 6f 3f 98 4c 6c 3f
       0.9716902 0.95589143 0.9355341 0.9230437
000070 9e 66 76 3f 40 05 83 3f a0 dc 71 3f 08 f3 72 3f
       0.9625033 1.0235977 0.9447727 0.94902086

enc.norms.0.module.bias f4 [32]
000000 b1 14 91 be 08 0b dc 3a 73 22 cb 3d c1 6c c4 3e
       -0.283361 0.0016787956 0.0991868 0.38364223
000010 50 1f f5 bb 5e 44 ea bc 2a bb 62 3e bb 0c 90 bd
       -0.0074805394 -0.028597053 0.2214171 -0.07033678
000020 81 f3 bc 3d bc de 90 be 8a 25 3b 3e 41 e4 49 bc
       0.09226132 -0.28294933 0.18276039 -0.012322486
000030 d0 d0 c3 3d 64 66 80 3e 0c fe 05 be 4d 45 98 3e
       0.09561312 0.25078118 -0.13085192 0.29740372
000040 fd de 23 be 3b 27 00 bd 85 1f 32 3d 68 65 05 3e
       -0.16003032 -0.031287413 0.04348709 0.13026965
000050 d2 bf 88 3d e7 aa b0 3c 5d be c8 3d 91 83 a4 bc
       0.06677212 0.021565868 0.09801934 -0.020082267
000060 34 d8 95 3d 6a 57 94 3c 1f 10 5e 3c d7 e8 ef bc
       0.07316628 0.018108089 0.013553648 -0.029285831
000070 af 08 66 bd 2b 9b e9 3d 0f 53 f1 3d f1 f3 b3 3d
       -0.056160625 0.11406549 0.1178342 0.087867625

enc.norms.0.module.running_mean f4 [32]
000000 75 75 b3 be 64 7d 19 bf 56 4f 2f bf 88 04 d3 3e
       -0.3505055 -0.59956956 -0.6848043 0.41214395
000010 2e 28 9f be 90 9a 09 3f d8 32 c0 3d 95 1d a7 be
       -0.31085342 0.5375147 0.09384698 -0.32639757
000020 b5 da a4 be 91 8a 25 be 9c d4 19 3f 8c 20 4d bc
       -0.3219811 -0.1616614 0.6009004 -0.012519967
000030 98 42 f5 be 34 6b 81 bd 6c f2 04 bf ca 42 b2 3e
       -0.4790237 -0.063192755 -0.51932406 0.3481658
000040 82 5c cb 3d 14 da a8 3d b3 24 4e be c4 1c c7 be
       0.09929754 0.0824472 -0.20131187 -0.38889134
000050 27 f0 c6 3e d0 5c 0a bf 3c 79 fb 3e e6 ea 97 3e
       0.38855097 -0.5404787 0.49115932 0.296714
000060 92 13 61 3f de a9 b9 be 64 73 41 3e 00 52 ec 3d
       0.87920487 -0.3626241 0.18891674 0.11539078
000070 a0 df ae be 41 76 4d be 2e c7 d4 be 90 d6 52 be
       -0.34154987 -0.20064642 -0.41558212 -0.20589662

enc.norms.0.module.running_var f4 [32]
000000 bb 99 fc 3b 9f 48 d9 3b e0 c7 58 3c a2 3e 08 3c
       0.007708756 0.0066309716 0.013231248 0.008315714
000010 37 17 8d 3b 59 f3 0d 3c 90 f6 d9 3b 1e b5 34 3c
       0.004305746 0.008663976 0.006651707 0.01102951
000020 62 fa 47 3c 35 c1 19 3c f8 db a5 3b ea cb b8 3b
       0.012205692 0.009384443 0.0050616227 0.005639543
000030 fe 8c 50 3c 97 b5 e8 3b 54 d6 19 3c ea 30 c5 3b
       0.012728928 0.0071017253 0.009389479 0.006017794
000040 48 3f 81 3b 72 f8 bf 3b 31 4b dc 3b bf 71 e1 3b
       0.0039443113 0.0058584744 0.0067228307 0.0068800147
000050 07 bc a4 3b 3e 8e 4a 3c 7b a3 91 3b 90 a7 27 3c
       0.0050272974 0.012363015 0.004444537 0.010232821
000060 08 c6 be 3b 41 6a 87 3c 20 63 78 3c f9 73 23 3c
       0.005821947 0.016530158 0.015160352 0.0099763805
000070 cf 95 31 3c 55 7f 5e 3b 00 1b 30 3c 77 5c 66 3c
       0.01083894 0.0033950408 0.010748625 0.014060131

momentum_buffer f4 [2, 2]
000000 10 c0 70 3e 8a a8 a1 3d 32 20 0d be d2 08 ce bd
       0.23510766 0.078934744 -0.13781813 -0.10060276

momentum_buffer f4 [2, 2]
000000 16 68 ab 3c 98 67 80 bc 20 22 97 3c c9 17 f8 3d
       0.020923655 -0.015674397 0.01844889 0.12113912

momentum_buffer f4 [2, 2]
000000 ee 08 59 3d 42 8e 87 3d 28 66 03 3d e2 1e e6 3d
       0.05298703 0.066189304 0.032079846 0.11236359

momentum_buffer f4 [32, 3]
000000 b9 fb 2c bc 26 91 b5 bd 66 df ac bc ce 9e 82 bd
       -0.010558062 -0.088655755 -0.021102618 -0.06377946
000010 10 ee 4d bd 90 e3 83 bc d2 ef f5 bc 73 bf 04 bd
       -0.050275862 -0.016099721 -0.030021582 -0.032409143
000020 20 0d 2a 3a af 4f 82 3c 12 e5 a8 3d 3e a5 54 3d
       0.0006486941 0.015907137 0.08246817 0.0519154
000030 85 35 1b bd e4 19 52 3d 57 e6 aa bb e0 08 6a 3c
       -0.037892837 0.051294222 -0.005215447 0.0142843425
000040 f0 05 c6 ba cc b9 b3 ba 76 96 23 3c 54 d5 98 bc
       -0.0015107971 -0.0013711988 0.009984603 -0.01865641
000050 61 1e 8f bc b1 57 29 bd 22 5e b4 bc 7f 2e ab 3c
       -0.01747054 -0.041343395 -0.022017542 0.020896195
000060 08 c2 14 3a 00 2c 6d 3c aa 39 e8 bc 5e b1 af 3c
       0.0005674665 0.014475822 -0.028347809 0.02144688
000070 82 11 7e bc 5c 88 7c 3d e6 05 a4 3b 40 04 4d 3e
       -0.015507104 0.06165348 0.005005586 0.20021152
000080 67 88 ac 3d 7f 47 4c 3c 5e 62 27 bc d0 fb e0 bb
       0.08424454 0.012468218 -0.010216324 -0.006865956
000090 b7 38 c8 3d 0a 8a 4f bc e0 00 51 3a 32 bf 3c 3b
       0.097764425 -0.012667188 0.00079728477 0.0028800485
0000a0 cd 16 57 bd 66 2f 6c bd 93 5f 82 bd 96 43 4f bd
       -0.05251198 -0.05766239 -0.063658856 -0.050601564
0000b0 b8 4c 82 3d fe 3a 70 3b 73 85 7f 3e 1b 2c 53 3e
       0.06362289 0.0036656256 0.2495325 0.20622294
0000c0 3c 7b 92 bd 1c ff 60 bc a6 ba ee bc c8 da 65 3c
       -0.07152411 -0.013732698 -0.029141735 0.014029212
0000d0 84 a6 25 bb b3 6b ec bc 4a f3 98 3c e9 31 4a bc
       -0.0025276253 -0.028859949 0.018670697 -0.012341001
0000e0 1e 6f 36 3c 18 ac 84 3b 2a 73 e9 3c f0 82 ad 39
       0.011134891 0.0040488355 0.028497297 0.00033094687
0000f0 1f 07 84 3b d2 d5 96 3c f9 13 ac 3c 78 84 be bc
       0.004029169 0.018412504 0.021005617 -0.023256525
000100 f5 8b a6 bc 10 2b a9 3c a2 d8 26 bc 91 cc 1a bd
       -0.020330409 0.020650417 -0.010183485 -0.037792746
000110 09 1d 1a bd e6 1b e3 bb f4 c7 b8 3b c5 97 27 bc
       -0.037625346 -0.006930816 0.0056390706 -0.010229056
000120 ea e1 73 bc 70 94 c3 3d 34 54 7d 3c a1 5c 86 bb
       -0.014885405 0.095497966 0.01546197 -0.0041003977
000130 79 7e bb 3b ce 53 2b 3a 60 23 64 bc e5 b3 9f 3c
       0.005721864 0.000653562 -0.01392445 0.01949496
000140 b2 9f 02 bc 4b 2d 40 ba 70 fa 03 3c 3c 21 63 ba
       -0.007972645 -0.0007330968 0.008055314 -0.0008664315
000150 40 4e 81 bc 00 50 bc 3c fe d4 23 3b 0d ca 09 3e
       -0.015784383 0.022987366 0.002499878 0.13455983
000160 4a 24 c9 bd c0 47 12 3d f0 9a af 39 56 e8 55 bd
       -0.09821375 0.035712957 0.00033494039 -0.052223526
000170 2e ec 37 3c a4 f4 65 bc c2 e0 6e bd d5 7d 82 ba
       0.011225743 -0.014035378 -0.058319815 -0.0009955714

momentum_buffer f4 [32]
000000 ba 7c 3c b4 ca f1 85 33 80 18 36 b2 9c 79 9f b4
       -1.755424e-07 6.237276e-08 -1.0599365e-08 -2.970454e-07
000010 e0 58 9a 31 a0 cb ac b2 cf fc a9 b3 21 00 95 33
       4.492094e-09 -2.0116033e-08 -7.9156614e-08 6.9383766e-08
000020 c8 d7 28 b2 cc d3 5f b4 2c e4 b0 32 20 93 b6 33
       -9.82795e-09 -2.0845545e-07 2.0592857e-08 8.501797e-08
000030 1a b2 b5 b3 a8 81 8f 33 36 57 5c b4 28 22 cc 32
       -8.460866e-08 6.682541e-08 -2.0520824e-07 2.3764258e-08
000040 be 94 3f 33 7b 49 9e b2 88 1e 50 32 fe e3 4f 32
       4.4605933e-08 -1.8427036e-08 1.21141355e-08 1.2100825e-08
000050 d6 64 85 b3 5e 92 e1 b2 50 e8 f5 b3 69 1a af b2
       -6.211637e-08 -2.6260008e-08 -1.1450959e-07 -2.0384691e-08
000060 42 c7 da b2 64 e4 1a 31 a8 4e 6d b2 b8 e0 86 b0
       -2.5469152e-08 2.2539774e-09 -1.38131e-08 -9.813652e-10
000070 95 36 b9 32 56 87 a0 34 bc da 95 b2 64 ee 11 32
       2.1561656e-08 2.9900792e-07 -1.7445352e-08 8.494315e-09

momentum_buffer f4 [3, 32]
000000 6a ea 59 3d 5c fc 20 be b8 eb eb bd da e2 75 bd
       0.05320207 -0.15721267 -0.11519569 -0.060030796
000010 e9 d9 e6 bd 51 0a 67 bd a4 43 1d 3e 7e fe 54 3d
       -0.11272032 -0.056406323 0.15357834 0.052000515
000020 cb b8 0b 3e 87 bd 13 3e 91 5b 57 bd 64 7d 37 be
       0.13644712 0.14427768 -0.05257756 -0.17918926
000030 e8 ff ad bd e5 b1 d5 3d 60 93 86 3d 3f 49 83 bd
       -0.08496076 0.10434321 0.06571078 -0.06410455
000040 00 e4 11 ba 14 d7 44 bd 85 3e 81 bd 8f 6b b8 bd
       -0.00055652857 -0.048056677 -0.06310753 -0.0900489
000050 f4 b2 9b bd ea 4a 9d bd e4 a5 e2 3a 48 e1 8d bd
       -0.07602492 -0.07680304 0.0017291871 -0.069277346
000060 a4 12 2e bd 80 57 50 3d f2 e6 69 bd 1e 9e 33 bd
       -0.042498246 0.050864697 -0.057105012 -0.043851964
000070 15 da c4 3c cf a9 1c 3e c2 43 9d 3c 06 fa 39 bd
       0.02402977 0.15299152 0.019197349 -0.045404457
000080 07 8b 01 be ca aa ba bd 85 15 04 be f2 5d db 3d
       -0.12650691 -0.09114607 -0.12898834 0.10711278
000090 0c 40 cb bc e6 90 01 be eb e8 db bd a6 2f 19 3d
       -0.024810813 -0.1265293 -0.10737785 0.037398957
0000a0 d1 d3 86 bd e6 e0 e9 bd eb 8d 70 3d 66 c6 47 bd
       -0.065833695 -0.11419849 0.058729094 -0.048773192
0000b0 15 ff b9 bd f8 e2 eb bd 5b b5 63 3d c4 2e 6f 3d
       -0.09081856 -0.115179 0.055592876 0.05839421
0000c0 0c 0d 97 3d 88 b2 d7 3c cd e5 d7 bd f2 1e bc 3c
       0.07375535 0.026330248 -0.10541878 0.022963975
0000d0 d0 c5 db bb 95 b2 29 be ad 1d 1d bd 1a 3e 74 bd
       -0.0067069307 -0.1657203 -0.03835838 -0.059629537
0000e0 c0 bd f8 3b be f4 95 bd 35 b0 86 bd 20 1e 9a bd
       0.0075909793 -0.073220715 -0.065765776 -0.07525277
0000f0 78 ad 99 bd 62 1b f3 bd 6c 69 a4 bd cc d4 ee bd
       -0.0750379 -0.11870457 -0.0802792 -0.116616815
000100 54 f1 14 3d e0 01 f1 bc 00 89 97 b9 21 31 fc 3d
       0.03636296 -0.02941984 -0.00028903037 0.12314058
000110 28 4b 06 bd 58 10 3a bd 29 2e e9 3d 4b 8f 01 3e
       -0.03278652 -0.045425743 0.113857575 0.12652318
000120 e0 2a 06 3e 4c af 04 3e 26 67 b1 3d ae 46 2a bd
       0.13102293 0.12957495 0.08662252 -0.04157131
000130 f5 26 8d bd c4 fd 93 3c 35 22 1d 3e 4a 1f 4e 3d
       -0.06892196 0.01806534 0.1534508 0.05032281
000140 1e e9 3e 3e f4 ee 58 3e b9 6a 9f bd 12 b4 54 3d
       0.18643615 0.21184903 -0.077840276 0.05192954
000150 1e 83 a0 bc 2b 95 09 bd b0 4f 21 3e 4a d6 03 bd
       -0.019593772 -0.033589523 0.15753055 -0.032186784
000160 34 8c 4d 3d f8 6e 9b 3d 30 99 0a bb 8a f1 10 3d
       0.050182536 0.07589525 -0.0021148436 0.0353866
000170 b8 f3 60 3d e3 1b 26 3e cc 9c 6d 3d c2 e5 da 3c
       0.05491993 0.16221575 0.05801086 0.026720885

momentum_buffer f4 [3]
000000 c0 29 a4 bd ce 7e 9d 3d 90 87 ad 3b
       -0.08015776 0.07690202 0.0052957013

momentum_buffer f4 [32]
000000 a1 aa 3c 3d a8 c8 c7 bc 8c 75 02 bd 63 0f 47 bd
       0.046061162 -0.024387673 -0.031850383 -0.04859866
000010 9a 26 3a 3c 72 a7 36 bc 97 dc 26 bd da 0d 6a 3c
       0.011361742 -0.0111483205 -0.040737715 0.014285529
000020 5c a1 15 bd a8 c1 70 3d 55 38 f2 bc d8 ec c2 bc
       -0.036530837 0.058778435 -0.029567877 -0.023794577
000030 8a 7d d9 bc 3f b8 af bc 4a 7f 87 3d 14 00 2b bc
       -0.02654912 -0.02145016 0.06616075 -0.01043703
000040 c4 8b c8 3c cf 28 0b bd a5 68 1d bc e8 f9 20 bb
       0.024480708 -0.033974465 -0.009607469 -0.0024563018
000050 24 86 34 bb 88 28 58 bc 88 d7 a0 3c 2e de d0 3b
       -0.0027545774 -0.013193257 0.019634023 0.006374142
000060 80 53 bc bb 6c dd 64 bb 94 91 04 3c dd 4c b6 bb
       -0.0057472587 -0.0034922017 0.008091349 -0.005563362
000070 b0 56 1a 3a 86 e3 1d 3d 60 c5 ef ba 44 f0 80 bc
       0.0005887551 0.03854706 -0.0018293075 -0.015739568

momentum_buffer f4 [32]
000000 1e 2f 06 bd 0c 3e c2 bc 4a 89 06 bd 6e 2f c1 bd
       -0.03275978 -0.023711227 -0.032845773 -0.094328746
000010 e5 f0 b7 3b 78 86 c4 bb 20 be d1 3b d7 01 cd 3c
       0.0056134337 -0.0059974752 0.0064008385 0.025025291
000020 b9 ab 27 bc c0 0b e9 bb 4b ab c0 bc 74 ca ef 3b
       -0.010233813 -0.0071119964 -0.023519179 0.0073178355
000030 6c 99 a8 bc fc 51 e9 ba 1c d5 e5 3c 4c 82 68 bd
       -0.02058097 -0.0017800923 0.02805572 -0.056764886
000040 88 b7 cd 3c da 4a 2e 3c e9 1d d3 bc 55 6e 76 bb
       0.025111929 0.010637963 -0.025771098 -0.0037602384
000050 20 e3 97 bc 9a 9b ed bb 88 31 46 bb 97 5f 4c 3c
       -0.018540919 -0.007251215 -0.0030241925 0.012473962
000060 fc 56 85 bc b4 df 87 bb aa 18 2a 3c f5 03 29 3a
       -0.016276829 -0.0041465405 0.010381857 0.0006447428
000070 37 68 a9 bb 5f b5 70 bc b8 e5 e1 3b f4 a5 7a bc
       -0.005169894 -0.01469168 0.0068938397 -0.015298355
