examples/toy_examples/outputs/last_model_20231127-112433.pth (torch, 8757 bytes, 14 tensors)

enc.lins.0.weight f4 [32, 6]
-0.30641547 0.27951738 0.30290276 0.3256978 -0.20025982 -0.11411711 -0.34079275 -0.28190786
-0.05264539 -0.079693735 0.29726243 0.31158578 0.37228912 -0.16267915 -0.3447024 -0.37009647
0.13913915 -0.316337 -0.405122 -0.18361335 -0.3470399 -0.16416912 -0.27263427 -0.21050514
0.36760995 -0.1074362 0.35397592 0.10880746 -0.09010843 -0.13867806 -0.28999326 -0.3332794
0.27688667 -0.12874258 -0.3965495 0.3764666 -0.103674635 -0.2675244 -0.28176647 -0.3368619
-0.4051899 0.3583099 0.33698344 -0.09854902 -0.3525754 -0.11055951 -0.36728373 0.15135945
-0.16502692 -0.12917805 -0.06207284 0.23159236 0.18254195 0.03957678 -0.25355 0.057214502
-0.06253634 -0.33397347 0.37955448 -0.10666978 0.2785711 -0.3600891 0.10934922 0.1744138
-0.3827603 0.10387907 -0.39740673 0.12642398 -0.13813575 0.1628447 0.35724026 0.098786555
-0.042407274 -0.18944812 0.1646246 -0.19113107 0.21090534 -0.14800374 0.2996589 0.3122846
0.2503003 0.013360797 0.17116249 -0.36551315 0.2966616 -0.34270346 0.1845052 0.018706545
-0.15817064 -0.15578516 0.25193667 -0.23821682 -0.050827533 0.21405983 0.036281686 -0.3587995
-0.44029164 -0.1276908 0.36819765 -0.29540265 0.21468616 0.29711506 -0.20076199 -0.16023421
-0.29221782 0.05203458 -0.06600809 0.013498126 0.16629471 0.19789258 -0.11198084 0.07940875
0.07639101 -0.005783653 0.080474146 -0.26314145 0.36776167 0.03893121 -0.09911715 -0.36719537
-0.36126485 0.10242443 -0.05369279 -0.18914911 0.1900795 -0.014247854 0.13153793 0.34985536
-0.18626706 -0.2016399 -0.07835737 -0.037483003 -0.27347478 -0.06941127 -0.0060854824 0.19121194
0.3468527 0.29133794 0.018210916 0.19850676 0.1386811 0.06193902 -0.11534311 0.10531366
-0.33121678 -0.3489082 0.01753588 -0.11059405 -0.20220317 -0.3832307 0.3540245 -0.09958099
-0.20048608 -0.1435623 0.14371091 -0.3092055 0.22519125 -0.03041536 0.14342389 0.1554275
-0.2578206 0.16973782 0.3384507 -0.13175645 0.18566886 -0.1388819 0.060888954 0.13863096
-0.17011955 0.31251022 -0.3280414 -0.11247323 -0.26430517 -0.29501307 -0.23509565 -0.38862744
0.10072807 -0.052608453 -0.34830046 -0.0043625315 -0.26011908 0.3728868 -0.24527438 -0.02900723
0.030606428 0.07767421 -0.08999347 0.3024837 0.40873438 -0.10951524 0.26135293 0.29862005
00000000: 7de2 9cbe e71c 8f3e 1216 9b3e ddc1 a63e
00000010: e910 4dbe 3bb6 e9bd 637c aebe 3a56 90be
00000020: b1a2 57bd 7836 a3bd c832 983e 2c88 9f3e
00000030: ae9c be3e 5d95 26be d57c b0be 497d bdbe
00000040: 7e7a 0e3e ecf6 a1be 276c cfbe 2305 3cbe
00000050: 37af b1be f31b 28be b896 8bbe a98e 57be
00000060: 5f37 bc3e 8307 dcbd 553c b53e 72d6 de3d
00000070: c58a b8bd 9f01 0ebe ff79 94be 99a3 aabe
00000080: 17c4 8d3e 18d5 03be 8908 cbbe 3bc0 c03e
00000090: 5e53 d4bd f5f8 88be b243 90be 2a79 acbe
000000a0: 0d75 cfbe 6574 b73e 1889 ac3e 12d4 c9bd
000000b0: c384 b4be 066d e2bd 9d0c bcbe f9fd 1a3e
000000c0: d1fc 28be 4047 04be 1740 7ebd 8c26 6d3e
000000d0: 47ec 3a3e 431b 223d 4ed1 81be c159 6a3d
000000e0: 0d13 80bd 92fe aabe f754 c23e b075 dabd
000000f0: dfa0 8e3e 995d b8be 7cf2 df3d 8899 323e
00000100: 28f9 c3be 8dbe d43d e578 cbbe 4a75 013e
00000110: 7573 0dbe c3c0 263e 32e8 b63e 9b50 ca3d
00000120: 40b3 2dbd b0fe 41be 5a93 283e ddb7 43be
00000130: 92f7 573e 4b8e 17be e46c 993e c4e3 9f3e
00000140: 5c27 803e 3fe7 5a3c 3845 2f3e 8a24 bbbe
00000150: 07e4 973e d476 afbe eeee 3c3e 783e 993c
00000160: 7cf7 21be 2586 1fbe d8fd 803e 1cef 73be
00000170: 8830 50bd 8032 5b3e 1b9c 143d 91b4 b7be
00000180: e86d e1be 61c1 02be 6784 bc3e 043f 97be
00000190: b0d6 5b3e 771f 983e 8d94 4dbe 7014 24be
000001a0: 939d 95be 3622 553d 402f 87bd 3e27 5d3c
000001b0: 2949 2a3e 5aa4 4a3e 3656 e5bd 0ea1 a23d
000001c0: e472 9c3d cc84 bdbb a1cf a43d 7aba 86be
000001d0: 424b bc3e 5576 1f3d effd cabd 0801 bcbe
000001e0: b5f7 b8be e6c3 d13d f9ec 5bbd 4eb0 41be
000001f0: 33a4 423e d56f 69bc e1b1 063e 3e20 b33e
00000200: cbbc 3ebe b17a 4ebe d479 a0bd c787 19bd
00000210: e304 8cbe 7f27 8ebd ba68 c7bb 10cd 433e
00000220: ad96 b13e 3f2a 953e 0f2f 953c 5b45 4b3e
00000230: 6b02 0e3e c5b3 7d3d 0239 ecbd b0ae d73d
00000240: 3f95 a9be 18a4 b2be 68a7 8f3c 227f e2bd
00000250: 590e 4fbe d036 c4be b342 b53e 1ef1 cbbd
00000260: 394c 4dbe ff01 13be f428 133e 2f50 9ebe
00000270: 8998 663e a229 f9bc b6dd 123e 6328 1f3e
00000280: 1001 84be c0cf 2d3e 6949 ad3e 2aeb 06be
00000290: fa1f 3e3e 0f37 0ebe b266 793d 46f5 0d3e
000002a0: d233 2ebe 5701 a03e 0bf5 a7be 5d58 e6bd
000002b0: 0253 87be f40b 97be eabc 70be 2dfa c6be
000002c0: 854a ce3d f67b 57bd 7054 b2be 91f3 8ebb
000002d0: 542e 85be 05eb be3e 3529 7bbe 92a0 edbc
000002e0: 55ba fa3c a813 9f3d 7f4e b8bd 25df 9a3e
000002f0: a245 d13e 8749 e0bd 0dd0 853e bae4 983e

enc.lins.0.bias f4 [32]
-0.36114308 0.098752916 0.23125201 -0.06368148 0.22531158 0.013886094 0.31079257 0.008790209
-0.2613697 0.31003946 0.12141478 0.34732515 0.10134494 0.21678275 0.25454748 0.06874359
-0.0949038 0.08431736 -0.28465113 0.013947069 -0.13121691 0.025811225 -0.32323414 0.24944901
-0.376655 0.17482883 0.26885617 -0.3741579 0.3688565 -0.30348527 -0.08016625 0.2115534
00000000: bfe7 b8be f83e ca3d 54cd 6c3e 706b 82bd
00000010: 14b8 663e 8082 633c 3420 9f3e cf04 103c
00000020: 40d2 85be 7ebd 9e3e 50a8 f83d 9ad4 b13e
00000030: f08d cf3d 4cfc 5d3e 0c54 823e 70c9 8c3d
00000040: ec5c c2bd 94ae ac3d cbbd 91be 3f82 643c
00000050: ba5d 06be 1072 d33c f27e a5be 906f 7f3e
00000060: edd8 c0be 5406 333e 84a7 893e a091 bfbe
00000070: c2da bc3e 6c62 9bbe 342e a4bd 74a1 583e

enc.lins.1.weight f4 [3, 32]
-0.05034785 0.1620398 0.06916013 0.11829315 -0.06003639 0.016095404 0.21221255 0.1339384
-0.015955133 0.11160718 -0.32669625 0.30505282 -0.08278946 -0.07078532 -0.2754129 -0.13146704
0.14927961 0.15298496 -0.006067746 -0.10494629 0.29271606 0.006292089 0.05546181 -0.1061361
0.014247452 0.2332857 -0.017991455 0.08187968 -0.039740663 0.049545284 -0.090401225 0.06920685
-0.4875217 0.19554405 0.17772092 -0.0182646 0.14943208 -0.016471844 -0.019247046 0.25377735
-0.10593437 0.16600527 -0.21463889 0.19646834 0.11888737 0.12461118 -0.032739725 0.0066853883
0.054901503 0.11741849 0.1231993 -0.28257373 0.11518803 -0.027190926 -0.032912295 0.18840744
-0.08515219 0.12096477 0.13640368 0.25917867 -0.038816933 -0.09733378 -0.15744168 -0.08792938
0.13114712 -0.03574679 -0.18448141 0.09125691 0.24240044 0.04776213 0.015078367 -0.1462506
-0.16174217 0.08807546 -0.17609666 0.0700307 -0.11861328 0.051811695 -0.14931032 -0.060237847
-0.068137154 -0.07567257 0.179403 -0.03358483 -0.13486356 0.015810186 -0.02290994 0.20010096
-0.07619647 0.029703343 0.018465865 -0.14930072 0.116397664 -0.20041806 0.110262066 0.053891413
00000000: 8c39 4ebd c3ed 253e d4a3 8d3d ae43 f23d
00000010: b8e8 75bd 82da 833c 3f4e 593e 2627 093e
00000020: 57b4 82bc 4e92 e43d bb44 a7be e22f 9c3e
00000030: 858d a9bd e5f7 90bd eb02 8dbe 4c9f 06be
00000040: c1dc 183e 17a8 1c3e f1d3 c6bb 15ee d6bd
00000050: e1de 953e de2d ce3b ec2b 633d e25d d9bd
00000060: 256e 693c 72e2 6e3e d162 93bc 89b0 a73d
00000070: 1bc7 22bd ffef 4a3d 4724 b9bd 52bc 8d3d
00000080: 729c f9be b33c 483e 79fc 353e a49f 95bc
00000090: b904 193e f6ef 86bc fbab 9dbc 1bef 813e
000000a0: 1ef4 d8bd 49fd 293e 4cca 5bbe ff2e 493e
000000b0: 397b f33d 2534 ff3d 171a 06bd 1a11 db3b
000000c0: 66e0 603d 1b79 f03d ea4f fc3d 81ad 90be
000000d0: b4e7 eb3d 81bf debc 0bcf 06bd e1ed 403e
000000e0: 4564 aebd 61bc f73d 68ad 0b3e 11b3 843e
000000f0: 81fe 1ebd ef56 c7bd 6438 21be 5214 b4bd
00000100: 6e4b 063e 3a6b 12bd b2e8 3cbe e7e4 ba3d
00000110: d237 783e 39a2 433d 410b 773c b8c2 15be
00000120: bd9f 25be e860 b43d af52 34be 416c 8f3d
00000130: 85eb f2bd 8038 543d cee4 18be f6bb 76bd
00000140: 7e8b 8bbd 38fa 9abd 6cb5 373e 3f90 09bd
00000150: ac19 0abe 5d84 813c a0ad bbbc 44e7 4c3e
00000160: e50c 9cbd 6d54 f33c ba45 973c 4ae2 18be
00000170: e661 ee3d 643a 4dbe 14d1 e13d 3ebd 5c3d

enc.lins.1.bias f4 [3]
-0.33322158 -0.30802518 0.13328011
00000000: 059c aabe 7ab5 9dbe 957a 083e

enc.norms.0.module.weight f4 [32]
1.0513097 0.96174943 0.971394 0.963706 0.9616808 0.9492095 0.95685196 0.99292135
0.9636973 0.9783066 0.9892392 0.999895 0.9620049 0.9538383 0.9722181 0.93910277
0.9639335 0.9632387 0.9686757 0.9768043 0.9935725 0.95588464 0.95199543 0.97960407
0.958305 0.9726346 0.9634413 0.99044377 0.9497725 0.96799564 0.9476517 0.93317026
00000000: 5191 863f 3635 763f 47ad 783f 70b5 763f
00000010: b730 763f 65ff 723f 40f4 743f 1830 7e3f
00000020: deb4 763f 4d72 7a3f c83e 7d3f 1ef9 7f3f
00000030: f445 763f bf2e 743f 49e3 783f 0a69 703f
00000040: 59c4 763f d096 763f 21fb 773f d90f 7a3f
00000050: c45a 7e3f dbb4 743f f9b5 733f 55c7 7a3f
00000060: 7a53 753f 95fe 783f 17a4 763f b98d 7d3f
00000070: 4a24 733f 90ce 773f 4d99 723f 3fe4 6e3f

enc.norms.0.module.bias f4 [32]
0.118062355 -0.10045245 -0.0004281515 -0.0656294 0.13508594 -0.057363153 0.00840443 -0.04914509
0.03160418 -0.07653454 0.12779564 -0.13106737 -0.056610744 -0.012198592 0.10467636 -0.0071627214
-0.050065223 -0.052773874 -0.0027678676 0.030606663 0.059536725 -0.04693313 -0.038727544 0.041210674
-0.0060578724 -0.042628475 -0.025051828 -0.045022864 0.02561795 0.035487846 0.07630601 -0.0072372416
00000000: adca f13d 04ba cdbd 8679 e0b9 b568 86bd
00000010: f853 0a3e a0f5 6abd bcb2 093c 5d4c 49bd
00000020: 6273 013d 24be 9cbd dcdc 023e 8636 06be
00000030: abe0 67bd 9adc 47bc 8f60 d63d 43b5 eabb
00000040: 3111 4dbd 6b29 58bd 1d65 35bb d3ba fa3c
00000050: c8dc 733d f43c 40bd c6a0 1ebd 86cc 283d
00000060: 1e81 c6bb 329b 2ebd 7e39 cdbc e569 38bd
00000070: bcdc d13c b45b 113d 5346 9c3d 6226 edbb

enc.norms.0.module.running_mean f4 [32]
-0.3405399 0.08419856 0.21084026 -0.06313414 0.23316875 0.018862301 0.30835894 0.017299991
-0.2569713 0.2815582 0.14193217 0.34286553 0.08457248 0.21238111 0.2602151 0.07779513
-0.11795506 0.088829115 -0.28232774 0.017614195 -0.14693403 0.020366965 -0.32628375 0.25620735
-0.37701336 0.16457176 0.2848062 -0.38236734 0.372991 -0.29620308 -0.08189079 0.19730802
00000000: 3f5b aebe 4b70 ac3d 82e6 573e 794c 81bd
00000010: cac3 6e3e 1d85 9a3c 39e1 9d3e b6b8 8d3c
00000020: be91 83be 6528 903e ab56 113e 128c af3e
00000030: 5634 ad3d 6f7a 593e ea3a 853e 0e53 9f3d
00000040: 6c92 f1bd 0aec b53d 438d 90be a54b 903c
00000050: e075 16be 9fd8 a63c aa0e a7be 9c2d 833e
00000060: e507 c1be 8085 283e 1ed2 913e a7c5 c3be
00000070: adf8 be3e eea7 97be 5cb6 a7bd 1d0b 4a3e

enc.norms.0.module.running_var f4 [32]
0.037770193 0.24110559 0.058258 0.21038851 0.056166053 0.24582462 0.09796274 0.053705353
0.055206023 0.034142304 0.055977397 0.066093735 0.041606113 0.23616853 0.048368797 0.026187941
0.20079587 0.08022428 0.0830166 0.041546024 0.055227548 0.1609988 0.07881001 0.03605264
0.2877893 0.056633323 0.028245375 0.042126715 0.050856438 0.25134408 0.05766238 0.056431785
00000000: ebb4 1a3d 62e4 763e f19f 6e3d 1670 573e
00000010: 600e 663d 73b9 7b3e b0a0 c83d 25fa 5b3d
00000020: b61f 623d cdd8 0b3d 8e48 653d 275c 873d
00000030: 2c6b 2a3d 2ad6 713e 5c1e 463d 1888 d63c
00000040: 6f9d 4d3e a14c a43d 9b04 aa3d 2a2c 2a3d
00000050: 4836 623d dfdc 243e 2467 a13d efab 133d
00000060: 1e59 933e 58f8 673d d862 e73c 108d 2c3d
00000070: d74e 503d 2cb0 803e 632f 6c3d 0425 673d

momentum_buffer f4 [32, 6]
-0.28211525 -0.14464578 0.0007025136 -0.10724944 0.054247558 0.00394921 -0.00510907 0.0018891199
0.0072020628 0.008486483 -0.0012856083 0.00073077343 -0.013536465 -0.079604864 0.002549792 0.023677532
-0.00032302958 -0.00560668 -0.022324724 0.05312454 -0.0004989659 -0.0035962171 -0.0027889241 0.0038655445
-0.028351616 -0.13058896 -0.0049511637 0.009741082 -0.0092276335 0.027113196 -0.012204604 0.011974717
-0.001531411 -0.000950975 -0.0011718897 0.00076684303 -0.07223269 0.026754554 0.003970963 0.0017457827
-0.0020934285 0.0014588723 0.011778461 0.023759875 0.00905618 0.03430824 -0.0053663077 0.02232758
0.060563426 -0.055267416 0.00876017 0.0015594161 0.019352831 -0.012576532 -0.024822956 0.07233391
-0.00087487214 0.025423292 -0.0033090834 0.0069373664 -0.00022467226 -0.05687256 -0.037701674 -0.014080206
0.025740951 -0.038252216 0.08153604 0.2262302 0.01838833 0.035240732 0.002006705 -0.0011183408
0.11636615 -0.045834858 0.0038706136 0.020748481 0.00050089223 0.003529062 0.0059479596 0.0018919599
-0.0021916556 0.009628864 -0.0007120038 0.0050158626 -0.021724826 -0.030849414 -0.017150428 0.009756679
0.022927405 -0.016031738 -0.025048882 -0.009553 -0.009426005 0.01161586 0.012716608 -0.0017395034
-0.00094358285 0.019459663 0.007520528 0.0063192025 0.002173312 0.0023523888 -0.024053901 0.009259807
0.012514733 0.007947641 0.001578813 -0.00018738839 -0.02638214 0.014606542 -0.005206943 0.019065913
-0.006702759 0.016694475 0.00021062791 -0.00023784116 -0.010757878 -0.016428562 0.023767585 -0.018727843
0.034522396 0.19238633 0.035166606 0.049017318 0.021478431 0.011554736 0.0020856243 -0.0026454479
0.0001440162 -0.0031393955 -0.000159266 -0.00087205356 -0.0005243642 0.01916152 0.0042235786 -0.0005335661
0.0052786986 -0.0017773875 -0.10088194 -0.009813938 -0.007965947 0.032078907 0.0032238318 0.03086643
0.0052267103 -0.004006172 0.0018165997 0.00016117565 0.0039151064 -0.0028979627 0.06193029 0.18620364
0.015777983 -0.007499231 -0.004619328 0.0020836117 -0.0647295 -0.1501636 -0.014298775 0.022117637
-0.022140712 0.017118627 -0.06469672 -0.1578095 0.017919905 0.050382737 0.010215986 0.029900499
-0.08163939 -0.06281736 -0.0077773393 -0.015779618 -0.0031616255 -0.0019599185 0.010556017 -0.01630238
0.0072790207 0.0010079687 0.013126452 -0.008381513 0.055578917 0.027485248 -0.01639874 -0.03771844
-0.0049714716 -0.009765713 -0.009340875 0.00078664307 -0.0031182584 -0.00883696 -0.0034484589 0.00044140965
00000000: 6971 90be 061e 14be e428 383a 98a5 dbbd
00000010: b032 5e3d 6068 813b fc69 a7bb 589c f73a
00000020: 48ff eb3b e40a 0b3c db81 a8ba 6091 3f3a
00000030: 0dc8 5dbc e007 a3bd 691a 273b 62f7 c13c
00000040: 4c5c a9b9 3eb8 b7bb 57e2 b6bc 1e99 593d
00000050: 09cd 02ba 83ae 6bbb 62c6 36bb 1355 7d3b
00000060: a641 e8bc 1db9 05be 5f3d a2bb 0f99 1f3c
00000070: 802f 17bc 7e1c de3c d2f5 47bc 9a31 443c
00000080: a0b9 c8ba da4a 79ba 189a 99ba f705 493a
00000090: bcee 93bd 5e2c db3c da1e 823b bfd2 e43a
000000a0: e731 09bb a237 bf3a 72fa 403c 12a4 c23c
000000b0: 5f60 143c cc86 0c3d dad7 afbb 54e8 b63c
000000c0: 5b11 783d 1660 62bd d186 0f3c 5265 cc3a
000000d0: d489 9e3c cc0d 4ebc 8359 cbbc cd23 943d
000000e0: ad57 65ba 8244 d03c 35dd 58bb d952 e33b
000000f0: 0096 6bb9 34f3 68bd 126d 1abd aab0 66bc
00000100: b0de d23c 5bae 1cbd 5efc a63d e4a8 673e
00000110: 1fa3 963c 9658 103d ec82 033b 4a95 92ba
00000120: 6051 ee3d 55bd 3bbd 1faa 7d3b b8f8 a93c
00000130: 4f4e 033a d647 673b 1ae7 c23b a4fb f73a
00000140: e1a1 0fbb 62c2 1d3c c4a5 3aba 1b5c a43b
00000150: 43f8 b1bc e9b7 fcbc 0e7f 8cbc 7ada 1f3c
00000160: 41d2 bb3c fe54 83bc 5033 cdbc 3084 1cbc
00000170: 886f 1abc 7350 3e3c 5259 503c 0c00 e4ba
00000180: c65a 77ba df69 9f3c c36e f63b 5011 cf3b
00000190: 206e 0e3b 892a 1a3b b00c c5bc 72b6 173c
000001a0: 980a 4d3c d336 023c 2cf0 ce3a b07d 44b9
000001b0: 5c1f d8bc 4750 6f3c 019f aabb 1e30 9c3c
000001c0: d1a2 dbbb dac2 883c 00dc 5c39 0065 79b9
000001d0: d041 30bc 3195 86bc 3db4 c23c 226b 99bc
000001e0: 5b67 0d3d ec00 453e dc0a 103d 62c6 483d
000001f0: 89f3 af3c 1350 3d3c f8ae 083b 405f 2dbb
00000200: 0e03 1739 51be 4dbb a400 27b9 869a 64ba
00000210: 7c75 09ba 9ff8 9c3c f265 8a3b 04df 0bba
00000220: eff8 ac3b 3af7 e8ba 319b cebd a4ca 20bc
00000230: 9a83 02bc 2c65 033d ec46 533b 98db fc3c
00000240: d344 ab3b 3546 83bb f91a ee3a 4201 2939
00000250: 4b4a 803b bfeb 3dbb 9eaa 7d3d 2bac 3e3e
00000260: d440 813c 1cbc f5bb bb5d 97bb 348d 083b
00000270: e690 84bd 7dc4 19be 6945 6abc 0c30 b53c
00000280: 7060 b5bc 5d3c 8c3c b77f 84bd d098 21be
00000290: c4cc 923c 215e 4e3d f360 273c e4f1 f43c
000002a0: 8d32 a7bd 63a6 80bd 0dd9 febb 4244 81bc
000002b0: 4633 4fbb fa71 00bb 25f3 2c3c 928c 85bc
000002c0: da84 ee3b d11d 843a 5510 573c 9d52 09bc
000002d0: b8a6 633d be28 e13c a656 86bc a77e 1abd
000002e0: bae7 a2bb 5e00 20bc 780a 19bc b936 4e3a
000002f0: b25b 4cbb e6c8 10bc 8aff 61bb 006d e739

momentum_buffer f4 [32]
1.3663742e-07 2.2574236e-08 1.7458557e-08 -4.8969673e-09 4.9940642e-08 1.1918913e-09 -6.1498766e-09 -2.5775602e-08
4.2757893e-08 2.009981e-08 -1.7446379e-08 -2.55483e-08 2.246685e-08 -1.00895985e-08 3.05782e-08 -1.5596068e-08
-1.4431054e-08 2.4009443e-09 -1.6329956e-08 1.7896147e-08 1.1230917e-08 -5.9202937e-10 -4.131426e-10 1.3311312e-07
-5.0501825e-09 2.3935666e-08 3.16548e-08 -2.3900794e-08 7.73004e-09 1.0908373e-08 -2.5114457e-09 9.3856976e-09
00000000: 9cb6 1234 45e9 c132 c6f7 9532 2e42 a8b1
00000010: 517e 5633 f2cf a330 e34e d3b1 2669 ddb2
00000020: cda4 3733 f3a7 ac32 fedc 95b2 4e75 dbb2
00000030: 20fd c032 8656 2db2 1655 0333 1ef8 85b2
00000040: 72ec 77b2 dcfd 2431 f445 8cb2 0bba 9932
00000050: 18f2 4032 5dbc 22b0 a720 e3af dbed 0e34
00000060: e085 adb1 169b cd32 d2f4 0733 674e cdb2
00000070: 13cd 0432 8867 3b32 d295 2cb1 bc3e 2132

momentum_buffer f4 [3, 32]
0.27348906 -0.14624579 -0.19437493 -0.14103954 -0.1285911 -0.16795303 -0.23988652 -0.16740373
-0.17340899 -0.05818998 -0.3177972 -0.0026186872 -0.20235057 0.06463914 -0.2830323 -0.26344058
-0.108141094 -0.17260927 0.061613776 -0.28081477 -0.021258716 0.0707753 -0.09408185 0.13896583
-0.1841766 -0.14190504 -0.06784643 -0.14569032 0.14683987 -0.21859843 0.20882711 0.16338593
0.1703138 -0.015350416 -0.22104657 -0.017271038 -0.21299893 0.009039938 0.014636926 -0.15674205
0.0062789246 -0.085439175 0.12704164 -0.009519562 -0.02876457 -0.22627515 0.08409199 0.063445486
-0.027161665 -0.0018471703 -0.20201392 0.042859018 -0.03056487 -0.21421367 0.00034196675 -0.16013864
-0.00077950954 -0.22895019 -0.14957097 -0.1753605 -0.1314641 0.015726 -0.039084934 -0.10757232
0.049013503 0.12692356 -0.18316893 0.19577585 -0.2740639 0.13191749 0.14722724 -0.12394971
0.123840585 0.2166824 -0.05821424 0.21208684 0.025528487 -0.24191332 -0.12076392 -0.18877055
0.17969196 0.15587033 -0.2373514 -0.044154998 0.26326486 -0.21288991 0.17453928 -0.22595292
0.124831386 -0.19232939 -0.15741238 -0.17488798 -0.10149062 0.11827634 -0.06086719 -0.16790472
00000000: c206 8c3e 75c1 15be 390a 47be ab6c 10be
00000010: 63ad 03be e1fb 2bbe d0a4 75be e26b 2bbe
00000020: 2092 31be 9e58 6ebd 51b6 a2be 489e 2bbb
00000030: fd34 4fbe 8761 843d 9ce9 90be afe1 86be
00000040: 1479 ddbd 7cc0 30be ba5e 7c3d f4c6 8fbe
00000050: c226 aebc a4f2 903d fcad c0bd 0f4d 0e3e
00000060: ca98 3cbe 8e4f 11be 12f3 8abd d82f 15be
00000070: 315d 163e 44d8 5fbe c6d6 553e a44e 273e
00000080: be66 2e3e 5080 7bbc 085a 62be fe7b 8dbc
00000090: 641c 5abe 401c 143c b8cf 6f3c fd80 20be
000000a0: 70bf cd3b bcfa aebd 3417 023e f0f7 1bbc
000000b0: ada3 ebbc acb4 67be 6c38 ac3d b5ef 813d
000000c0: 2482 debc c01c f2ba bddc 4ebe f08c 2f3d
000000d0: 2e63 fabc d45a 5bbe 004a b339 62fb 23be
000000e0: 0058 4cba eb71 6abe 2229 19be b491 33be
000000f0: 869e 06be d0d3 803c 8617 20bd e04e dcbd
00000100: 62c2 483d 40f8 013e a390 3bbe 7779 483e
00000110: 1a52 8cbe 6115 073e bdc2 163e 58d9 fdbd
00000120: 22a0 fd3d fee1 5d3e 0e72 6ebd 4b2d 593e
00000130: 1e21 d13c 20b8 77be 1353 f7bd 114d 41be
00000140: 2b01 383e 799c 1f3e 3f0c 73be dfdb 34bd
00000150: a7ca 863e d0ff 59be 6dba 323e 3460 67be
00000160: 99a7 ff3d fff1 44be b630 21be d615 33be
00000170: 50da cfbd de3a f23d e04f 79bd 37ef 2bbe

momentum_buffer f4 [3]
-0.094516695 -0.056024976 -0.11736336
00000000: f891 c1bd 727a 65bd 345c f0bd

momentum_buffer f4 [32]
-0.08128405 -0.03483728 -0.01948756 0.0010712442 -0.0801943 0.0036823861 -0.05073507 -0.046321366
-0.017819844 0.00097527006 0.08347712 0.019520577 0.01231366 -0.047980424 0.090820745 0.049594507
-0.032247655 -0.041977875 -0.07017778 0.019452196 -0.045988437 0.0031256215 -0.010032415 -0.08822231
-0.01267444 -0.07131919 -0.023623638 -0.03213803 -0.012671888 -0.035801522 -0.019596707 0.012670357
00000000: 4178 a6bd 89b1 0ebd 60a4 9fbc fe68 8c3a
00000010: e93c a4bd 3054 713b 94cf 4fbd 79bb 3dbd
00000020: ecfa 91bc 44a9 7f3a 0df6 aa3d 9ee9 9f3c
00000030: 3cbf 493c 1f87 44bd 3a00 ba3d 9c23 4b3d
00000040: 1e16 04bd fef0 2bbd 5eb9 8fbd 365a 9f3c
00000050: 5f5e 3cbd 3ad7 4c3b 005f 24bc e6ad b4bd
00000060: 74a8 4fbc cc0f 92bd 5c86 c1bc 2ba3 03bd
00000070: c09d 4fbc 9ea4 12bd 4689 a0bc 5497 4f3c

momentum_buffer f4 [32]
-0.041660585 -0.022580927 0.01456639 -0.0070848633 -0.09934876 0.00081704796 -0.050300203 -0.039105058
-0.023911826 0.033285413 0.033080842 0.05596409 0.02722214 -0.03768511 0.047110368 0.020283526
-0.024096755 -0.03820264 -0.04917579 -0.0051754797 0.007466441 0.001780415 -0.008338377 -0.09005104
-0.012643471 -0.066982634 -0.02681918 -0.012505207 -0.019921064 -0.03973731 -0.011337474 0.01465094
00000000: 4aa4 2abd a3fb b8bc dea7 6e3c 2428 e8bb
00000010: 5d77 cbbd 292f 563a 9607 4ebd a02c 20bd
00000020: bce2 c3bc 4956 083d c77f 073d 9a3a 653d
00000030: f700 df3c b45b 1abd cdf6 403d a329 a63c
00000040: 8f66 c5bc 5f7a 1cbd 8e6c 49bd 1297 a9bb
00000050: 0ca9 f43b d05c e93a b09d 08bc ae6c b8bd
00000060: 9026 4fbc 312e 89bd e6b3 dbbc a4e2 4cbc
00000070: 8031 a3bc 97c3 22bd d0c0 39bc 7f0a 703c
