examples/toy_examples/outputs/last_model_20231127-120421.pth (torch, 8370 bytes, 14 tensors)

enc.lins.0.weight f4 [16, 14]
00000000: 2dad e6be 8469 323e 40b9 693d a3f1 a1bd
00000010: c229 b93c bffb 123d e29e 17be 7026 0fbd
00000020: a862 b6bc 44e9 093c 0f1a aabd 395e 923d
00000030: 0ab5 473e 2095 2b3d 61fc 6f3e 1bae 873e
00000040: 5b78 6a3d e32a 293e c74b fc3d 33ce 6c3e
00000050: 7190 4cbe cfdb 613d 06c8 3bbd 9a8b bebc
00000060: b67a 8cbd e0c4 f33d 8638 543e 996f 30be
00000070: 9f83 de3e f126 12be bd3d 16bd ada6 b4bc
00000080: 8a9b 2ebd 74ad c0bc 4ddf 523c a975 afbd
00000090: a879 c03c 2723 f03d 7753 c83c ae63 0b3d
000000a0: 974d 333d 200c f1bd 696f c83e 334a eabd
000000b0: 6be1 24bd de79 82bc 3213 1e3e f3a7 66be
000000c0: 5988 d7bd 2a9a 21be e471 553e aa93 24be
000000d0: 230b 9a3c 3412 88be 61cc 01bb e80d ea3d
000000e0: 9714 d93d 9c30 983e b471 0cbd 2e55 aabd
000000f0: 63a5 5ebd 017e ee3d 7764 af3b 2da2 573e
00000100: c000 3dbe 2118 0b3e bca4 0b3e 4ccf f13d
00000110: 4b6e 12bc 33ff ed3d d6cd a9be ae05 4fbe
00000120: b93b 25bd e47d 40bd 5c97 283e 645a 443e
00000130: 9b42 123e 9ea0 d8bd 5cce 47be c21a 7abe
00000140: 4948 ac3d 41da 63be 2012 81be 8a62 f0bd
00000150: 43ed 5abe afb9 703d 81d2 4abe 640a 0bbe
00000160: d837 9c3e ff20 f03b c166 8d3e 7042 933c
00000170: 07bf e3bc d571 efbd 9b18 57be 1ac3 4fbe
00000180: 8878 443e 4972 76bd 1bf9 4cbe ebf7 e73e
00000190: 8e79 b63d 0e48 84bd 906d 4cbe 69af 6dbe
000001a0: d216 35be 7dd4 6a3e 0acf 2e3e 9ec5 f33c
000001b0: c043 1fbe a3c5 8ebd 2dec 84be b1cb 003e
000001c0: a1d2 7bbe 34e1 75be c507 a1bd 15d8 383e
000001d0: 9e82 9d3d 825b 813c ca18 82bd 0bab c63c
000001e0: 883e 173d a7d8 90bd 5d5e 4c3e 857f a5bd
000001f0: a373 3d3e 22df cbbd 073a 40be df4f bd3e
00000200: 24eb 99bd 8fe6 823e f3f8 52be f3b4 18bd
00000210: e6ba e6bb 9ee2 ee3d 6277 663e 8fb3 cc3d
00000220: 322e 493d 55af 2abe 5ca5 523d 0272 4dbd
00000230: 03b4 873e edcf bebc 9b7d 293e a499 7c3e
00000240: c405 103e 1e38 9fbc b247 c73d e3d0 7ebe
00000250: faaa 5f3e 9ab5 f1bb 6672 cd3d c5cf 50bd
00000260: ec10 b8bd 069a a4bd e07a ba3e f8c9 bcbe
00000270: 400d 8c3e 13e9 a73e 4d9a 15be d1ee 80be
00000280: 99fe 4abe 5bd3 14be 0e12 6b3e c0ed 26be
00000290: 1574 1e3e 7929 543e 1485 b9bd edb1 573c
000002a0: 7aee b6be dedd df3e 7842 9b3d 6761 163e
000002b0: de8b 8cbd c9c6 3ebd e275 a4bd b10c 313c
000002c0: 9112 343d 611c 683d 47fd 9a3d 91e9 fbbd
000002d0: 7f88 3c3e 2027 39bb 93dd 723e 588f b5be
000002e0: 3952 5fbd 6c7d ca3d 4845 f6bd 717a 3bbe
000002f0: a34c 093e f228 ccbc be17 ac3d 88d2 013e
00000300: 011b 06be d09e 96bd 61fb 96bb a32e 2dbd
00000310: f4bb 7abe c966 dfbd 3309 e0bc 3063 2f3e
00000320: 9ace 213e 9b22 2c3e 5810 ea3b 6579 17bc
00000330: 4f8f 913d 3d74 533d 9956 13bd 535b db3d
00000340: 9308 51be 07b0 52be 5ed8 26be 2b0d 22be
00000350: c1c0 6abe bfac 77be b742 a23b a505 d3bc
00000360: b8e5 1fbe ca0e b9bd 03b8 953d 38ab 28be
00000370: 9dab 213d a0e9 d83a 1f04 b33d 3d78 0e3e
-0.45053998 0.17423064 0.057061434 -0.07907417 0.02260292 0.035884615 -0.14806703 -0.034948766
-0.02226384 0.008417431 -0.083057515 0.07146878 0.19502655 0.041890264 0.23436119 0.2650002
0.057243686 0.16520266 0.12319141 0.23125534 -0.19976975 0.055141266 -0.045845054 -0.023259927
-0.06859343 0.11902785 0.20724687 -0.17230071 0.43459794 -0.14272667 -0.036679972 -0.022052133
-0.042628802 -0.023520209 0.012870622 -0.08567364 0.02349551 0.11725455 0.024453862 0.03403061
0.043775167 -0.11769891 0.391475 -0.11439934 -0.040254038 -0.015927251 0.1543701 -0.22525005
-0.10524053 -0.15781465 0.20844227 -0.16071954 0.018804139 -0.26576388 -0.0019805657 0.11428434
0.1059963 0.29724586 -0.034288123 -0.08317028 -0.054356944 0.11645127 0.0053525525 0.21057959
-0.18457317 0.13583423 0.1363706 0.11807117 -0.008937429 0.11620941 -0.33164853 -0.2021701
-0.04034016 -0.04699506 0.16463989 0.19175106 0.1428322 -0.1057751 -0.19512314 -0.2442427
0.08412225 -0.22251226 -0.2520914 -0.11737545 -0.2137957 0.05877083 -0.19806863 -0.13578182
0.30511355 0.007328152 0.27617458 0.017976016 -0.02780105 -0.116916336 -0.2100548 -0.20289269
0.19186604 -0.060167585 -0.20016901 0.45306334 0.089099035 -0.06459056 -0.1996367 -0.23211445
-0.17684487 0.2293262 0.17071167 0.029757317 -0.15553188 -0.0697129 -0.25961438 0.12577702
-0.24592067 -0.2401169 -0.0786281 0.18051179 0.07690929 0.015790705 -0.063523844 0.024251482
0.03692487 -0.07072573 0.19957872 -0.08080963 0.18501143 -0.099546686 -0.18772136 0.36975
-0.07515553 0.25566527 -0.20602779 -0.03728194 -0.007041323 0.116643175 0.22506478 0.099951856
0.04911632 -0.16668446 0.05142723 -0.050157554 0.26504526 -0.023292506 0.16551821 0.24667984
0.140647 -0.019435938 0.09730472 -0.24884371 0.21842566 -0.007376385 0.100315854 -0.050979394
-0.089876026 -0.0803719 0.3642187 -0.3687284 0.2735386 0.3279501 -0.14609642 -0.25182202
-0.19823684 -0.1453375 0.22956106 -0.16301632 0.1547397 0.20718946 -0.09058586 0.013164979
-0.35728818 0.4372396 0.07581037 0.14685594 -0.06862615 -0.046576295 -0.08030297 0.0108062485
0.04396302 0.05666769 0.0756784 -0.12300409 0.18411444 -0.002825208 0.23717336 -0.35460925
-0.054521773 0.098872036 -0.12024933 -0.18308426 0.13408141 -0.024921868 0.08402966 0.12677968
-0.13096239 -0.0735451 -0.0046076034 -0.042280804 -0.24485761 -0.109082766 -0.027348137 0.17127681
0.15801468 0.16810076 0.0071430616 -0.009245251 0.07107412 0.051624525 -0.035971258 0.10710778
-0.20413427 -0.20574962 -0.16293475 -0.15825336 -0.22925092 -0.24186991 0.0049518007 -0.025759527
-0.15614974 -0.09036024 0.07310488 -0.16471565 0.039470304 0.0016549118 0.087410204 0.13913055

enc.lins.0.bias f4 [16]
00000000: 5dd0 32be 5457 ec3d 46a8 4e3e cff3 8c3c
00000010: d86c 0b3e 6238 cfbd 9870 593d 64ef 9f3d
00000020: cccf fcbd d8f8 283e 3661 81be d49a cdbd
00000030: fe06 21be c476 22be 85d5 25be e2f0 80be
-0.17462297 0.11540094 0.20181379 0.0172061 0.1361574 -0.10118176 0.053085893 0.07809332
-0.123443216 0.16501176 -0.2526948 -0.10039297 -0.15725324 -0.15865618 -0.16194732 -0.2518378

enc.lins.1.weight f4 [3, 16]
00000000: aa2d 043d e4aa 31be fe65 14bf 2c51 97be
00000010: 2ba1 7dbe 8860 c03c 97c6 9fbe cae6 2e3d
00000020: 43f8 e83d 51a0 f33d 8bf3 cdbd 452b 763e
00000030: f004 f33e b1f3 183e 2979 f03d 2916 003e
00000040: 3a68 12bf 3c80 81bd 8031 78be 0a39 9abe
00000050: cc5c b13c 0118 0abe 782b b1bd d7c6 eb3d
00000060: e322 8cbe 563a 923e 69b4 b0bd 8b9f 113f
00000070: 2fe0 133e c381 0b3e 4e78 acbd bf31 70be
00000080: 73b9 8fbc 7e8c 893d b9ad a3bd 6890 cd3d
00000090: 2d15 1a3d 3b8c 5e3d e89b e43b acb3 8c3e
000000a0: 1186 87be 4740 203e bb90 e53d e32f aabe
000000b0: e218 b23e 4336 18be 6981 a5bd ba8c 1b3e
0.03227011 -0.17350346 -0.5796813 -0.29554117 -0.24768512 0.02348353 -0.312062 0.042700566
0.11375477 0.11895812 -0.10056218 0.24039944 0.47464705 0.14936711 0.117418595 0.12508453
-0.5719029 -0.06323287 -0.24237633 -0.30121642 0.021650694 -0.1348572 -0.08650869 0.11512535
-0.27370366 0.28560132 -0.086281605 0.5688407 0.14440988 0.13623719 -0.08421384 -0.23456477
-0.017544484 0.0671625 -0.07992119 0.10037309 0.03761785 0.054332953 0.0069765933 0.2748083
-0.26469472 0.1564952 0.11209246 -0.3323966 0.3478461 -0.14864449 -0.08081324 0.15190402

enc.lins.1.bias f4 [3]
00000000: c36e 8c3d dbbd c13e d019 3cbe
0.068570636 0.3784016 -0.18369222

enc.norms.0.module.weight f4 [16]
00000000: 6af3 893f ada1 723f 1f51 8a3f 9fcd 823f
00000010: 603e 723f 2ff3 733f b35b 723f 6393 763f
00000020: 90f1 7c3f 90e3 753f e981 713f 013e 8d3f
00000030: 7789 833f ba4f 6f3f b248 6f3f d27f 763f
1.0777409 0.9477795 1.0806006 1.0219 0.94626427 0.95292944 0.9467117 0.96318644
0.98806095 0.9605036 0.9433885 1.1034547 1.0276326 0.9348103 0.934703 0.9628879

enc.norms.0.module.bias f4 [16]
00000000: 677d 003e 26e7 3dbc f546 fb3a 323e f3bb
00000010: 7922 573d e0e2 24bd 3c28 a9bd 5e59 983d
00000020: 2fd6 8f3d ec42 8e3d 1838 afbc 900f 463e
00000030: 8b39 6d3e cfc2 a53d deb6 293d d5e2 183d
0.12547837 -0.011590755 0.0019170927 -0.0074231857 0.05252311 -0.040255427 -0.08259627 0.074389204
0.07023274 0.06946358 -0.021389052 0.19341874 0.23166482 0.080937974 0.04143416 0.0373257

enc.norms.0.module.running_mean f4 [16]
00000000: 5359 3bbe 55b2 fe3d 66b0 523e 0c2c 6d3c
00000010: 89ce 0a3e 42b3 e4bd 76d1 0f3d 1b9d a63d
00000020: 27b6 f6bd fda5 3c3e 02a4 78be c2ff 9ebd
00000030: 9f21 19be 9c66 19be 5bed 24be 7b31 88be
-0.18295793 0.12436358 0.20575103 0.014475834 0.1355535 -0.11167003 0.035111867 0.08135434
-0.120464616 0.18422695 -0.24281314 -0.07763626 -0.14954232 -0.14980549 -0.16106169 -0.2660025

enc.norms.0.module.running_var f4 [16]
00000000: 2512 973d 11be 1c3e 8038 933d 3206 803d
00000010: 3c82 eb3d 18aa 343e f23c ab3c 556b d53d
00000020: 7671 183e e5ea 843d b00f 223d 630b 733d
00000030: 179d 9d3d abdf 533d e7f0 a03d 44f3 833d
0.07376508 0.1530688 0.07188511 0.06251182 0.114994496 0.1764301 0.020903084 0.104208626
0.14887032 0.06490115 0.039565742 0.05933703 0.07695978 0.05172698 0.078584485 0.064428836

momentum_buffer f4 [16, 14]
00000000: 807e 243a d0af 4bbd f973 93bc e41d d73b
00000010: 896c 31bc 004c d0b7 38e5 abbc 8068 7d3b
00000020: 600c bc39 a453 3f3d ff8e 11bc b45d 533c
00000030: da91 843c e231 7b3d 0f06 62bc 3544 a43c
00000040: b30b c03a 38c9 00ba e695 143b 26b0 5ebb
00000050: 5298 16ba 8f2f f2bb 80b9 dbbb f69c f5ba
00000060: 7df9 3a3b 1720 bfbb d621 8dbb b443 63ba
00000070: b5aa 303c 8639 013d 3541 0dbc d47a 743c
00000080: f1db 8e3c 5418 24bc 8cb1 2cbc 274d acbc
00000090: 0899 bdbc 4e00 1fbd d5c5 a63c c267 a0bc
000000a0: 510a 84bc 80d4 21bd 3cef 51bc 66fa 70bc
000000b0: 0235 d9bb b270 653c de52 32bc c8e4 103b
000000c0: 772e 3a3c 8283 84bc 2719 7fbc 2117 39bd
000000d0: 7e70 a53b 8339 adbc 9cd1 7ebc 6723 4abd
000000e0: c197 91bc 0be9 d13c 7ba2 10ba 63de 653b
000000f0: a02b d53b 786b f93a 1949 293b a495 15bc
00000100: 33e1 07bc a482 a6bc aac0 363b d06c 10bc
00000110: be3d debb 1eaa 5fbc de21 ab3b 86a9 d13b
00000120: dc40 1139 06bc 633b 708c 673b a3e8 863b
00000130: 1747 44b9 0ac0 dbba aa21 12bb 9a6c 963a
00000140: ad0f 4d3a a24b 6ebb 6458 49bb 9a83 923a
00000150: 32f2 823d 6c9b b03e 0ffc 3bbc 865c 493b
00000160: a090 163c e996 bebc 5d1b 2f3c d860 f6ba
00000170: d6f9 6fbc 3832 b73c a052 363d e664 08bb
00000180: 7238 0cbc 5ff1 a53c fc1a 903d b8a6 2d3d
00000190: 2489 06bb 8199 fbbb 4c51 333c 50d7 09bb
000001a0: 794e 013c 9f18 903a 3082 383c 0cab 67bc
000001b0: f298 bc3b c885 183b d12b 9f3b 13ae 67bc
000001c0: d532 87bc b279 42bc 0b47 edbb 4f06 57bc
000001d0: 30a8 dd39 9029 8f3a acb0 08bc 1dba 153b
000001e0: 013f b53a ecad c13c a855 03bc c76c 903a
000001f0: f894 913b 48ed 053d cc3a 823d c71e 303d
00000200: 8c95 673a 2a28 bbbc 38b7 a23c 7e2a 33bc
00000210: 2720 c33c 663a 283c 0c37 ad3c 402f 20bc
00000220: 1bac 8b3c 4030 173c e6ca 293c 7aa5 a0bc
00000230: 53a7 b7bb 6f8a b73c 0e77 9bbb 1f5c 473b
00000240: eeaa d0bb 30bd be3a deaa ad3b f205 83bb
00000250: 8b1f 20bb 4c74 3bbc 384e d93a f637 09bc
00000260: 485d 46bb bbb1 55bc 5b15 9abe e06b a5be
00000270: cb82 c73c bdee c5bb 5546 543c 5c0f 093d
00000280: 4f3f a33c b4d2 c8ba 3037 873c 9226 72bc
00000290: 9502 57bd b160 123c 10f7 143a 3043 36bb
000002a0: 96c8 033d a0fd da3c b668 a0bc e9fb f23b
000002b0: 7e12 483c 28d7 b33c 93a6 8a3c 60ea 043d
000002c0: f32a 653d 284a 01bd 2887 9f3a 1178 d13c
000002d0: 7d58 eb3c 5959 5ebd 9983 efbc d0f6 89bc
000002e0: 744a 033a 6498 4bbc b813 72ba 1c5f e33b
000002f0: 7d5d 9e3a e266 2bbb 124e 9f3b eea9 0a3c
00000300: 0835 96bc 8578 2c3a f2f8 d9b9 c98d 843c
00000310: 4807 1a3c 4e8f fabc c409 8bbb 8e18 45bb
00000320: bc8d f739 634b eb3b 88c6 85bb 0a9b dd3a
00000330: a428 843b 6088 d33b fd59 dabb 6b01 03ba
00000340: ce5e b93a 8937 3e3c dcd5 063d e96d ecbc
00000350: 4914 31bc 9aad 353c 7874 ca3b 6cd6 863c
00000360: 0eb8 1abc 6267 313b 82e6 3c3a 441c 9dba
00000370: 8e8a dfbb d5ce 26bb a692 e139 e2f2 8c3a
0.00062749535 -0.049728215 -0.017999636 0.0065648425 -0.010829099 -2.4830922e-05 -0.020983323 0.0038667023
0.00035867374 0.046710625 -0.008884191 0.012900759 0.016182829 0.06132687 -0.01379539 0.020052055
0.0014651924 -0.00049127964 0.0022672354 -0.0033979504 -0.00057447434 -0.0073909233 -0.006705463 -0.0018738795
0.0028530054 -0.005832683 -0.004307012 -0.00086694513 0.010782887 0.031549 -0.008621504 0.014921863
0.01743886 -0.010015566 -0.010540377 -0.021032883 -0.02314426 -0.03881865 0.020358006 -0.019580726
-0.0161182 -0.039509296 -0.012813386 -0.014708137 -0.0066286335 0.014003919 -0.010884015 0.002210902
0.011363617 -0.016175989 -0.015569962 -0.045188073 0.0050488105 -0.021145588 -0.015552904 -0.04935017
-0.017772557 0.025623819 -0.00055173755 0.003507518 0.0065054446 0.001902922 0.0025830923 -0.009129915
-0.008293438 -0.020325966 0.0027885833 -0.008815005 -0.0067822626 -0.013651399 0.005222543 0.0063983826
0.0001385244 0.0034749522 0.003533151 0.004117088 -0.000187185 -0.0016765606 -0.0022297897 0.0011476458
0.0007822465 -0.0036360999 -0.003072285 0.0011178136 0.06393851 0.34493577 -0.01147367 0.0030725314
0.009189755 -0.023265319 0.010687676 -0.0018797172 -0.014646968 0.022362813 0.04451239 -0.0020812093
-0.0085583795 0.020256696 0.07036397 0.042395324 -0.002052852 -0.007678211 0.010944676 -0.0021032877
0.0078922445 0.0010993666 0.011261508 -0.014139902 0.005755537 0.00232731 0.0048575182 -0.014140624
-0.01650373 -0.011869835 -0.007241135 -0.013124063 0.00042277714 0.0010922421 -0.008342903 0.0022846528
0.0013827981 0.023642503 -0.0080160275 0.0011018746 0.0044428073 0.032696992 0.06358871 0.0429981
0.0008834235 -0.0228463 0.019862756 -0.010935424 0.023819042 0.0102678295 0.021144412 -0.00977689
0.01704984 0.009227812 0.010363316 -0.019610155 -0.0056046634 0.022404877 -0.004744417 0.0030419899
-0.0063680327 0.0014552232 0.00529991 -0.0039985115 -0.0024432864 -0.011441302 0.0016579097 -0.0083751585
-0.0030268002 -0.0130428625 -0.30094418 -0.32308865 0.02435436 -0.0060404227 0.012956222 0.033461913
0.019927649 -0.0015321583 0.016505808 -0.014779704 -0.052492697 0.008934186 0.0005682567 -0.0027811043
0.032173716 0.026732266 -0.01958118 0.007415284 0.01221144 0.02195318 0.016925132 0.03245008
0.055949163 -0.03156486 0.0012171017 0.025569947 0.028728718 -0.054284427 -0.029237555 -0.016841322
0.0005008348 -0.0124264695 -0.00092345057 0.006938828 0.0012082305 -0.0026153852 0.0048616016 0.008463366
-0.018335834 0.0006579238 -0.00041574944 0.01618089 0.00940115 -0.030585911 -0.0042431075 -0.003007445
0.00047217112 0.0071806177 -0.0040825047 0.0016907167 0.004033165 0.006455466 -0.0066635595 -0.0004997465
0.0014142634 0.01160992 0.032918796 -0.028861003 -0.010808059 0.011088753 0.006178435 0.016459666
-0.009443296 0.0027069678 0.0007205979 -0.0011986573 -0.006821937 -0.0025452871 0.00043024606 0.0010753537

momentum_buffer f4 [16]
00000000: 7b1f d333 ee11 69b1 affe 97b1 c841 0133
00000010: c4e9 8032 5277 f631 041a a1b3 886e 3732
00000020: ce00 6333 de44 3133 1c36 16b3 34c3 a1b3
00000030: 42c6 8fb2 6419 b1b1 3062 9232 6077 bd32
9.8311794e-08 -3.3916154e-09 -4.4236326e-09 3.009498e-08 1.5007465e-08 7.1731074e-09 -7.501879e-08 1.0677134e-08
5.2853288e-08 4.127366e-08 -3.497381e-08 -7.532654e-08 -1.6737548e-08 -5.1542646e-09 1.7041287e-08 2.2056781e-08

momentum_buffer f4 [3, 16]
00000000: 5b0e 13be a7b2 dbbd d05f a6bd 3463 d1bd
00000010: 591e ffbd 701e b73b e32d 92bd 52e1 27be
00000020: c08c 3c3b cc50 1abe d20c c4bd c49b 0e3c
00000030: b4d8 54be 7875 5a3d 309d 033c 947d 423c
00000040: 2c04 00bd dc52 12bd 1269 bbbd 09c6 a7bd
00000050: a50b dabc d09f 99bc c0df 79bb 8682 84bc
00000060: e81f d9bc 56a4 2dbd aa04 85bd 5646 fcbd
00000070: f8ed cabc 0f79 ebbd 18d1 b9bc b4a1 26bd
00000080: 2c68 8dbd b6e8 d33d 9094 d13d bd14 c03d
00000090: fd65 b73d 0eb4 e8bc de08 ffbb df8c 1a3d
000000a0: 68c8 52bd 5525 5f3d c87b 0b3e 28dd f23b
000000b0: a442 c43c c883 a7bd c4b6 edbc 6c55 c1bd
-0.14360945 -0.107274346 -0.081237435 -0.102239996 -0.1245696 0.005588345 -0.071376584 -0.16394547
0.0028770417 -0.15069884 -0.09572758 0.00870413 -0.2078579 0.053334683 0.008033082 0.0118707605
-0.03125398 -0.035723552 -0.091509 -0.08192069 -0.02661688 -0.018752962 -0.003812775 -0.01617552
-0.026504472 -0.04239305 -0.0649503 -0.12318103 -0.024771675 -0.114976995 -0.022682711 -0.040681556
-0.06904635 0.103471205 0.10233414 0.093789555 0.089549996 -0.02840617 -0.0077830395 0.037732
-0.051460654 0.054478962 0.13621438 0.007411618 0.023957558 -0.08179432 -0.029017814 -0.09440121

momentum_buffer f4 [3]
00000000: 24aa 0abe 7004 b6bd 506a 283d
-0.13541466 -0.08887565 0.041117013

momentum_buffer f4 [16]
00000000: 70b7 6e3c 8846 f33c 1f5f 673d 2c90 813d
00000010: d875 0b3d e0c7 5c3a 7054 e23c 608c c53a
00000020: 9830 a53c 00c0 acbc 3aa8 053d 8683 35bd
00000030: 8969 a4bd c490 b43b 7c9a bd3b a009 4dbb
0.014570102 0.029696718 0.0564872 0.06326327 0.03404793 0.00084221177 0.027628154 0.0015071742
0.020164773 -0.021087646 0.032631136 -0.044314884 -0.08027942 0.0055104215 0.0057862382 -0.0031286255

momentum_buffer f4 [16]
00000000: 5868 23bc 02d7 e53c f6ed e03c 1428 3d3d
00000010: d4bd de3c deca ffbb 7ad8 323d 806a 403a
00000020: 882e 953c a8df 93bc 960b 5a3c a618 e4bd
00000030: 93a6 49bd c2cc 0bbc ac09 a6bb 55bd 03bc
-0.009973608 0.028056625 0.027457219 0.0461808 0.027190126 -0.007806166 0.04366348 0.00073400885
0.018210664 -0.018050984 0.013308426 -0.11137514 -0.049231123 -0.008532705 -0.005067071 -0.008040746
