examples/toy_examples/outputs/last_model_20231127-112638.pth (torch, 7093 bytes, 14 tensors)

enc.lins.0.weight f4 [16, 6]
00000000: b563 9fbe 7359 c43e 7a1b 593e b220 e73e
00000010: 1015 473d 1a80 8abe 019e 523e 0ba3 9d3e
00000020: 122c 883d 8332 2f3e c843 aabe 6273 13be
00000030: e2e7 e33e 147e 20be 16d8 f7bd 7225 33be
00000040: 97af 7a3e 2512 213d 3ece f5be cf6a f13e
00000050: 3cb6 453e 83f4 4bbe 6d15 b8be c7f8 8f3e
00000060: 453d 983e 3f02 98be e9f7 973e 0c21 8b3e
00000070: 2caa 4bbe 7df6 43be fcb5 e9be 0027 b13d
00000080: e8e2 e1bd 01ba afbe eadb aa3e 89fa 6fbc
00000090: 7c8f 183e 91d9 b33e 2f43 95be 4110 28be
000000a0: b3d8 483e 3e11 a3be 2925 a63e f94b cabe
000000b0: e527 8ebe e551 90be a5d0 ac3d 7092 3f3e
000000c0: a1e1 bb3d 326c c0be 5f55 48be 276f 2c3e
000000d0: 989b 6fbd 929e d23d f39b cebe 3dcb de3d
000000e0: 75a6 363e d434 763e c979 bb3e b5da bc3e
000000f0: 6088 01be c711 13be 2709 40bd ab75 083e
00000100: 86ed 263e a0a7 03bd d980 80be d716 9abe
00000110: 258e ce3e 6e7c 98bd d691 a5bd 7d40 87be
00000120: f762 a8be 5e8f 923e be0b 213e acf0 8bbd
00000130: cc62 85be 2362 463e 33aa 66be 38a8 acbe
00000140: 33eb 91bd 1f76 bd3e 4b9e 633d a0cf 8e3c
00000150: c349 04bd 4024 893e 3dae c6bd 88c5 ce3e
00000160: 87c0 d43c 314d 9bbc 858b 8239 2358 08be
00000170: 9518 ad3e 54a0 883e 6116 b6be dd0c c0be
-0.31130758 0.38349494 0.21201888 0.45142132 0.04860407 -0.2705086 0.20568086 0.30788454
0.06649031 0.17109112 -0.33254838 -0.14399484 0.4451285 -0.15673095 -0.12101762 -0.17494753
0.24481045 0.039323945 -0.48008913 0.471518 0.19307798 -0.19917493 -0.35953847 0.2811949
0.29734245 -0.29689214 0.29681328 0.2717365 -0.19889134 -0.19136997 -0.45646656 0.08650017
-0.11029607 -0.34321597 0.33370906 -0.014647135 0.14898485 0.35126927 -0.2915282 -0.1641245
0.19613914 -0.31849092 0.32450226 -0.39511088 -0.27764812 -0.2818748 0.08438233 0.18708205
0.09173895 -0.37582546 -0.19563816 0.16839276 -0.058497995 0.10284151 -0.40353355 0.108786084
0.17836936 0.2404359 0.36616352 0.3688561 -0.12649679 -0.1436225 -0.04688373 0.13326137
0.16301546 -0.03214228 -0.25098303 -0.3009555 0.40342823 -0.07445608 -0.080844566 -0.26416388
-0.32888004 0.28625005 0.15727136 -0.06833014 -0.2605194 0.19373374 -0.22525863 -0.3372209
-0.07124939 0.37004182 0.05557088 0.017432988 -0.032296907 0.2678547 -0.09701202 0.4038508
0.02597071 -0.018957706 0.00024899482 -0.13314871 0.33807817 0.2668482 -0.3556395 -0.37509814

enc.lins.0.bias f4 [16]
00000000: 0c3c d7bd 6edd 8a3e 41d1 4dbe faba c13e
00000010: fc2e 52be a4cf bcbe b0e4 373e cda4 7cbe
00000020: dccc 83bd ea63 02be d8de 04bd 1b23 b6be
00000030: 5eb7 bfbe 58b5 333e 007c 3dbd a22d 7cbe
-0.105095 0.27122062 -0.20099355 0.37837964 -0.20525736 -0.36877167 0.17958331 -0.24672242
-0.06435558 -0.12733427 -0.032439083 -0.35573658 -0.37444586 0.17549646 -0.046260834 -0.24626783

enc.lins.1.weight f4 [3, 16]
00000000: 553c 5d3e 67dd bbbe 8c5a d8be 2a7d 883e
00000010: ae4b 013f bebd 02bf ff66 36be f406 353e
00000020: 73f7 583e 439e eabe f3ba dd3c abbb 133d
00000030: b001 ed3d 10e3 31be 79e4 0c3e e33d f93d
00000040: e314 babe cf75 e6bc bf48 a23e 3ff1 45be
00000050: 3974 0c3e d8be 923b 9ec2 35bd 01c5 673d
00000060: b343 4b3d 8fdd 323d 44cd 1b3c 7b61 d13d
00000070: 0bc3 2abe ddab cc3d abed 17be 1a6f 0a3d
00000080: b926 243d 662c b0be 5b8a 12be 4b51 173e
00000090: ac4b 6bbe 5477 633e 2a25 21bd dd8e 04bd
000000a0: 218a 523e 191a 7cbc 835a 33bd 7ef0 493e
000000b0: 7d59 1d3e f1a4 b93e 2de7 74be 7dce 0a3e
0.21605046 -0.36692354 -0.42256582 0.26657993 0.50506103 -0.51070774 -0.17812727 0.17678434
0.21188144 -0.4582387 0.027066683 0.036067646 0.115725875 -0.17371774 0.1375903 0.12170007
-0.3634406 -0.028132347 0.31696126 -0.1933031 0.1371621 0.0044783168 -0.044375055 0.056584362
0.04962511 0.043668326 0.009509388 0.10223671 -0.16675965 0.09993718 -0.14836757 0.03379736
0.04007599 -0.34408873 -0.14310591 0.14777105 -0.22978085 0.22213489 -0.039342083 -0.032362808
0.20560504 -0.015387082 -0.04378749 0.19720647 0.15366168 0.36258653 -0.23916312 0.13555332

enc.lins.1.bias f4 [3]
00000000: 0f8f 343e d873 943c 58d1 17be
0.17632698 0.018121645 -0.14825952

enc.norms.0.module.weight f4 [16]
00000000: dbc4 803f dd7c 843f 6353 873f 090e 7b3f
00000010: e507 843f 5576 883f 5059 733f adf2 6e3f
00000020: 89b6 743f 3dd5 813f f7f5 6e3f a405 783f
00000030: 6fee 703f 0f15 803f 3059 763f a463 753f
1.0060076 1.0350605 1.0572323 0.9806829 1.0314909 1.0661112 0.95058155 0.93339044
0.95591027 1.01432 0.9334406 0.96883607 0.9411382 1.0006427 0.9622984 0.95855165

enc.norms.0.module.bias f4 [16]
00000000: 025b 0c3e 44e7 5d3d 40f4 813d 6ff1 983d
00000010: b078 173e 8ea7 dcbc 523a fc3b 98bf 8b3d
00000020: 4feb f13d df3e 35be bc01 62bd 1418 d03c
00000030: e2bf 4c3d 569e 683d 4bac b33d 8551 ccbc
0.13706592 0.05417563 0.06345415 0.07467925 0.14792132 -0.026935365 0.007697382 0.06823653
0.1181246 -0.17699765 -0.055177435 0.025402106 0.04998768 0.056791626 0.08773097 -0.024941215

enc.norms.0.module.running_mean f4 [16]
00000000: f1e4 a2bd 4cb9 943e b47d 66be 4ba9 c63e
00000010: 70cb 40be 3d69 c9be 287b 263e ff80 89be
00000020: 56c3 5ebd b6c3 fdbd 4632 f7bc a19b b5be
00000030: 2e49 babe f513 483e f464 cebc 90f9 60be
-0.07953823 0.2904762 -0.2250889 0.38801035 -0.18827605 -0.39338103 0.16257918 -0.2685623
-0.054385506 -0.123908445 -0.03017534 -0.35470298 -0.36383957 0.19538863 -0.025194623 -0.219702

enc.norms.0.module.running_var f4 [16]
00000000: 31d2 803d da54 2c3e 96f0 9a3d 68c8 c83d
00000010: f445 243d a229 d03d 223d 2c3e d45f 853d
00000020: 031e b03d fedb 973d bf57 393d 8bee 443e
00000030: 07a7 243d f352 4e3e 8762 583d fa41 923c
0.06290091 0.16829243 0.075654194 0.098038495 0.040105775 0.10164191 0.16820195 0.065124184
0.08599474 0.07415007 0.045249697 0.19231622 0.040198352 0.2014883 0.052828338 0.017853726

momentum_buffer f4 [16, 6]
00000000: b030 82be 1859 48be e028 f63c 9943 1ebc
00000010: 20c1 cbba 8297 b73c 9de3 d93d 058c 70bd
00000020: 9eed f7bc 7096 f5bc 1675 2fbc c0b1 bd3a
00000030: cdee d03d 8dcb 7d3e d62e 6ebd 3fa1 13bc
00000040: 6cef 79bd 8626 b8bb e8ba 3abe 8d59 4abe
00000050: 5012 573c ecf8 42bc f1bc 94bb e80c 53bb
00000060: e062 eebe e84f 20bf 3533 6bbc 1f54 7cbd
00000070: 2525 c43d 146b 1f3d d9d2 e9bc bf3d cdbd
00000080: ace5 973c e4c5 e23c 351c b03c a029 18ba
00000090: 1372 163d d78e 75bc 535d 6abb 37dd 1abb
000000a0: c295 c4ba 81f7 893b 1c02 4dbd d6e8 c8bc
000000b0: a758 acbb ce53 75bc 9ad6 553c 30ac a1ba
000000c0: 3cf3 2bbd d68c 66bb e0d2 adbc 1282 62bc
000000d0: c2ac 2bbb 0147 b03b 3c6a c63c a3c4 85bd
000000e0: 60e5 603c 4e6b 103d ae12 3e3c e443 973b
000000f0: d556 e03b 18d3 cbbb 7a3d a8ba a014 18bb
00000100: 18b3 bc3a a015 d839 362d 03bc 5873 4c3b
00000110: dbd5 e1bb 1cc3 00bc 1079 6dba 4979 82bb
00000120: d849 89bd 3969 acbd 46a8 903c 967a 69bc
00000130: c7e8 f43b b026 aa3a 06ca 96bb 5007 d63a
00000140: d4c8 b6ba e985 a6ba 283f d5ba 00a2 b5ba
00000150: 15a6 fc3d 06a9 4a3d af8a 12bc 4162 c3bc
00000160: 4eed acbb 9afd 9c3c 7620 b5bd e966 24bd
00000170: 97be a7bc 3fbd c2bc 334f 2fbc 88c2 34bc
-0.2542777 -0.19565237 0.030048788 -0.009659671 -0.0015545227 0.022411112 0.10639117 -0.058727283
-0.030264672 -0.02997896 -0.010709068 0.0014472529 0.10201798 0.2478468 -0.058150135 -0.009010612
-0.061019346 -0.0056198267 -0.18235362 -0.19760723 0.013126925 -0.011900168 -0.004539125 -0.0032203738
-0.4655981 -0.6262193 -0.01435547 -0.06160366 0.09577397 0.038920477 -0.028542923 -0.10021543
0.018542133 0.027682252 0.021497825 -0.00058045425 0.036729883 -0.014987669 -0.0035761192 -0.002363039
-0.0014998245 0.004210413 -0.05005084 -0.024525087 -0.0052595916 -0.014973594 0.013051653 -0.0012334641
-0.041980013 -0.003517916 -0.021218717 -0.0138249565 -0.00261955 0.005379558 0.024220578 -0.06531646
0.013726562 0.035258584 0.011601133 0.0046162475 0.0068462887 -0.0062202327 -0.0012835704 -0.0023205653
0.0014396636 0.00041214842 -0.008006385 0.003119668 -0.0068919486 -0.007859018 -0.0009058872 -0.0039817435
-0.06703538 -0.08418507 0.017658364 -0.014250418 0.0074740383 0.00129815 -0.00460172 0.0016329084
-0.001394535 -0.0012704703 -0.0016269432 -0.0013857484 0.12336365 0.0494776 -0.008944198 -0.023850562
-0.0052773124 0.019163895 -0.08844082 -0.040137205 -0.020476623 -0.02377188 -0.010700035 -0.011032708

momentum_buffer f4 [16]
00000000: 815a 2432 025e a1b3 60a7 c3b3 c7c1 3cb2
00000010: e006 a632 28cd 54b2 e0b5 4db0 9612 d231
00000020: eca0 38b2 f687 fbb2 a825 f230 d8c2 8032
00000030: ad4a a232 998a 46b3 0a26 a2b1 444f 50b3
9.566635e-09 -7.514247e-08 -9.1108404e-08 -1.09871e-08 1.932807e-08 -1.2386671e-08 -7.4837025e-10 6.1139174e-09
-1.0746799e-08 -2.9282074e-08 1.761852e-09 1.4989766e-08 1.889324e-08 -4.622652e-08 -4.719145e-09 -4.8500866e-08

momentum_buffer f4 [3, 16]
00000000: 06d4 9fbc 3737 76be ddc3 54be 4f13 9f3c
00000010: f025 3dbe cd3d e63d f66f 49be 0efb 2dbd
00000020: faf0 debc 98b0 6d3d a9b9 883c f4c7 6f3c
00000030: 5140 bf3c 75b5 213c 8a30 22be e4f9 5fbd
00000040: 7a89 aa3c e9a8 a53d bae8 883d 72bc 8fbc
00000050: 4371 c33c a671 d23c 08e0 8f3d 6c93 793d
00000060: beb1 893c 6a59 9d3c 48c7 883b 5003 3fbc
00000070: 5089 7ebc 401e 14bb 398a ac3d cc73 88bd
00000080: 661e bcbb db94 c5be 9a0a d4be 94f5 803d
00000090: 00bc 64bc ec54 b83d caee b8be 6ea4 a4bc
000000a0: 91ef 1d3d 12b5 703d 5df7 143d 0619 373d
000000b0: 8c6b 8e3d 82be 0e3d e929 7bbe 3ebe 603d
-0.01951028 -0.240445 -0.20777841 0.019418387 -0.18471503 0.11242256 -0.19671616 -0.042475753
-0.027214516 0.05802974 0.016690092 0.014635075 0.023346098 0.009869923 -0.15838829 -0.054681674
0.020817507 0.08088858 0.06685014 -0.017545912 0.023857718 0.025688957 0.070251524 0.060931608
0.016808387 0.019207675 0.004174147 -0.011658505 -0.015535668 -0.0022601038 0.084248014 -0.066627115
-0.0057409285 -0.3859013 -0.41414338 0.0629684 -0.013960838 0.090005726 -0.36119682 -0.020097937
0.038558546 0.058766432 0.036368717 0.0447016 0.06954107 0.03484965 -0.24527706 0.05486893

momentum_buffer f4 [3]
00000000: 6a41 6abe b0ba 2f3d 5570 6abe
-0.22876516 0.04290265 -0.22894414

momentum_buffer f4 [16]
00000000: 30f7 b0bb f469 503e d81e 1b3e 484b aa3c
00000010: 3215 abbd fc55 0ebd c3b2 453d 40f1 05bb
00000020: 6012 9f3b edd9 d6bc dbfa a1ba 487d 0b3c
00000030: f2bc 873c f458 323c 9ee1 b93c 48e7 d8ba
-0.005400561 0.20352918 0.15148485 0.02078785 -0.08353652 -0.03474997 0.048266184 -0.0020437986
0.0048544854 -0.026226962 -0.0012358086 0.008513756 0.016569588 0.010885466 0.02269059 -0.0016548419

momentum_buffer f4 [16]
00000000: 1b94 44bd 6882 183e b3b9 023e 22d7 09bd
00000010: 30dd 8ebb bebb 1d3c c94f 063d 4276 b4bc
00000020: d621 64bc d043 a139 d067 79ba 3066 7abb
00000030: 67b4 fb3b b942 63bb c397 ec3c 7228 9abb
-0.047992807 0.14893496 0.12766151 -0.033652432 -0.0043598637 0.009627281 0.032790933 -0.022029046
-0.013924083 0.00030758837 -0.00095140655 -0.003820788 0.0076814177 -0.003467722 0.02888096 -0.0047045285
