examples/toy_examples/outputs/last_model_20231127-123632.pth (torch, 8370 bytes, 14 tensors)

enc.lins.0.weight f4 [16, 14]
-0.44287372 0.14409345 0.096537046 -0.079343416 0.017691521 0.02289567 -0.15948859 -0.008800194
-0.019253641 0.035428215 -0.09411804 0.050891705 0.17686553 0.04356375 0.25591335 0.23461542
0.053179126 0.16803777 0.10890645 0.2525952 -0.20318933 0.0540511 -0.0465649 -0.023588244
-0.058741104 0.113900036 0.20900637 -0.16705497 0.442955 -0.14919132 -0.010503189 -0.037953656
0.011618454 0.0139132235 0.034328904 -0.08290719 0.002198238 0.117364384 0.083727665 0.027596213
0.023496028 -0.111148044 0.40689352 -0.07558162 0.017550776 -0.00617235 0.13396852 -0.21680412
-0.08563602 -0.15364829 0.2007468 -0.15774696 0.052082494 -0.25655106 0.0062956423 0.12709922
0.12295238 0.27394015 -0.015234088 -0.08052609 -0.04042469 0.14463982 0.033112008 0.20320682
-0.1944586 0.120172106 0.16047552 0.11499918 -0.010520272 0.1378049 -0.30838472 -0.21371053
-0.03900854 -0.03981323 0.15105292 0.19555771 0.14590564 -0.10912778 -0.2045752 -0.24673529
0.07826063 -0.23092686 -0.25993285 -0.120923236 -0.2544152 0.046973415 -0.1890807 -0.1374966
0.26924625 -0.023491237 0.2131013 0.01613288 -0.030558364 -0.098050416 -0.24229373 -0.22473997
0.17052998 -0.0470017 -0.18220592 0.45647615 0.07591841 -0.07288039 -0.19245617 -0.21604449
-0.21394473 0.22166137 0.18459058 0.043360133 -0.1453093 -0.06291814 -0.24097511 0.13809545
-0.24454893 -0.2598763 -0.08340627 0.14481351 0.030135201 0.029518628 -0.08442424 0.020437142
0.021933798 -0.0942697 0.16772114 -0.10487377 0.17106836 -0.1305399 -0.17412893 0.38226762
-0.058364537 0.28152543 -0.13400619 -0.0050550275 -0.08806731 0.07911173 0.21425235 0.08175925
0.07319517 -0.17734797 0.049777377 -0.04161168 0.09382296 -0.15895937 0.1918732 0.23574279
0.16461648 0.014388237 0.12211961 -0.24921107 0.21201825 -0.069670856 0.10693956 -0.056316588
-0.10182341 -0.10575598 0.4043057 -0.42121804 0.18257204 0.17191944 -0.00024085786 -0.18349399
-0.18037245 -0.12000131 0.27308014 -0.16981953 0.104606465 0.1702043 -0.116119415 -0.041515443
-0.35741416 0.42459694 0.09942427 0.1496079 0.03896983 0.04785756 -0.12487673 -0.03814137
0.047060616 0.05343209 0.17447972 -0.12416053 0.2045564 0.053873405 0.25093278 -0.37351415
-0.0598712 0.032263163 -0.038711075 -0.11543938 0.15410425 0.0054105893 0.12176881 0.12309844
-0.17120443 -0.0897169 -0.015731065 -0.08575389 -0.1857948 -0.16383033 -0.019373575 0.14663714
0.17450517 0.17953911 0.002266634 -0.0023495355 0.07553484 0.03322708 -0.047594886 0.10166404
-0.20588578 -0.2245697 -0.14078642 -0.15443078 -0.21055733 -0.27347562 0.045983873 -0.03160859
-0.18558761 -0.086710915 0.06123736 -0.15537901 0.006999649 -0.003936496 0.07900863 0.13324232
00000000: 58c0 e2be 3c8d 133e 37b5 c53d cd7e a2bd
00000010: cfed 903c b38f bb3c fa50 23be b02e 10bc
00000020: d0b9 9dbc 2d1d 113d f5c0 c0bd d273 503d
00000030: 3d1c 353e e76f 323d 1307 833e 063f 703e
00000040: 5bd2 593d 1812 2c3e 580a df3d 2854 813e
00000050: dd10 50be b064 5d3d d6ba 3ebd 223c c1bc
00000060: 839a 70bd 6c44 e93d c405 563e 7510 2bbe
00000070: ffca e23e 9cc5 18be 9115 2cbc 4b75 1bbd
00000080: 545b 3e3c 4af4 633c 779c 0c3d 3fcb a9bd
00000090: 5010 103b bd5c f03d 6979 ab3d 7411 e23c
000000a0: be7a c03c 96a1 e3bd 5954 d03e 89ca 9abd
000000b0: a5c6 8f3c 6d41 cabb 0b2f 093e e601 5ebe
000000c0: f061 afbd fa55 1dbe 9290 4d3e 6b88 21be
000000d0: 7454 553d a95a 83be ad4b ce3b 4c26 023e
000000e0: 75ce fb3d e241 8c3e 6598 79bc ddea a4bd
000000f0: 5c94 25bd 761c 143e 75a0 073d 7315 503e
00000100: 2820 47be cb1c f63d b253 243e b184 eb3d
00000110: 385d 2cbc ba1c 0d3e 9ae4 9dbe efd6 5abe
00000120: 6bc7 1fbd 3313 23bd 9ead 1a3e 4840 483e
00000130: 4a68 153e 637e dfbd 297c 51be 2da8 7cbe
00000140: 1c47 a03d 1778 6cbe eb15 85be 9aa6 f7bd
00000150: b642 82be 3267 403d 5f9e 41be e9cb 0cbe
00000160: a5da 893e b270 c0bc 3a37 5a3e 1a29 843c
00000170: 8955 fabc a8ce c8bd d91b 78be 3c22 66be
00000180: 699f 2e3e db84 40bd 3094 3abe 3eb7 e93e
00000190: 1d7b 9b3d 5042 95bd 3b13 45be c43a 5dbe
000001a0: 5414 5bbe 33fb 623e 5005 3d3e 659a 313d
000001b0: f6cb 14be 3adb 80bd 2ec2 76be e568 0d3e
000001c0: 096b 7abe 820e 85be e8d0 aabd fe49 143e
000001d0: 19de f63c 0dd1 f13c 9ee6 acbd cb6b a73c
000001e0: 82ae b33c 7910 c1bd 17bf 2b3e 0fc8 d6bd
000001f0: 8b2c 2f3e 40ac 05be db4e 32be 95b8 c33e
00000200: a70f 6fbd 1a24 903e eb38 09be a5a4 a5bb
00000210: a25c b4bd 5505 a23d f864 5b3e 6571 a73d
00000220: 59e7 953d b59a 35be 5de3 4b3d 0271 2abd
00000230: 4126 c03d 3fc6 22be 687a 443e 8f66 713e
00000240: 3991 283e a4bc 6b3c d919 fa3d 3031 7fbe
00000250: 501b 593e 98af 8ebd 2103 db3d 39ac 66bd
00000260: cb88 d0bd 9796 d8bd 2801 cf3e e4a9 d7be
00000270: 2af4 3a3e a60b 303e ca8e 7cb9 d9e5 3bbe
00000280: 8eb3 38be 3fc3 f5bd 29d1 8b3e 2ce5 2dbe
00000290: ea3b d63d 094a 2e3e 04d0 edbd 190c 2abd
000002a0: fdfe b6be c564 d93e f49e cb3d d032 193e
000002b0: d49e 1f3d 4a06 443d 5fbf ffbd 203a 1cbd
000002c0: a2c2 403d 9bdb 5a3d d0aa 323e e047 febd
000002d0: 3c77 513e 5caa 5c3d 437a 803e 3f3d bfbe
000002e0: 813b 75bd 6126 043d 818f 1ebd 7b6b ecbd
000002f0: 81cd 1d3e 504b b13b ed61 f93d 091b fc3d
00000300: 3750 2fbe 7ebd b7bd 6fde 80bc bc9f afbd
00000310: fe40 3ebe 23c3 27be 55b5 9ebc 0c28 163e
00000320: 7cb1 323e 1ad9 373e cf8b 143b aafa 19bb
00000330: 03b2 9a3d 1e19 083d dbf2 42bd 3c35 d03d
00000340: b9d3 52be 99f5 65be 512a 10be 1a23 1ebe
00000350: 579c 57be ff04 8cbe 9659 3c3d 0278 01bd
00000360: ae0a 3ebe 7e95 b1bd 07d4 7a3d ad1b 1fbe
00000370: 505d e53b b9fd 80bb 47cf a13d ad70 083e

enc.lins.0.bias f4 [16]
-0.17462297 0.11540094 0.20181379 0.017206132 0.1361574 -0.10118176 0.053085893 0.07809332
-0.123443216 0.16501176 -0.2526948 -0.10039297 -0.15725324 -0.15865618 -0.16194732 -0.2518378
00000000: 5dd0 32be 5457 ec3d 46a8 4e3e e0f3 8c3c
00000010: d86c 0b3e 6238 cfbd 9870 593d 64ef 9f3d
00000020: cccf fcbd d8f8 283e 3661 81be d49a cdbd
00000030: fe06 21be c476 22be 85d5 25be e2f0 80be

enc.lins.1.weight f4 [3, 16]
0.034740094 -0.16547094 -0.5798229 -0.3004024 -0.268821 0.016917523 -0.306067 0.067585975
0.08797903 0.15713099 0.055141203 0.24930356 0.4630039 0.17291723 0.12937795 0.09101366
-0.5814901 -0.08051623 -0.22318526 -0.24882922 0.0404461 -0.15447037 -0.084883064 0.080430955
-0.29173753 0.29088885 0.06695479 0.507998 0.15981705 0.20470138 -0.052728172 -0.1787544
-0.039028864 0.08628971 -0.06900228 0.11538965 0.034440804 0.05814774 -0.013068929 0.24959204
-0.25782615 0.18777502 -0.018966332 -0.30607197 0.36553714 -0.16090126 -0.061079886 0.17268887
00000000: a14b 0e3d 3771 29be 466f 14bf 58ce 99be
00000010: e8a2 89be 9e96 8a3c d0b4 9cbe 846a 8a3d
00000020: 5a2e b43d f2e6 203e bedb 613d 6f49 7f3e
00000030: d90e ed3e 3711 313e a77b 043e 5f65 ba3d
00000040: 89dc 14bf b1e5 a4bd ad8a 64be 16cd 7ebe
00000050: cfaa 253d 7b2d 1ebe 2cd7 adbd fcb8 a43d
00000060: 9f5e 95be 62ef 943e 981f 893d 280c 023f
00000070: 15a7 233e 3d9d 513e 7ff9 57bd 650b 37be
00000080: bbdc 1fbd a9b8 b03d 1151 8dbd 6951 ec3d
00000090: cd11 0d3d 532c 6e3d 101f 56bc 0e95 7f3e
000000a0: ca01 84be 1848 403e 485f 9bbc 77b5 9cbe
000000b0: af27 bb3e 4dc3 24be e72e 7abd 5ad5 303e

enc.lins.1.bias f4 [3]
0.017605683 0.2913825 -0.14732487
00000000: cb39 903c 1630 953e 55dc 16be

enc.norms.0.module.weight f4 [16]
1.0763062 0.94811666 1.0706221 1.0092884 0.94726056 0.95697635 0.94782794 0.95112485
0.98460746 0.9710655 0.9361008 1.0676324 1.0409764 0.9494693 0.93265605 0.95609343
00000000: 67c4 893f c6b7 723f 250a 893f 5d30 813f
00000010: ab7f 723f 67fc 743f daa4 723f eb7c 733f
00000020: 3c0f 7c3f c097 783f 4da4 6f3f 2ea8 883f
00000030: b73e 853f 6c10 733f 8cc2 6e3f 8ac2 743f

enc.norms.0.module.bias f4 [16]
0.18648508 0.015678203 0.059315626 0.028097207 0.10003472 0.014311152 -0.08870492 0.08231522
0.12241094 0.07840594 -0.031614207 0.2068196 0.18134649 0.11717853 0.056659117 0.013776239
00000000: f2f5 3e3e 936f 803c f1f4 723d 1d2c e63c
00000010: 01df cc3d 5279 6a3c edaa b5bd e294 a83d
00000020: 96b2 fa3d 4b93 a03d e67d 01bd 84c8 533e
00000030: e5b2 393e 4cfb ef3d 6413 683d bcb5 613c

enc.norms.0.module.running_mean f4 [16]
-15.546913 18.591858 2.5946937 -2.769599 -2.913705 -14.244846 -28.19132 1.3484906
7.400834 31.609772 13.14851 19.571224 5.6590457 7.1056952 2.9160173 -30.170149
00000000: 28c0 78c1 20bc 9441 760f 2640 1c41 31c0
00000010: 257a 3ac0 e4ea 63c1 d387 e1c1 579b ac3f
00000020: a2d3 ec40 d0e0 fc41 4c60 5241 de91 9c41
00000030: e716 b540 db61 e340 07a0 3a40 775c f1c1

enc.norms.0.module.running_var f4 [16]
314084.0 614320.5 302767.22 330467.34 452701.03 704783.3 133612.42 460725.88
674442.0 299547.56 57240.8 309308.62 300521.47 234275.64 331483.9 230305.9
00000000: 805c 9948 08fb 1549 e7d5 9348 6b5c a148
00000010: a10b dd48 f510 2c49 1b7b 0248 bcf6 e048
00000020: a0a8 2449 7243 9248 cd98 5f47 9407 9748
00000030: 2fbd 9248 e9c8 6448 7ddb a148 7ae8 6048

momentum_buffer f4 [16, 14]
-0.02100151 -0.096630156 -0.017249541 0.018620076 -0.017760564 0.00822662 -0.0021459293 0.020317787
0.031745493 0.02280097 -0.015256273 0.010366514 0.015189396 0.066138506 -0.005349807 0.03317194
-0.00028732757 -0.000706136 -0.0013979466 -0.009794103 0.0050039985 -0.008654729 -0.007173606 -0.0004840109
0.0012254354 -0.007236273 -0.0058223074 0.0024018679 -0.015497841 -0.027541041 -0.032010186 0.012606354
0.032637127 -0.030277101 -0.013378356 -0.029885814 -0.025888782 -0.041204102 0.01950117 -0.020228894
-0.023772944 -0.047672123 -0.015823105 0.0040002465 -0.013066892 0.01313375 -0.0032663133 -0.0013072527
0.007202991 -0.016708124 -0.013156643 -0.03734612 9.473413e-05 -0.021417042 -0.016661797 -0.026670532
-0.013932502 0.03525419 -0.0023245632 0.007568275 0.005760708 -0.0057595735 0.00729733 -0.011133307
-0.0080015855 -0.018752815 0.00090402924 -0.011599902 -0.010480998 -0.018196477 0.011095702 0.00021217111
-0.003044394 0.004884495 0.0024283365 0.0070984997 0.002780073 0.0005324263 -0.00019745389 -0.0011344057
0.001980796 -0.0030620396 -0.0024546478 0.0031437755 0.012575133 0.08044114 -0.013843111 -0.0028472422
0.018119836 -0.025487976 0.0017272532 -0.002997325 -0.005873623 0.023070881 0.015825378 0.0034452404
-0.0073603624 0.030614512 0.024286158 0.017451772 -0.006532892 -0.018310206 0.00779587 -0.0059709037
0.0003995312 0.0020981012 0.0071644336 -0.0013443972 0.013303463 0.0052771475 0.009685197 -0.008791603
0.023317954 -0.046262532 -0.00853722 -0.004371636 -0.0066905213 0.0051584537 0.0019948902 0.009928362
0.014193159 0.011778563 -0.013305252 -0.0004989505 0.0033790662 0.030519608 0.041800812 0.053131796
0.0027838456 -0.04038986 0.030015318 -0.01289425 0.019545073 0.0037079137 0.0072988654 0.004829928
0.031571466 0.008765382 0.012174557 -0.013586762 -0.037126403 -0.027606273 0.0066560316 -0.0038683754
-0.0040261 0.010394737 -0.002196658 -0.0011710644 -0.0006070902 -0.0022115184 -0.013857437 0.0009982171
-0.00013086223 -0.0067978418 -0.2061284 -0.23097768 0.03460362 -0.04976108 0.00078470167 0.0008766316
0.03145472 -0.010695822 -0.01116878 0.018311273 -0.01397595 0.005060153 -0.0005535092 0.011291011
0.0008430332 0.0005594045 -0.017439079 -0.059475996 0.02666015 0.01672181 -0.0115684075 0.030913336
0.03959986 0.005704894 0.01253515 0.038692135 0.05229184 -0.030760488 -0.061157703 -0.033169128
0.007818217 -0.022694547 -0.0043417094 0.0014529307 -0.001666182 -0.0016949016 0.0038569919 0.0018333853
-0.022459997 0.0014337434 0.0017538683 -0.0004526549 0.00804072 -0.0075933677 -0.002705761 0.0002494048
-0.0022149682 0.008908515 -0.0031637342 0.0031064271 0.0067346147 -0.00102485 -0.0007020804 -0.0004382473
0.0016506037 0.0051707914 0.008080007 -0.023196934 -0.01302985 0.021740574 0.0006775942 0.023454655
-0.0069818525 0.0035078293 0.003673121 -0.012537061 0.009095958 -0.0039466447 -0.0007841412 -0.012866278
00000000: 5c0b acbc 08e6 c5bd e94e 8dbc 2189 983c
00000010: 9a7e 91bc f2c8 063c b8a2 0cbb 7d71 a63c
00000020: 9007 023d 1ac9 ba3c 72f5 79bc 50d8 293c
00000030: f2dc 783c a073 873d 6f4d afbb 4ddf 073d
00000040: 74a4 96b9 fc1b 39ba 4e3b b7ba 7277 20bc
00000050: 95f8 a33b 91cc 0dbc 9210 ebbb d8c2 fdb9
00000060: ca9e a03a 421e edbb 0ec9 bebb a868 1d3b
00000070: a8ea 7dbc c09d e1bc 1d1d 03bd e28a 4e3c
00000080: 82ae 053d af07 f8bc e430 5bbc 18d3 f4bc
00000090: b614 d4bc a2c5 28bd ebc0 9f3c 11b7 a5bc
000000a0: 7abf c2bc d843 43bd 759f 81bc 8014 833b
000000b0: 8416 56bc f12e 573c a50f 56bb 1f58 abba
000000c0: 1107 ec3b 7adf 88bc f68e 57bc 3ff8 18bd
000000d0: 00ac c638 cb72 afbc 527e 88bc 297c dabc
000000e0: 2645 64bc b366 103d b357 18bb 4bff f73b
000000f0: 52c4 bc3b ceba bcbb 711e ef3b 7968 36bc
00000100: 1519 03bc 819f 99bc 60fc 6c3a 840d 3ebc
00000110: 7eb8 2bbc c710 95bc bfca 353c 407a 5e39
00000120: 7584 47bb 1d0e a03b ba24 1f3b 889a e83b
00000130: e331 363b 8692 0b3a a00b 4fb9 57b0 94ba
00000140: 3ed0 013b 80ac 48bb 28de 20bb cd07 4e3b
00000150: ee07 4e3c 53be a43d 37ce 62bc cc98 3abb
00000160: 0d70 943c 29cc d0bc 0065 e23a c56e 44bb
00000170: 8577 c0bb 25ff bc3c 39a4 813c 8bc9 613b
00000180: 322f f1bb 49cb fa3c c4f3 c63c 05f7 8e3c
00000190: df11 d6bb 49ff 95bc 7f74 ff3b 92a7 c3bb
000001a0: 2c78 d139 4c80 093b a0c3 ea3b 7c36 b0ba
000001b0: c5f6 593c eceb ac3b a9ae 1e3c a80a 10bc
000001c0: 4b05 bf3c c87d 3dbd b2df 0bbc f13f 8fbb
000001d0: 293c dbbb 3f08 a93b b4bc 023b 92aa 223c
000001e0: 6c8a 683c e0fa 403c 46fe 59bc 00cc 02ba
000001f0: 5373 5d3b 4204 fa3c 5437 2b3d baa0 593d
00000200: 2e71 363b d66f 25bd afe2 f53c 6842 53bc
00000210: fd1c a03c 7800 733b 522b ef3b 5f44 9e3b
00000220: 1551 013d ad9c 0f3c cb77 473c 039b 5ebc
00000230: db11 18bd 8d26 e2bc d71a da3b 9284 7dbb
00000240: 60ed 83bb b04e 2a3c cef5 0fbb 677e 99ba
00000250: 2225 1fba 1fef 10bb 4e0a 63bc 9cd6 823a
00000260: 1038 09b9 6ec0 debb 5313 53be 6a85 6cbe
00000270: 87bc 0d3d 46d2 4bbd 70b4 4d3a c0cd 653a
00000280: aad6 003d 873d 2fbc 42fd 36bc 8601 963c
00000290: 62fb 64bc a4cf a53b 6019 11ba effd 383c
000002a0: 00ff 5c3a 00a5 123a 66dc 8ebc 1a9d 73bd
000002b0: 6366 da3c 2dfc 883c 6b89 3dbc f73d fd3c
000002c0: 7633 223d 1ff0 ba3b 3b60 4d3c a57b 1e3d
000002d0: f82f 563d 6bfd fbbc 8080 7abd 5adc 07bd
000002e0: fb17 003c eae9 b9bc e644 8ebb 4470 be3a
000002f0: ca63 daba 7627 deba 96c5 7c3b 344e f03a
00000300: 07fe b7bc 72ec bb3a 0ee2 e53a 5052 edb9
00000310: 39bd 033c c9d1 f8bb 2353 31bb 8cc2 8239
00000320: 0029 11bb 05f5 113c a756 4fbb 3395 4b3b
00000330: 0bae dc3b 4254 86ba d10b 38ba 8fc4 e5b9
00000340: 1259 d83a be6f a93b 0162 043c 7f07 bebc
00000350: 277b 55bc 4a19 b23c 94a0 313a fa23 c03c
00000360: 06c8 e4bb 9ce3 653b bfb8 703b 3f68 4dbc
00000370: 3707 153c db52 81bb d38e 4dba 15cd 52bc

momentum_buffer f4 [16]
-4.1311073e-11 -8.051898e-12 6.2805056e-13 -2.1216634e-11 9.222577e-12 6.82989e-12 1.3429279e-12 -5.8118332e-12
1.9592394e-12 2.0496313e-12 4.2278767e-12 -1.2478376e-11 3.6605698e-11 -2.6863017e-11 -1.5068827e-12 -9.595911e-13
00000000: 22b0 35ae 86a6 0dad d0c7 302b 9d9f baad
00000010: cb3e 222d 2e4e f02c 1400 bd2b 577c ccac
00000020: 85de 092c e03a 102c 54c1 942c 9c85 5bad
00000030: 5afe 202e 234a ecad 2c13 d4ab ea0c 87ab

momentum_buffer f4 [3, 16]
-0.14656253 -0.078021154 -0.099166 -0.118869334 -0.09882793 -0.010822564 -0.051221408 -0.13659763
-0.015965227 -0.14619058 0.011505384 -0.041186966 -0.1644372 -0.00057809055 -0.005408276 -0.019933615
0.034600355 -0.019075971 -0.08509149 -0.07288952 -0.009738685 0.024623021 0.03193888 -0.0053300057
0.0127912015 -0.029119067 -0.08603242 -0.13952416 0.011512473 -0.11541371 0.014998786 -0.0038466603
-0.055932578 0.12598915 0.05839348 0.09674542 0.13980392 -0.05549717 -0.06713039 0.12072731
-0.084848866 0.12694402 -0.04608444 -0.08079356 0.11209349 -0.15036136 -0.063114814 -0.12041773
00000000: 7d14 16be 8ec9 9fbd 8b17 cbbd c471 f3bd
00000010: 4c66 cabd 2051 31bc 8acd 51bd 40e0 0bbe
00000020: 82c9 82bc fcb2 15be 1481 3c3c aab3 28bd
00000030: 3a62 28be 008b 17ba e837 b1bb d24b a3bc
00000040: 1ab9 0d3d 3645 9cbc 7244 aebd 1a47 95bd
00000050: 018f 1fbc 38b6 c93c 58d2 023d 54a7 aebb
00000060: 3092 513c 1c8b eebc c431 b0bd 6cdf 0ebe
00000070: d09e 3c3c 065e ecbd 78bd 753c 4018 7cbb
00000080: 8f19 65bd 4d03 013e 002e 6f3d 7622 c63d
00000090: c228 0f3e 0051 63bd a87b 89bd e13f f73d
000000a0: 3ec5 adbd 9dfd 013e 0ac3 3cbd 1877 a5bd
000000b0: 4691 e53d 54f8 19be 5742 81bd 929d f6bd

momentum_buffer f4 [3]
-0.14373559 -0.03841859 0.040467016
00000000: 6c2f 13be d05c 1dbd bec0 253d

momentum_buffer f4 [16]
-0.016719054 0.026111722 0.06832042 0.06410175 0.030558253 -0.0073932037 0.01767631 0.020306444
0.016987506 -0.008876482 -0.0049612653 -0.03876485 -0.030177962 0.0024305116 0.0028337184 -0.022579715
00000000: 66f6 88bc 40e8 d53c 94eb 8b3d c747 833d
00000010: 4d55 fa3c b042 f2bb e9cd 903c b359 a63c
00000020: 6229 8b3c aa6e 11bc 1c92 a2bb e4c7 1ebd
00000030: c637 f7bc 3849 1f3b e8b5 393b 18f9 b8bc

momentum_buffer f4 [16]
-0.026991904 0.035767734 -0.011544824 0.011102676 0.020407595 -0.009680993 0.032813016 0.014065804
0.000113770366 0.012946466 -0.0124132745 -0.07267609 -0.010511816 -0.015699795 -0.0049137147 -0.02418181
00000000: 201e ddbc 3081 123d 8026 3dbc 00e8 353c
00000010: d42d a73c 079d 1ebc f166 063d 4274 663c
00000020: 0098 ee38 6a1d 543c 0c61 4bbc 34d7 94bd
00000030: c039 2cbc db9c 80bc 3a03 a1bb ee18 c6bc
