examples/toy_examples/outputs/last_model_20231127-112824.pth (torch, 8181 bytes, 14 tensors)

enc.lins.0.weight f4 [16, 14]
0	0xbee4d9a2	-0.4469729
1	0x3e340656	0.17580542
2	0x3d5bbcaa	0.05364672
3	0xbdb15dae	-0.08660446
4	0x3cbfbe99	0.023406314
5	0x3d1d326f	0.038378175
6	0xbe1210a0	-0.14264154
7	0xbd18a3cf	-0.037265595
8	0xbcc02375	-0.023454407
9	0x3bdb683e	0.0066957762
10	0xbda2a6d4	-0.07941976
11	0x3d8d29d9	0.068927474
12	0x3e44e1e1	0.19226791
13	0x3d2f04d1	0.042729203
14	0x3e6ef53f	0.23335741
15	0x3e896f3f	0.26842687
16	0x3d6df3b5	0.058093745
17	0x3e2ccafd	0.16874309
18	0x3df96b4e	0.1217867
19	0x3e6dc644	0.23220164
20	0xbe4aa74f	-0.19790386
21	0x3d5c5be0	0.053798556
22	0xbd4083f2	-0.047000833
23	0xbcb173b4	-0.021661617
24	0xbd8cba24	-0.06871441
25	0x3defee63	0.117153905
26	0x3e522500	0.20521927
27	0xbe2f177c	-0.17098802
28	0x3edc1feb	0.429931
29	0xbe160fca	-0.1465446
30	0xbd159bba	-0.036525466
31	0xbc97ad77	-0.018515332
32	0xbd4519ed	-0.048120428
33	0xbcd468be	-0.025928851
34	0x3c5e4895	0.01356711
35	0xbdb1c62d	-0.08680377
36	0x3cc2d99b	0.023785403
37	0x3ded09c2	0.11574127
38	0x3cd12643	0.02553094
39	0x3d0775b2	0.033071227
40	0x3d3019c6	0.04299333
41	0xbdef9d67	-0.11699944
42	0x3ec642b6	0.3872277
43	0xbdf19d7a	-0.117976144
44	0xbd19419d	-0.03741609
45	0xbcaca1e9	-0.021073299
46	0x3e1bc731	0.15212704
47	0xbe6709ee	-0.22562382
48	0xbdd16775	-0.10224811
49	0xbe1eefeb	-0.15521209
50	0x3e5891c1	0.2114935
51	0xbe26cf4c	-0.16290015
52	0x3c80b202	0.01570988
53	0xbe89566a	-0.2682374
54	0xbb832881	-0.004002631
55	0x3def20d2	0.11676182
56	0x3dd3b45e	0.10337137
57	0x3e994e98	0.29942775
58	0xbd0e134e	-0.03468638
59	0xbda582d7	-0.08081596
60	0xbd6b6daf	-0.05747765
61	0x3df01ef5	0.117246546
62	0x3b75afc7	0.0037488805
63	0x3e567665	0.20943601
64	0xbe3dec50	-0.18547177
65	0x3e0c78af	0.13717912
66	0x3e0b38d2	0.13595894
67	0x3dedd173	0.11612215
68	0xbc342d9d	-0.010997203
69	0x3ded0ac6	0.115743205
70	0xbeaa6c9e	-0.33285993
71	0xbe4caadf	-0.19987057
72	0xbd2976f8	-0.041373223
73	0xbd48da85	-0.04903652
74	0x3e283f77	0.1643046
75	0x3e4499df	0.19199322
76	0x3e144f5b	0.14483397
77	0xbdd6c455	-0.10486666
78	0xbe471779	-0.19442548
79	0xbe79e24b	-0.2440273
80	0x3dad08a9	0.084489174
81	0xbe639498	-0.22224653
82	0xbe811034	-0.25207675
83	0xbdf0639d	-0.1173775
84	0xbe57da41	-0.21079351
85	0x3d33fcfe	0.043942444
86	0xbe5748d7	-0.2102388
87	0xbe0f6c10	-0.14006066
88	0x3e97b6d9	0.2963169
89	0x3bdfd800	0.006831169
90	0x3e868c4b	0.2627891
91	0x3c8d24a9	0.017229395
92	0xbce673ff	-0.028131483
93	0xbdf4e32d	-0.11957393
94	0xbe644633	-0.22292404
95	0xbe4f82c2	-0.20264724
96	0x3e447eac	0.19188946
97	0xbd6bd9b7	-0.057580676
98	0xbe4fbcaa	-0.20286813
99	0x3ee8feed	0.45506993
100	0x3db1bff6	0.08679192
101	0xbd8270f8	-0.06369203
102	0xbe4cb69e	-0.19991538
103	0xbe6d0d1b	-0.2314953
104	0xbe338cc0	-0.1753416
105	0x3e6cf1d7	0.2313913
106	0x3e3022da	0.17200795
107	0x3d05e66c	0.03269045
108	0xbe17867c	-0.14797395
109	0xbd8af0cb	-0.06784209
110	0xbe84197b	-0.2580069
111	0x3e02f93c	0.12790388
112	0xbe870043	-0.26367387
113	0xbe637642	-0.2221308
114	0xbda32c42	-0.07967426
115	0x3e33ed32	0.17570952
116	0x3da2a156	0.07940929
117	0x3cb8c0e6	0.022552919
118	0xbd849f6f	-0.06475722
119	0x3cbcdfcd	0.023055935
120	0x3d0df233	0.034654807
121	0xbd972e82	-0.073819175
122	0x3e4c147f	0.19929694
123	0xbda416f6	-0.08012192
124	0x3e3dad00	0.18523026
125	0xbdcab219	-0.09897251
126	0xbe533ac4	-0.20627886
127	0x3eba87d9	0.3643177
128	0xbd843274	-0.06454936
129	0x3e8475d4	0.25871146
130	0xbe4e9681	-0.201746
131	0xbd2a6420	-0.041599393
132	0xbc394715	-0.011308451
133	0x3dfaede4	0.12252405
134	0x3e6b44fb	0.22975533
135	0x3dc4a257	0.09601276
136	0x3d565af4	0.052332833
137	0xbe25c882	-0.16189769
138	0x3d63820b	0.05554394
139	0xbd5e1c6a	-0.054226317
140	0x3e869fc8	0.26293778
141	0xbcd710ee	-0.02625319
142	0x3e28b5ca	0.16475597
143	0x3e7eaa33	0.24869613
144	0x3e0b6b2c	0.13615102
145	0xbc9d2d4d	-0.01918664
146	0x3dc7ffb9	0.09765572
147	0xbe80982f	-0.25116107
148	0x3e5e0909	0.21683134
149	0xbbe27bb4	-0.006911719
150	0x3dcb1ed0	0.099179864
151	0xbd5d9d8e	-0.054105334
152	0xbdbe2440	-0.09284258
153	0xbda33026	-0.07968168
154	0x3eafacb3	0.34311447
155	0xbeca9687	-0.39567968
156	0x3e862300	0.26198578
157	0x3ea01f2d	0.31273785
158	0xbe120d64	-0.1426292
159	0xbe81fb16	-0.25386876
160	0xbe5d90a8	-0.21637213
161	0xbe25253b	-0.16127484
162	0x3e640eed	0.22271319
163	0xbe267ce1	-0.16258575
164	0x3e1ce718	0.1532253
165	0x3e4c3f0f	0.1994593
166	0xbdb53900	-0.088487625
167	0x3bc78c6f	0.006089739
168	0xbeb90314	-0.3613516
169	0x3ee34ee2	0.4439612
170	0x3db048e5	0.086076535
171	0x3e2ff4a2	0.17183164
172	0xbd7d2090	-0.061798632
173	0xbcd752ed	-0.02628466
174	0xbda1506f	-0.078766696
175	0x3c3d7ccb	0.0115653975
176	0x3d2a89b2	0.041635223
177	0x3d2b34c9	0.041798387
178	0x3da3cd03	0.07998087
179	0xbdf78cb4	-0.12087384
180	0x3e3d4b25	0.18485697
181	0xbc898324	-0.016786166
182	0x3e7dcd7a	0.24785414
183	0xbeb05eeb	-0.34447417
184	0xbd68d270	-0.056841314
185	0x3de025fb	0.10944744
186	0xbe01bc74	-0.12669545
187	0xbe34354d	-0.17598458
188	0x3e0718fd	0.13193126
189	0xbcccd9f3	-0.02500627
190	0x3daeeb7a	0.08541007
191	0x3e02985d	0.12753434
192	0xbe0c12b3	-0.13679008
193	0xbd91a0e4	-0.071107656
194	0xba53478f	-0.00080596743
195	0xbd175fd2	-0.036956616
196	0xbe7436d9	-0.23849048
197	0xbe0059b1	-0.12534215
198	0xbcdcdefa	-0.026961792
199	0x3e2f9883	0.17148022
200	0x3e1f28fc	0.15542978
201	0x3e29787b	0.16549866
202	0x3bb4aed5	0.0055140057
203	0xbc20f181	-0.009823204
204	0x3d8f5335	0.06998292
205	0x3d5202b8	0.051272124
206	0xbd12c062	-0.035828
207	0x3ddb491b	0.10707303
208	0xbe5140b0	-0.20434833
209	0xbe54179d	-0.20712133
210	0xbe154fd2	-0.1458123
211	0xbe2fe840	-0.1717844
212	0xbe6e6d4a	-0.23283878
213	0xbe78a7b3	-0.24282722
214	0xbb900577	-0.0043951827
215	0xbce3ba5f	-0.02779883
216	0xbe210d29	-0.15727676
217	0xbdb526ea	-0.08845313
218	0x3d9afd31	0.07567824
219	0xbe20fdf6	-0.15721878
220	0x3d34aae6	0.044108294
221	0x3b9e8502	0.004837633
222	0x3db8cf76	0.09023945
223	0x3e12cfb4	0.14337045

enc.lins.0.bias f4 [16]
0	0xbe32d05d	-0.17462297
1	0x3dec5754	0.11540094
2	0x3e4ea846	0.20181379
3	0x3c8cf3d6	0.017206114
4	0x3e0b6cd8	0.1361574
5	0xbdcf3862	-0.10118176
6	0x3d597098	0.053085893
7	0x3d9fef64	0.07809332
8	0xbdfccfcc	-0.123443216
9	0x3e28f8d8	0.16501176
10	0xbe816136	-0.2526948
11	0xbdcd9ad4	-0.10039297
12	0xbe2106fe	-0.15725324
13	0xbe2276c4	-0.15865618
14	0xbe25d585	-0.16194732
15	0xbe80f0e2	-0.2518378

enc.lins.1.weight f4 [3, 16]
0	0x3d2dfba0	0.042476296
1	0xbe2606f1	-0.16213585
2	0xbf1315c6	-0.574551
3	0xbe928a62	-0.28621203
4	0xbe7261a1	-0.23670055
5	0x3c8c2565	0.017107675
6	0xbe9f526e	-0.31117576
7	0x3d3c3d6c	0.045957014
8	0x3dd9c56c	0.10633358
9	0x3e1036a3	0.14083342
10	0xbdcbeece	-0.09957658
11	0x3e7c2701	0.24624254
12	0x3ee2354f	0.44181296
13	0x3e02f947	0.12790404
14	0x3df88bea	0.121360615
15	0x3e02e7a0	0.1278367
16	0xbf186693	-0.59531516
17	0xbd794b7b	-0.060863
18	0xbe736126	-0.23767528
19	0xbe97caea	-0.29647
20	0x3ca00680	0.01953435
21	0xbe1bfafe	-0.15232465
22	0xbdcbad5f	-0.09945177
23	0x3df71e05	0.12066273
24	0xbe929dfe	-0.28636163
25	0x3e9002b9	0.28127077
26	0xbdb14fd9	-0.08657808
27	0x3f13cde6	0.5773605
28	0x3e1dfaaa	0.15427652
29	0x3e194228	0.14966643
30	0xbdbd0d9b	-0.09231111
31	0xbe7eeb72	-0.24894503
32	0xbc95c7dd	-0.018283779
33	0x3d8d9f8d	0.069151975
34	0xbda92924	-0.082598
35	0x3dbbd5d5	0.091716446
36	0x3d32e722	0.043677457
37	0x3d6d60c8	0.057953626
38	0x3c067c05	0.0082082795
39	0x3e8f5c8e	0.280003
40	0xbe84af94	-0.25915205
41	0x3e20976a	0.1568276
42	0x3ddb6caa	0.107140854
43	0xbeae5f7c	-0.34057224
44	0x3eadab5a	0.33919793
45	0xbe0d6d7e	-0.13811299
46	0xbda028af	-0.0782026
47	0x3e20b352	0.15693405

enc.lins.1.bias f4 [3]
0	0x3d6aa763	0.05728854
1	0x3ec36aac	0.38167322
2	0xbe273f4a	-0.16332737

enc.norms.0.module.weight f4 [16]
0	0x3f8b8da7	1.0902604
1	0x3f71ad6f	0.94405264
2	0x3f89bdd6	1.0761058
3	0x3f820e7a	1.0160668
4	0x3f71394d	0.9422806
5	0x3f74d0ab	0.956309
6	0x3f72c4a8	0.94831324
7	0x3f76af3d	0.9636114
8	0x3f7d8ebb	0.99045914
9	0x3f75e04a	0.9604536
10	0x3f7120b1	0.9419051
11	0x3f8cdb4d	1.1004425
12	0x3f825278	1.0181417
13	0x3f6ea6db	0.9322335
14	0x3f6fc3b9	0.93658024
15	0x3f77ab33	0.96745604

enc.norms.0.module.bias f4 [16]
0	0x3e03bae6	0.12864265
1	0xbc3d6f7d	-0.011562225
2	0x3c1db901	0.009626628
3	0xbbc1960d	-0.00590778
4	0x3d4cef81	0.050033096
5	0xbd19c3ac	-0.037540123
6	0xbda11b84	-0.07866576
7	0x3d9a0883	0.07521155
8	0x3d8af0ee	0.06784235
9	0x3d9110ea	0.07083304
10	0xbcb1a583	-0.021685367
11	0x3e792f53	0.24334459
12	0x3e4896c6	0.19588766
13	0x3d93f257	0.07223957
14	0x3d22bf3e	0.039733164
15	0x3d51a7cd	0.051185418

enc.norms.0.module.running_mean f4 [16]
0	0xbe3bdfbe	-0.1834707
1	0x3dff0c19	0.12453479
2	0x3e53209b	0.20617907
3	0x3c68d351	0.014210538
4	0x3e0afa7c	0.13572115
5	0xbde57cc2	-0.11205436
6	0x3d0ed057	0.034866657
7	0x3da6aeed	0.08138833
8	0xbdf74b1f	-0.12074875
9	0x3e3cbf18	0.18432271
10	0xbe785973	-0.24252872
11	0xbda08892	-0.07838549
12	0xbe17edf5	-0.14836867
13	0xbe182989	-0.14859594
14	0xbe24e4aa	-0.16102853
15	0xbe881571	-0.26578858

enc.norms.0.module.running_var f4 [16]
0	0x3d9468c7	0.07246547
1	0x3e1ed554	0.15511066
2	0x3d8eb5db	0.0696828
3	0x3d775296	0.060381494
4	0x3dedc26a	0.11609347
5	0x3e34effc	0.17669672
6	0x3cb834d7	0.022486134
7	0x3dd744fb	0.10511204
8	0x3e179a82	0.14805034
9	0x3d78abd4	0.060710743
10	0x3d1db3d2	0.03850157
11	0x3d86c175	0.06579868
12	0x3da3244a	0.07965906
13	0x3d461367	0.048358347
14	0x3dab05c1	0.08350707
15	0x3d83b99a	0.06431885

momentum_buffer f4 [16, 14]
0	0xbafd6f00	-0.0019335449
1	0xbd737218	-0.05943498
2	0xbc9545bd	-0.01822173
3	0x3c0ffbb7	0.008788041
4	0xbc2c797c	-0.010527011
5	0x3af21788	0.0018470148
6	0xbcc0f131	-0.023552509
7	0x3bb883f2	0.0056309635
8	0x3b06c152	0.0020562005
9	0x3d2c395f	0.0420469
10	0xbc1a3e98	-0.009414338
11	0x3c806968	0.015675262
12	0x3ca1ebbe	0.019765731
13	0x3d6eb9cf	0.05828267
14	0xbc448ea6	-0.011996901
15	0x3c945737	0.018107994
16	0x3ad41fac	0.0016183755
17	0xbab79aa0	-0.0014007874
18	0x3b2aea3f	0.0026079563
19	0xbb738848	-0.0037160087
20	0xb9efa689	-0.0004570971
21	0xbbe93530	-0.007116936
22	0xbbd3ae2a	-0.006459971
23	0xbb1a8584	-0.0023578117
24	0x3b4deb41	0.003142074
25	0xbbb4df49	-0.0055197817
26	0xbb819fb5	-0.003955806
27	0xbab855ce	-0.0014063658
28	0x3badb484	0.00530106
29	0x3c9ec904	0.019382961
30	0xbc388623	-0.011262449
31	0x3c108f04	0.00882316
32	0x3c90690d	0.017628217
33	0xbc6e0316	-0.014527103
34	0xbc1bd986	-0.009512311
35	0xbca1063e	-0.019656297
36	0xbcb272ea	-0.02178331
37	0xbd20a1fd	-0.039216984
38	0x3ca026ba	0.019549716
39	0xbc90f64b	-0.017695567
40	0xbc570863	-0.013124558
41	0xbd2c72f8	-0.04210183
42	0x3bc67704	0.0060566682
43	0x3cf49985	0.02985836
44	0xbc1633c0	-0.009167612
45	0x3c843ba9	0.01614173
46	0xbc4be640	-0.012445033
47	0x3c068495	0.008210321
48	0x3c3eb4a0	0.011639744
49	0xbc80827c	-0.01568722
50	0xbc7b4f57	-0.01533874
51	0xbd2b3f06	-0.04180815
52	0x3b8c7296	0.0042861206
53	0xbca3b5d3	-0.019984161
54	0xbc71dd9e	-0.01476231
55	0xbd3c3c18	-0.045955747
56	0xbc7c9db3	-0.015418458
57	0x3cc2600e	0.023727443
58	0xbab4ea50	-0.0013802741
59	0x3ad577a0	0.0016286261
60	0x3bb528c0	0.0055285394
61	0x3a866828	0.001025443
62	0x3b366b4a	0.0027834945
63	0xbc06336b	-0.00819097
64	0xbbe6932a	-0.0070365863
65	0xbca5ee06	-0.0202551
66	0x3b4c6786	0.0031189634
67	0xbc035475	-0.008015742
68	0xbbc21d3c	-0.005923895
69	0xbc6377b9	-0.013883525
70	0x3b872ed8	0.0041254573
71	0x3c2dfcf2	0.010619389
72	0xb869c710	-5.573692e-05
73	0x3b79ba90	0.0038105585
74	0x3b5a8a92	0.0033346754
75	0x3badc066	0.0053024767
76	0xb8bf658b	-9.1265036e-05
77	0xbaeb5853	-0.00179554
78	0xbb19f9c7	-0.0023494826
79	0x3a576b6e	0.00082176074
80	0x3a6cd516	0.0009034438
81	0xbb8579d3	-0.0040733605
82	0xbb5cc664	-0.0033687586
83	0x3aa4e08b	0.0012579126
84	0x3cdaac4e	0.02669349
85	0x3e8fe516	0.28104466
86	0xbc6781a4	-0.01413003
87	0x39df55cc	0.00042597798
88	0x3c0896b2	0.00833671
89	0xbcb1fe82	-0.021727804
90	0x3bb67950	0.005568661
91	0xbb3d14f2	-0.0028851596
92	0xbc79c7a9	-0.015245357
93	0x3cb57ace	0.022153284
94	0x3d2739a1	0.040826444
95	0xbb318542	-0.0027087484
96	0xbbffed36	-0.00781026
97	0x3c9b1030	0.018928617
98	0x3d8cd1d8	0.06875962
99	0x3d2a4ea6	0.04157891
100	0xbb10ce7d	-0.0022095733
101	0xbc076fd2	-0.008266406
102	0x3c3c167d	0.011479971
103	0xbb448c6e	-0.002999093
104	0x3c06de80	0.008231759
105	0x3acce072	0.0015630855
106	0x3c428fd2	0.01187511
107	0xbc7bdbac	-0.015372198
108	0x3ba07a03	0.0048973574
109	0x3b2c1c31	0.002626192
110	0x3b9b6b82	0.0047430405
111	0xbc8281a9	-0.015930967
112	0xbb748abc	-0.0037314137
113	0xbcda6c3e	-0.026662942
114	0xbbc29e9a	-0.005939317
115	0xbc5eaf59	-0.013591611
116	0x3ac5b3b4	0.0015083463
117	0x3aa20453	0.0012360908
118	0xbc0930f1	-0.008373485
119	0x3afcc31e	0.0019284224
120	0x3aea1011	0.0017857571
121	0x3cb4ce3e	0.022071
122	0xbc043000	-0.008068085
123	0x3a2ce954	0.0006596048
124	0x3b6f6730	0.003653001
125	0x3d03522e	0.032060795
126	0x3ce593ae	0.02802452
127	0x3c985d05	0.018599043
128	0xbac5cd06	-0.0015091009
129	0xbc9695a6	-0.018381905
130	0x3c973c49	0.018461363
131	0xbbf3892d	-0.007432124
132	0x3cc613d1	0.024179371
133	0x3c69c170	0.0142673105
134	0x3cd472cd	0.025933648
135	0xbc65b843	-0.014020982
136	0x3c77cd21	0.01512459
137	0x3c49cf33	0.012317467
138	0x3c5452eb	0.012959222
139	0xbcde3371	-0.027124139
140	0xbb49d144	-0.0030794898
141	0x3d00f83b	0.03148673
142	0xbbab4ba1	-0.0052275215
143	0x3b0126e2	0.0019707014
144	0xbbc72bfd	-0.006078242
145	0x3ab72509	0.0013972829
146	0x3bbb963a	0.0057246955
147	0xbb72dc7a	-0.0037057684
148	0xbb306835	-0.002691758
149	0xbc36062d	-0.011109871
150	0x3aebe6eb	0.0017997896
151	0xbc01a3a2	-0.007912548
152	0xbb335c7e	-0.0027368362
153	0xbc533fb2	-0.012893604
154	0xbededb54	-0.4352671
155	0xbed0dd22	-0.4079371
156	0x3cad70fa	0.021172035
157	0xbd016c98	-0.031597704
158	0x3b8daca0	0.004323557
159	0xb96a3500	-0.00022335723
160	0x3bf1f03b	0.007383374
161	0xbc40ccbd	-0.011767563
162	0x3c698022	0.014251741
163	0x3bafd9e4	0.0053665508
164	0xbd7e2c88	-0.062054187
165	0xbb8e9076	-0.004350717
166	0xbbbfd913	-0.0058547347
167	0x3c613ab2	0.013746904
168	0x3ce6d67c	0.028178446
169	0x3c696fb8	0.014247827
170	0xbc836f56	-0.0160443
171	0x3c95f83e	0.018306848
172	0x3bf19102	0.0073720226
173	0x3ca6280a	0.020282764
174	0x3c4d3df0	0.012526974
175	0x3d08708a	0.03331045
176	0x3d629b71	0.05532402
177	0xbd1f690e	-0.038918547
178	0xbb5e9074	-0.0033960612
179	0x3cdbead2	0.02684537
180	0x3cf3b8f3	0.029751277
181	0xbd77419c	-0.060365304
182	0xbce25458	-0.027628109
183	0xbc970fdc	-0.01844018
184	0x39cef3c4	0.00039473
185	0xbc5a1832	-0.013311433
186	0x3b57bd6e	0.0032919305
187	0x3bdea55b	0.0067946143
188	0x3aca5406	0.0015436418
189	0xbb466a30	-0.0030275695
190	0x3b8c1bda	0.004275781
191	0x3c14fef5	0.00909399
192	0xbc8f9e11	-0.017531427
193	0x3986c5c1	0.0002570581
194	0xba731491	-0.0009272779
195	0x3c83f571	0.016108247
196	0x3b75ba20	0.0037494972
197	0xbc4730eb	-0.012157659
198	0xbb839554	-0.004015604
199	0xbb30cdbc	-0.0026978096
200	0x3b063db0	0.0020483546
201	0x3bf7267a	0.0075424286
202	0xbb890010	-0.0041809157
203	0x3ae30946	0.0017321489
204	0x3b7e6860	0.0038819537
205	0x3bb15b07	0.0054124626
206	0xbbde3e8f	-0.00678236
207	0xb9d136cb	-0.0003990441
208	0x3ab15a26	0.0013530895
209	0x3c33df53	0.010978538
210	0x3cef516a	0.029213626
211	0xbc8e6cc5	-0.01738585
212	0xbc5c0edf	-0.01343128
213	0x3c3168e5	0.010828231
214	0x3bb90b04	0.005647065
215	0x3ca5730b	0.020196458
216	0xbc1fde18	-0.009757541
217	0x3bbba8cb	0.005726909
218	0x3b646ab5	0.0034853641
219	0xbb89f18e	-0.0042097038
220	0xbc019b4f	-0.007910564
221	0xb7a4ed60	-1.966086e-05
222	0x3b3e7c9c	0.0029065972
223	0xbb672ff1	-0.0035276378

momentum_buffer f4 [16]
0	0x333abf3d	4.348043e-08
1	0xb1ef8350	-6.970744e-09
2	0x332b492c	3.988059e-08
3	0x32cbe6bc	2.3737236e-08
4	0xb10524e8	-1.9375026e-09
5	0xb2501224	-1.2111318e-08
6	0xb2d8bd6e	-2.5231852e-08
7	0x326ad8f9	1.36699265e-08
8	0xb371d83e	-5.6308856e-08
9	0xb2b314e3	-2.084784e-08
10	0x33203fe3	3.7311008e-08
11	0x32cb2302	2.364823e-08
12	0x32bfa430	2.230999e-08
13	0x32ac9042	2.0089036e-08
14	0x32994f3c	1.7847576e-08
15	0xb385567b	-6.209026e-08

momentum_buffer f4 [3, 16]
0	0xbe10b5c9	-0.14131846
1	0xbdd13e91	-0.10217012
2	0xbdb2e196	-0.08734433
3	0xbddbee1b	-0.107387744
4	0xbdf99fc2	-0.121886745
5	0x3bfb61c8	0.0076715685
6	0xbd471bc4	-0.048610464
7	0xbe23dfa9	-0.16003288
8	0x3b8c34f0	0.0042787716
9	0xbe116746	-0.14199552
10	0xbdc12e3b	-0.09432646
11	0x3d0c5e0e	0.034269385
12	0xbe42c364	-0.19019848
13	0x3d3740a9	0.0447394
14	0x3c63d4e8	0.013905741
15	0x3c59c4ec	0.013291579
16	0xbce6633c	-0.02812349
17	0xbd580666	-0.052740477
18	0xbdce5ef2	-0.10076703
19	0xbdb67091	-0.08908189
20	0xbd233cc0	-0.039852858
21	0xbc693cc0	-0.014235675
22	0xbbb5df40	-0.005550295
23	0xbcaf5148	-0.021401063
24	0xbc9c38c0	-0.01907003
25	0xbd432dc1	-0.047651056
26	0xbda37d40	-0.07982874
27	0xbdf317be	-0.11869763
28	0xbcfbd34e	-0.030740406
29	0xbdc247f8	-0.09486383
30	0xbc989398	-0.018625066
31	0xbd104548	-0.03522232
32	0xbd9022e2	-0.07037903
33	0x3dd972fb	0.10617634
34	0x3dc4bf79	0.09606833
35	0x3db0d9bd	0.0863528
36	0x3db96012	0.09051527
37	0xbcfa2f36	-0.03054009
38	0xbc59f974	-0.013304103
39	0x3d1cc3ee	0.03827279
40	0xbd588a42	-0.052866228
41	0x3d4ae0cc	0.04953079
42	0x3e0896a1	0.1333871
43	0xbd084a15	-0.033273775
44	0x3cd0a07c	0.02546715
45	0xbdb0e424	-0.08637264
46	0xbd05a368	-0.03262654
47	0xbdc5425a	-0.09631796

momentum_buffer f4 [3]
0	0xbe09c49e	-0.1345391
1	0xbdb5318f	-0.08847343
2	0x3d228aff	0.03968334

momentum_buffer f4 [16]
0	0x3c4c79fc	0.012480255
1	0x3cedf3ae	0.02904686
2	0x3d7b2eaf	0.061323818
3	0x3d839ceb	0.06426414
4	0x3d05937a	0.032611348
5	0x3949f900	0.00019261613
6	0x3ca018c0	0.019543052
7	0x3a58b0c0	0.0008266084
8	0x3c9cc4d4	0.019136824
9	0xbccd149c	-0.025034241
10	0x3d064861	0.03278387
11	0xbcb89c0f	-0.022535352
12	0xbd92b0ec	-0.071626514
13	0x3b9b15ea	0.004732837
14	0x3bd502f0	0.0065005943
15	0xbb908800	-0.0044107437

momentum_buffer f4 [16]
0	0xbc494404	-0.012284283
1	0x3cd76c90	0.026296884
2	0x3cb0ae84	0.02156759
3	0x3d2014a7	0.039082196
4	0x3cd44bae	0.025914993
5	0xbc16d272	-0.0092054475
6	0x3d1a5179	0.037675355
7	0xb96ca400	-0.00022567809
8	0x3c1fdff0	0.009757981
9	0xbcb7b7c2	-0.02242649
10	0x3c568968	0.013094284
11	0xbdc9a9d6	-0.09846847
12	0xbd16c485	-0.03680851
13	0xbc59642c	-0.013268512
14	0xbb564fb0	-0.0032701306
15	0xbbf3c839	-0.00743964
