examples/toy_examples/outputs/last_model_20231127-112530.pth (torch, 8757 bytes, 14 tensors)

enc.lins.0.weight f4 [32, 6]
000000 7b e2 9c be e7 1c 8f 3e 13 16 9b 3e df c1 a6 3e
       -0.3064154 0.27951738 0.3029028 0.32569787
000010 e8 10 4d be 3b b6 e9 bd 64 7c ae be 3c 56 90 be
       -0.2002598 -0.11411711 -0.34079278 -0.28190792
000020 b4 a2 57 bd 79 36 a3 bd c8 32 98 3e 2a 88 9f 3e
       -0.0526454 -0.07969374 0.29726243 0.31158572
000030 ac 9c be 3e 59 95 26 be d5 7c b0 be 47 7d bd be
       0.37228906 -0.16267909 -0.3447024 -0.37009642
000040 7e 7a 0e 3e ef f6 a1 be 28 6c cf be 22 05 3c be
       0.13913915 -0.31633708 -0.40512204 -0.18361333
000050 37 af b1 be f3 1b 28 be b8 96 8b be ab 8e 57 be
       -0.3470399 -0.16416912 -0.27263427 -0.21050517
000060 5a 37 bc 3e 89 07 dc bd 55 3c b5 3e 76 d6 de 3d
       0.3676098 -0.10743625 0.35397592 0.10880749
000070 cf 8a b8 bd a1 01 0e be 00 7a 94 be 9a a3 aa be
       -0.09010851 -0.13867809 -0.2899933 -0.33327943
000080 18 c4 8d 3e 18 d5 03 be 88 08 cb be 3b c0 c0 3e
       0.2768867 -0.12874258 -0.39654946 0.3764666
000090 5c 53 d4 bd f1 f8 88 be b0 43 90 be 2a 79 ac be
       -0.10367462 -0.26752427 -0.2817664 -0.3368619
0000a0 0f 75 cf be 65 74 b7 3e 18 89 ac 3e 16 d4 c9 bd
       -0.40518996 0.3583099 0.33698344 -0.09854905
0000b0 c7 84 b4 be 04 6d e2 bd 9c 0c bc be f8 fd 1a 3e
       -0.3525755 -0.11055949 -0.3672837 0.15135944
0000c0 d3 fc 28 be 44 47 04 be 20 40 7e bd 8c 26 6d 3e
       -0.16502695 -0.1291781 -0.062072873 0.23159236
0000d0 48 ec 3a 3e 40 1b 22 3d 4b d1 81 be 88 59 6a 3d
       0.18254197 0.03957677 -0.2535499 0.05721429
0000e0 10 13 80 bd 94 fe aa be f7 54 c2 3e b0 75 da bd
       -0.06253636 -0.33397353 0.37955448 -0.10666978
0000f0 e0 a0 8e 3e a3 5d b8 be 79 f2 df 3d 84 99 32 3e
       0.27857113 -0.3600894 0.1093492 0.17441374
000100 27 f9 c3 be 84 be d4 3d e3 78 cb be 49 75 01 3e
       -0.38276026 0.103879005 -0.39740667 0.12642397
000110 79 73 0d be c1 c0 26 3e 32 e8 b6 3e 9d 50 ca 3d
       -0.1381358 0.16284467 0.35724026 0.09878657
000120 3d b3 2d bd b2 fe 41 be 5b 93 28 3e db b7 43 be
       -0.042407263 -0.18944815 0.16462462 -0.19113104
000130 98 f7 57 3e 4a 8e 17 be e4 6c 99 3e c2 e3 9f 3e
       0.21090543 -0.14800373 0.2996589 0.31228453
000140 5c 27 80 3e 46 e7 5a 3c 38 45 2f 3e 8b 24 bb be
       0.2503003 0.013360804 0.17116249 -0.36551318
000150 08 e4 97 3e d6 76 af be ec ee 3c 3e 7e 3e 99 3c
       0.29666162 -0.34270352 0.18450516 0.018706556
000160 7f f7 21 be 28 86 1f be da fd 80 3e 23 ef 73 be
       -0.15817069 -0.1557852 0.25193673 -0.23821692
000170 94 30 50 bd 7b 32 5b 3e 25 9c 14 3d 91 b4 b7 be
       -0.050827578 0.21405976 0.036281724 -0.3587995
000180 e7 6d e1 be 63 c1 02 be 67 84 bc 3e 04 3f 97 be
       -0.4402916 -0.12769084 0.36819765 -0.29540265
000190 b0 d6 5b 3e 77 1f 98 3e 8b 94 4d be 73 14 24 be
       0.21468616 0.29711506 -0.20076196 -0.16023426
0001a0 92 9d 95 be 36 22 55 3d 38 2f 87 bd 40 27 5d 3c
       -0.2922178 0.05203458 -0.06600803 0.013498127
0001b0 2e 49 2a 3e 63 a4 4a 3e 37 56 e5 bd 16 a1 a2 3d
       0.16629478 0.19789271 -0.11198085 0.07940881
0001c0 ed 72 9c 3d ce 84 bd bb a0 cf a4 3d 77 ba 86 be
       0.07639108 -0.005783654 0.08047414 -0.26314136
0001d0 42 4b bc 3e 52 76 1f 3d f0 fd ca bd 06 01 bc be
       0.36776167 0.0389312 -0.09911716 -0.3671953
0001e0 b6 f7 b8 be e5 c3 d1 3d fa ec 5b bd 4f b0 41 be
       -0.36126488 0.10242442 -0.053692795 -0.18914913
0001f0 35 a4 42 3e f6 6f 69 bc e1 b1 06 3e 3d 20 b3 3e
       0.19007953 -0.014247885 0.13153793 0.34985533
000200 cb bc 3e be b3 7a 4e be d3 79 a0 bd c8 87 19 bd
       -0.18626706 -0.20163994 -0.07835736 -0.037483007
000210 e1 04 8c be 83 27 8e bd b9 68 c7 bb 13 cd 43 3e
       -0.27347472 -0.0694113 -0.006085482 0.19121198
000220 ad 96 b1 3e 40 2a 95 3e 08 2f 95 3c 58 45 4b 3e
       0.3468527 0.29133797 0.018210903 0.19850671
000230 6c 02 0e 3e d1 b3 7d 3d 03 39 ec bd ae ae d7 3d
       0.13868111 0.061939064 -0.115343116 0.105313644
000240 41 95 a9 be 18 a4 b2 be 70 a7 8f 3c 20 7f e2 bd
       -0.33121684 -0.3489082 0.017535895 -0.110594034
000250 5a 0e 4f be d0 36 c4 be b8 42 b5 3e 0c f1 cb bd
       -0.20220318 -0.3832307 0.35402465 -0.099580854
000260 37 4c 4d be fb 01 13 be f3 28 13 3e 2e 50 9e be
       -0.20048605 -0.14356224 0.1437109 -0.30920547
000270 84 98 66 3e 88 29 f9 bc b7 dd 12 3e 6d 28 1f 3e
       0.22519118 -0.030415311 0.1434239 0.15542765
000280 14 01 84 be c0 cf 2d 3e 68 49 ad 3e 29 eb 06 be
       -0.25782073 0.16973782 0.33845067 -0.13175644
000290 f9 1f 3e 3e 0d 37 0e be ad 66 79 3d 49 f5 0d 3e
       0.18566884 -0.13888188 0.060888935 0.138631
0002a0 de 33 2e be 54 01 a0 3e 0a f5 a7 be 5f 58 e6 bd
       -0.17011973 0.31251013 -0.32804137 -0.11247324
0002b0 05 53 87 be f3 0b 97 be e8 bc 70 be 29 fa c6 be
       -0.26430526 -0.29501304 -0.23509562 -0.38862732
0002c0 83 4a ce 3d ee 7b 57 bd 70 54 b2 be 90 f3 8e bb
       0.10072806 -0.052608423 -0.34830046 -0.004362531
0002d0 52 2e 85 be 03 eb be 3e 33 29 7b be 94 a0 ed bc
       -0.26011902 0.37288675 -0.24527435 -0.029007234
0002e0 3d ba fa 3c a2 13 9f 3d 8b 4e b8 bd 20 df 9a 3e
       0.030606383 0.077674165 -0.08999356 0.30248356
0002f0 a1 45 d1 3e 88 49 e0 bd 0c d0 85 3e bb e4 98 3e
       0.40873435 -0.10951525 0.2613529 0.29862007

enc.lins.0.bias f4 [32]
000000 bf e7 b8 be f8 3e ca 3d 54 cd 6c 3e 70 6b 82 bd
       -0.36114308 0.098752916 0.23125201 -0.06368148
000010 14 b8 66 3e 80 82 63 3c 34 20 9f 3e d0 04 10 3c
       0.22531158 0.013886094 0.31079257 0.00879021
000020 40 d2 85 be 7e bd 9e 3e 50 a8 f8 3d 9a d4 b1 3e
       -0.2613697 0.31003946 0.12141478 0.34732515
000030 f0 8d cf 3d 4c fc 5d 3e 0c 54 82 3e 70 c9 8c 3d
       0.10134494 0.21678275 0.25454748 0.06874359
000040 ec 5c c2 bd 94 ae ac 3d cb bd 91 be 1a 82 64 3c
       -0.0949038 0.08431736 -0.28465113 0.013947034
000050 ba 5d 06 be 10 72 d3 3c f2 7e a5 be 90 6f 7f 3e
       -0.13121691 0.025811225 -0.32323414 0.24944901
000060 ed d8 c0 be 54 06 33 3e 84 a7 89 3e a0 91 bf be
       -0.376655 0.17482883 0.26885617 -0.3741579
000070 c2 da bc 3e 6c 62 9b be 34 2e a4 bd 74 a1 58 3e
       0.3688565 -0.30348527 -0.08016625 0.2115534

enc.lins.1.weight f4 [3, 32]
000000 a4 39 4e bd c5 ed 25 3e d5 a3 8d 3d b4 43 f2 3d
       -0.05034794 0.16203983 0.06916014 0.118293196
000010 c7 e8 75 bd 7e da 83 3c 41 4e 59 3e 1b 27 09 3e
       -0.060036447 0.016095396 0.21221258 0.13393824
000020 44 b4 82 bc 4c 92 e4 3d be 44 a7 be e1 2f 9c 3e
       -0.015955098 0.111607164 -0.32669634 0.3050528
000030 7f 8d a9 bd e2 f7 90 bd f0 02 8d be 45 9f 06 be
       -0.08278941 -0.0707853 -0.27541304 -0.13146694
000040 c8 dc 18 3e 15 a8 1c 3e 89 d4 c6 bb 16 ee d6 bd
       0.14927971 0.15298493 -0.0060678166 -0.1049463
000050 de de 95 3e c4 2d ce 3b ed 2b 63 3d dc 5d d9 bd
       0.29271597 0.006292077 0.055461813 -0.106136054
000060 2e 6e 69 3c 7d e2 6e 3e e5 62 93 bc 93 b0 a7 3d
       0.01424746 0.23328586 -0.017991493 0.08187976
000070 f8 c6 22 bd 0b f0 4a 3d 33 24 b9 bd 56 bc 8d 3d
       -0.039740533 0.04954533 -0.090401076 0.06920688
000080 69 9c f9 be b7 3c 48 3e 80 fc 35 3e ba 9f 95 bc
       -0.48752144 0.19554411 0.17772102 -0.01826464
000090 b7 04 19 3e 06 f0 86 bc bf ab 9d bc 1c ef 81 3e
       0.14943205 -0.016471874 -0.019246934 0.25377738
0000a0 2a f4 d8 bd 42 fd 29 3e 4f ca 5b be fc 2e 49 3e
       -0.105934456 0.16600516 -0.21463893 0.1964683
0000b0 4d 7b f3 3d 2a 34 ff 3d 14 1a 06 bd 89 11 db 3b
       0.11888752 0.124611214 -0.032739714 0.00668544
0000c0 62 e0 60 3d 21 79 f0 3d d3 4f fc 3d 84 ad 90 be
       0.054901488 0.117418535 0.12319913 -0.28257382
0000d0 b0 e7 eb 3d 85 bf de bc f8 ce 06 bd e8 ed 40 3e
       0.115188 -0.027190933 -0.032912225 0.18840754
0000e0 45 64 ae bd 6e bc f7 3d 60 ad 0b 3e 11 b3 84 3e
       -0.08515219 0.12096487 0.13640356 0.25917867
0000f0 87 fe 1e bd f6 56 c7 bd 5b 38 21 be 4b 14 b4 bd
       -0.038816955 -0.09733383 -0.15744154 -0.08792933
000100 71 4b 06 3e 26 6b 12 bd b5 e8 3c be e6 e4 ba 3d
       0.13114716 -0.035746716 -0.18448146 0.0912569
000110 d0 37 78 3e 35 a2 43 3d 9c 0b 77 3c c0 c2 15 be
       0.24240041 0.047762115 0.0150784515 -0.14625072
000120 bc 9f 25 be e8 60 b4 3d b0 52 34 be 3d 6c 8f 3d
       -0.16174215 0.08807546 -0.17609668 0.07003067
000130 87 eb f2 bd 8f 38 54 3d c6 e4 18 be f4 bb 76 bd
       -0.118613295 0.05181175 -0.1493102 -0.06023784
000140 78 8b 8b bd 38 fa 9a bd 71 b5 37 3e 42 90 09 bd
       -0.06813711 -0.07567257 0.17940308 -0.03358484
000150 aa 19 0a be 74 84 81 3c bf ad bb bc 4d e7 4c 3e
       -0.13486353 0.015810229 -0.022909997 0.20010109
000160 eb 0c 9c bd 8d 54 f3 3c cf 45 97 3c 46 e2 18 be
       -0.076196514 0.029703403 0.018465905 -0.14930066
000170 e7 61 ee 3d 69 3a 4d be 10 d1 e1 3d 0c bd 5c 3d
       0.11639767 -0.20041813 0.11026204 0.053891227

enc.lins.1.bias f4 [3]
000000 06 9c aa be 7e b5 9d be 90 7a 08 3e
       -0.3332216 -0.3080253 0.13328004

enc.norms.0.module.weight f4 [32]
000000 54 91 86 3f 39 35 76 3f 44 ad 78 3f 6f b5 76 3f
       1.0513101 0.9617496 0.9713938 0.96370596
000010 b8 30 76 3f 64 ff 72 3f 42 f4 74 3f 1a 30 7e 3f
       0.9616809 0.94920945 0.9568521 0.9929215
000020 de b4 76 3f 4b 72 7a 3f c4 3e 7d 3f 1c f9 7f 3f
       0.9636973 0.9783065 0.989239 0.99989486
000030 f5 45 76 3f bd 2e 74 3f 4b e3 78 3f 0a 69 70 3f
       0.96200496 0.95383817 0.9722182 0.93910277
000040 58 c4 76 3f d0 96 76 3f 21 fb 77 3f d8 0f 7a 3f
       0.96393347 0.9632387 0.9686757 0.97680426
000050 c4 5a 7e 3f d9 b4 74 3f fa b5 73 3f 56 c7 7a 3f
       0.9935725 0.9558845 0.9519955 0.9796041
000060 7b 53 75 3f 96 fe 78 3f 17 a4 76 3f b6 8d 7d 3f
       0.95830506 0.9726347 0.9634413 0.9904436
000070 4a 24 73 3f 90 ce 77 3f 4d 99 72 3f 3e e4 6e 3f
       0.9497725 0.96799564 0.9476517 0.9331702

enc.norms.0.module.bias f4 [32]
000000 af ca f1 3d 08 ba cd bd d3 77 e0 b9 af 68 86 bd
       0.11806237 -0.10045248 -0.00042813885 -0.065629356
000010 f8 53 0a 3e 99 f5 6a bd ae b2 09 3c 65 4c 49 bd
       0.13508594 -0.057363126 0.008404417 -0.04914512
000020 6a 73 01 3d 1c be 9c bd dc dc 02 3e 87 36 06 be
       0.031604208 -0.07653448 0.12779564 -0.13106738
000030 a7 e0 67 bd 9d dc 47 bc 93 60 d6 3d 69 b5 ea bb
       -0.05661073 -0.012198594 0.10467639 -0.007162739
000040 2a 11 4d bd 5f 29 58 bd 01 65 35 bb bf ba fa 3c
       -0.050065197 -0.05277383 -0.0027678611 0.030606626
000050 c5 dc 73 3d f8 3c 40 bd c8 a0 1e bd 81 cc 28 3d
       0.059536714 -0.046933144 -0.03872755 0.041210655
000060 eb 80 c6 bb 28 9b 2e bd 77 39 cd bc dc 69 38 bd
       -0.0060578487 -0.042628437 -0.025051815 -0.04502283
000070 c4 dc d1 3c ba 5b 11 3d 46 46 9c 3d 6c 26 ed bb
       0.025617965 0.035487868 0.07630591 -0.0072372463

enc.norms.0.module.running_mean f4 [32]
000000 3f 5b ae be 4d 70 ac 3d 83 e6 57 3e 7a 4c 81 bd
       -0.3405399 0.08419857 0.21084027 -0.06313415
000010 cb c3 6e 3e 19 85 9a 3c 39 e1 9d 3e b7 b8 8d 3c
       0.23316877 0.018862294 0.30835894 0.017299993
000020 be 91 83 be 64 28 90 3e a8 56 11 3e 13 8c af 3e
       -0.2569713 0.28155816 0.14193213 0.34286556
000030 55 34 ad 3d 6f 7a 59 3e ea 3a 85 3e 0d 53 9f 3d
       0.08457247 0.21238111 0.2602151 0.077795126
000040 6d 92 f1 bd 0a ec b5 3d 43 8d 90 be 94 4b 90 3c
       -0.117955066 0.088829115 -0.28232774 0.017614163
000050 df 75 16 be 9f d8 a6 3c ab 0e a7 be 9e 2d 83 3e
       -0.14693402 0.020366965 -0.32628378 0.2562074
000060 e5 07 c1 be 80 85 28 3e 1f d2 91 3e a7 c5 c3 be
       -0.37701336 0.16457176 0.28480622 -0.38236734
000070 ac f8 be 3e f0 a7 97 be 5a b6 a7 bd 1e 0b 4a 3e
       0.37299097 -0.29620314 -0.08189078 0.19730803

enc.norms.0.module.running_var f4 [32]
000000 e9 b4 1a 3d 67 e4 76 3e ef 9f 6e 3d 16 70 57 3e
       0.037770186 0.24110566 0.058257993 0.21038851
000010 50 0e 66 3d 77 b9 7b 3e a8 a0 c8 3d 24 fa 5b 3d
       0.056165993 0.24582468 0.09796268 0.05370535
000020 c0 1f 62 3d ce d8 0b 3d a5 48 65 3d 23 5c 87 3d
       0.05520606 0.034142308 0.055977482 0.066093706
000030 2f 6b 2a 3d 27 d6 71 3e 60 1e 46 3d 23 88 d6 3c
       0.041606124 0.23616849 0.04836881 0.026187962
000040 6f 9d 4d 3e a2 4c a4 3d a8 04 aa 3d 21 2c 2a 3d
       0.20079587 0.08022429 0.08301669 0.04154599
000050 4b 36 62 3d e0 dc 24 3e 22 67 a1 3d ea ab 13 3d
       0.05522756 0.16099882 0.07880999 0.036052622
000060 1e 59 93 3e 6c f8 67 3d d5 62 e7 3c 0e 8d 2c 3d
       0.2877893 0.056633398 0.028245369 0.042126708
000070 ca 4e 50 3d 28 b0 80 3e 5e 2f 6c 3d ee 24 67 3d
       0.05085639 0.25134397 0.05766236 0.056431703

momentum_buffer f4 [32, 6]
000000 6d 71 90 be fd 1d 14 be 2c 28 38 3a 95 a5 db bd
       -0.28211537 -0.14464565 0.0007025029 -0.10724942
000010 b1 32 5e 3d a8 68 81 3b 4a 6a a7 bb d0 9c f7 3a
       0.05424756 0.0039492436 -0.005109106 0.0018891338
000020 3d ff eb 3b e4 0a 0b 3c 1f 82 a8 ba c6 91 3f 3a
       0.0072020576 0.008486483 -0.0012856162 0.0007307794
000030 2b c8 5d bc ee 07 a3 bd 63 1a 27 3b 67 f7 c1 3c
       -0.013536493 -0.07960497 0.0025497905 0.023677541
000040 ca 5d a9 b9 3c b8 b7 bb 5c e2 b6 bc 1d 99 59 3d
       -0.0003230407 -0.0056066792 -0.022324733 0.053124536
000050 32 cd 02 ba 7f ae 6b bb 6a c6 36 bb 14 55 7d 3b
       -0.0004989683 -0.0035962162 -0.002788926 0.0038655447
000060 10 42 e8 bc 34 b9 05 be 96 3d a2 bb 18 99 1f 3c
       -0.028351814 -0.1305893 -0.0049511893 0.00974109
000070 9c 2f 17 bc 86 1c de 3c d3 f5 47 bc 98 31 44 3c
       -0.00922766 0.02711321 -0.012204605 0.011974715
000080 a6 b9 c8 ba e8 4a 79 ba 1a 9a 99 ba f1 05 49 3a
       -0.0015314117 -0.0009509758 -0.00117189 0.0007668427
000090 bd ee 93 bd 87 2c db 3c ce 1e 82 3b e9 d2 e4 3a
       -0.0722327 0.02675463 0.0039709574 0.0017457876
0000a0 34 32 09 bb ee 37 bf 3a 20 fa 40 3c 9f a3 c2 3c
       -0.0020934464 0.0014588812 0.011778384 0.023759661
0000b0 49 60 14 3c d8 86 0c 3d f4 d7 af bb 5a e8 b6 3c
       0.009056159 0.034308285 -0.00536632 0.02232759
0000c0 72 11 78 3d 01 60 62 bd d6 86 0f 3c 2e 65 cc 3a
       0.060563512 -0.055267338 0.008760175 0.0015594119
0000d0 d5 89 9e 3c cc 0d 4e bc c0 59 cb bc c4 23 94 3d
       0.019352833 -0.012576532 -0.02482307 0.07233384
0000e0 11 58 65 ba 7a 44 d0 3c 36 dd 58 bb ea 52 e3 3b
       -0.00087487797 0.025423277 -0.0033090836 0.0069373744
0000f0 00 b3 6b b9 5e f3 68 bd 01 6d 1a bd 9a b0 66 bc
       -0.00022478029 -0.056872718 -0.03770161 -0.014080191
000100 b4 de d2 3c 58 ae 1c bd 6c fc a6 3d e2 a8 67 3e
       0.025740959 -0.038252205 0.081536144 0.22623017
000110 19 a3 96 3c 96 58 10 3d d6 82 03 3b 22 95 92 ba
       0.018388318 0.035240732 0.0020066998 -0.0011183361
000120 5d 51 ee 3d 5b bd 3b bd 48 aa 7d 3b c4 f8 a9 3c
       0.116366126 -0.04583488 0.0038706232 0.020748504
000130 95 4d 03 3a 11 48 67 3b fc e6 c2 3b 32 fc f7 3a
       0.0005008814 0.0035290758 0.0059479456 0.0018919765
000140 f0 a1 0f bb 65 c2 1d 3c 10 a6 3a ba 1d 5c a4 3b
       -0.002191659 0.009628867 -0.0007120082 0.0050158636
000150 00 f9 b1 bc 78 b8 fc bc 11 7f 8c bc 80 da 1f 3c
       -0.021725178 -0.03084968 -0.017150434 0.009756684
000160 48 d2 bb 3c fe 54 83 bc 40 33 cd bc f8 83 1c bc
       0.022927418 -0.016031738 -0.025048852 -0.009552948
000170 74 6f 1a bc 79 50 3e 3c 4e 59 50 3c d8 ff e3 ba
       -0.009425987 0.011615866 0.012716604 -0.0017394973
000180 18 5b 77 ba 06 6a 9f 3c c3 6e f6 3b 56 11 cf 3b
       -0.0009435876 0.019459736 0.007520528 0.0063192053
000190 20 6e 0e 3b 89 2a 1a 3b a7 0c c5 bc 7e b6 17 3c
       0.002173312 0.0023523888 -0.024053885 0.009259818
0001a0 92 0a 4d 3c d9 36 02 3c db ef ce 3a 40 7c 44 b9
       0.012514727 0.007947647 0.0015788035 -0.00018738303
0001b0 55 1f d8 bc fe 4f 6f 3c 1d 9f aa bb 04 30 9c 3c
       -0.026382128 0.014606474 -0.005206956 0.019065864
0001c0 e4 a2 db bb cf c2 88 3c 00 f4 5c 39 00 63 79 b9
       -0.0067027677 0.016694454 0.00021071732 -0.00023783371
0001d0 d4 41 30 bc 39 95 86 bc 43 b4 c2 3c 35 6b 99 bc
       -0.010757882 -0.016428577 0.023767596 -0.018727878
0001e0 58 67 0d 3d ec 00 45 3e dd 0a 10 3d 60 c6 48 3d
       0.034522384 0.19238633 0.03516661 0.04901731
0001f0 8a f3 af 3c 10 50 3d 3c 09 af 08 3b 4a 5f 2d bb
       0.021478433 0.011554733 0.0020856282 -0.0026454502
000200 cb 02 17 39 5d be 4d bb 8c 00 27 b9 84 9a 64 ba
       0.00014401523 -0.0031393983 -0.00015926565 -0.00087205344
000210 98 74 09 ba 89 f8 9c 3c 05 66 8a 3b 26 de 0b ba
       -0.0005243509 0.01916148 0.0042235875 -0.0005335532
000220 f7 f8 ac 3b 32 f7 e8 ba 6e 9b ce bd 54 cb 20 bc
       0.0052787024 -0.0017773865 -0.100882396 -0.009814102
000230 b9 83 02 bc 35 65 03 3d 2e 46 53 3b ae db fc 3c
       -0.007965975 0.03207894 0.0032237875 0.03086647
000240 f2 44 ab 3b 4d 46 83 bb 10 1b ee 3a 73 01 29 39
       0.005226725 -0.0040061832 0.0018166024 0.00016117636
000250 50 4a 80 3b cf eb 3d bb 96 aa 7d 3d 36 ac 3e 3e
       0.0039151087 -0.0028979664 0.06193026 0.18620381
000260 d4 40 81 3c 17 bc f5 bb c8 5d 97 bb 5b 8d 08 3b
       0.015777983 -0.0074992287 -0.004619334 0.0020836208
000270 f0 90 84 bd 83 c4 19 be 76 45 6a bc 08 30 b5 3c
       -0.06472957 -0.1501637 -0.014298787 0.02211763
000280 72 60 b5 bc 5b 3c 8c 3c b4 7f 84 bd d0 98 21 be
       -0.022140715 0.017118623 -0.0646967 -0.1578095
000290 cb cc 92 3c 1f 5e 4e 3d ed 60 27 3c ec f1 f4 3c
       0.017919919 0.05038273 0.01021598 0.029900514
0002a0 a8 32 a7 bd 7e a6 80 bd 12 d9 fe bb 4a 44 81 bc
       -0.08163959 -0.06281756 -0.0077773416 -0.015779633
0002b0 3a 33 4f bb fb 71 00 bb 3e f3 2c 3c a9 8c 85 bc
       -0.0031616227 -0.0019599188 0.01055604 -0.016302424
0002c0 ee 84 ee 3b ec 1d 84 3a 61 10 57 3c a3 52 09 bc
       0.00727903 0.0010079718 0.013126464 -0.008381519
0002d0 98 a6 63 3d a0 28 e1 3c 9d 56 86 bc a0 7e 1a bd
       0.055578798 0.027485192 -0.016398722 -0.037718415
0002e0 a6 e7 a2 bb 52 00 20 bc 20 0a 19 bc 41 37 4e 3a
       -0.0049714623 -0.009765701 -0.009340793 0.000786651
0002f0 8d 5b 4c bb ec c8 10 bc 79 ff 61 bb f8 6a e7 39
       -0.0031182498 -0.008836966 -0.003448455 0.0004413945

momentum_buffer f4 [32]
000000 c8 9b bb 32 dd 72 d9 b1 2a 55 81 32 14 83 84 31
       2.1840506e-08 -6.3285897e-09 1.5056305e-08 3.8566075e-09
000010 af 62 84 b2 8a c3 59 30 9c 7b b8 b2 68 46 8b b1
       -1.5411699e-08 7.922202e-10 -2.147663e-08 -4.0534367e-09
000020 f0 f9 aa 32 6c 61 67 32 d6 05 00 32 3e d8 85 b2
       1.9904263e-08 1.3468121e-08 7.4519075e-09 -1.5581573e-08
000030 94 25 f4 32 fe ad 3e b1 a7 ad a6 32 a2 59 07 b3
       2.8422427e-08 -2.7747542e-09 1.9403911e-08 -3.1513657e-08
000040 db 73 05 32 9b 04 48 32 e4 b1 e5 b2 ca 7d 28 32
       7.767961e-09 1.1642579e-08 -2.6740004e-08 9.807488e-09
000050 7e 1b 31 b2 70 ff 6a 2f d8 a3 0d 31 ef 84 1c b3
       -1.0309007e-08 2.1372926e-10 2.0611335e-09 -3.6442483e-08
000060 4f 16 03 b2 32 1d 00 33 fd a6 3d b3 92 c5 66 b2
       -7.630276e-09 2.9828875e-08 -4.4156867e-08 -1.3432684e-08
000070 9c 41 bf b1 9c 7d 9d b1 ee 45 62 32 57 30 b0 b1
       -5.5662905e-09 -4.5835815e-09 1.31708315e-08 -5.1277698e-09

momentum_buffer f4 [3, 32]
000000 bf 06 8c 3e 89 c1 15 be 40 0a 47 be be 6c 10 be
       0.27348897 -0.14624609 -0.19437504 -0.14103982
000010 70 ad 03 be fd fb 2b be e4 a4 75 be ee 6b 2b be
       -0.1285913 -0.16795345 -0.23988682 -0.1674039
000020 3a 92 31 be 21 59 6e bd 5d b6 a2 be b8 a3 2b bb
       -0.17340937 -0.05819047 -0.31779757 -0.0026190113
000030 18 35 4f be 7c 61 84 3d a5 e9 90 be b5 e1 86 be
       -0.20235097 0.06463906 -0.28303257 -0.26344076
000040 47 79 dd bd 96 c0 30 be b2 5e 7c 3d 00 c7 8f be
       -0.108141474 -0.17260966 0.061613746 -0.28081512
000050 a8 27 ae bc 8a f2 90 3d 30 ae c0 bd 02 4d 0e 3e
       -0.021259144 0.07077511 -0.09408224 0.13896564
000060 e6 98 3c be 8e 4f 11 be 18 f3 8a bd e0 2f 15 be
       -0.18417701 -0.14190504 -0.06784648 -0.14569044
000070 2d 5d 16 3e 5f d8 5f be b4 d6 55 3e 9f 4e 27 3e
       0.14683981 -0.21859883 0.20882684 0.16338585
000080 bd 66 2e 3e 5a 80 7b bc 1c 5a 62 be cc 7b 8d bc
       0.17031379 -0.015350426 -0.22104686 -0.017270945
000090 79 1c 5a be 48 1c 14 3c 94 cf 6f 3c 12 81 20 be
       -0.21299924 0.009039946 0.014636893 -0.15674236
0000a0 88 bf cd 3b bc fa ae bd 28 17 02 3e ce f7 1b bc
       0.006278936 -0.085439175 0.12704146 -0.00951953
0000b0 a2 a3 eb bc c6 b4 67 be 5e 38 ac 3d a4 ef 81 3d
       -0.02876455 -0.22627553 0.08409189 0.06344536
0000c0 01 82 de bc 20 1e f2 ba d4 dc 4e be dc 8c 2f 3d
       -0.0271616 -0.0018472113 -0.20201427 0.042858943
0000d0 32 63 fa bc e7 5a 5b be 00 4b b3 39 6e fb 23 be
       -0.030564878 -0.21421395 0.0003419742 -0.16013882
0000e0 80 56 4c ba 03 72 6a be 2c 29 19 be cc 91 33 be
       -0.0007794872 -0.22895055 -0.14957112 -0.17536086
0000f0 8c 9e 06 be e6 d3 80 3c b2 17 20 bd 02 4f dc bd
       -0.13146418 0.015726041 -0.039085098 -0.10757257
000100 26 c2 48 3d 42 f8 01 3e b5 90 3b be 78 79 48 3e
       0.04901328 0.12692359 -0.1831692 0.19577587
000110 26 52 8c be 60 15 07 3e bd c2 16 3e 77 d9 fd bd
       -0.27406424 0.13191748 0.14722724 -0.12394994
000120 2e a0 fd 3d fe e1 5d 3e 0c 72 6e bd 48 2d 59 3e
       0.123840675 0.2166824 -0.058214232 0.2120868
000130 20 21 d1 3c 31 b8 77 be 34 53 f7 bd 1f 4d 41 be
       0.02552849 -0.24191357 -0.120764166 -0.18877076
000140 27 01 38 3e 7a 9c 1f 3e 52 0c 73 be fd db 34 bd
       0.1796919 0.15587035 -0.23735169 -0.04415511
000150 a5 ca 86 3e de ff 59 be 6d ba 32 3e 4b 60 67 be
       0.2632648 -0.21289012 0.17453928 -0.22595327
000160 9c a7 ff 3d 17 f2 44 be c4 30 21 be e8 15 33 be
       0.12483141 -0.19232975 -0.15741259 -0.17488825
000170 43 da cf bd e3 3a f2 3d 0b 50 79 bd 42 ef 2b be
       -0.10149052 0.11827638 -0.06086735 -0.16790488

momentum_buffer f4 [3]
000000 3f 92 c1 bd d7 7a 65 bd 66 5c f0 bd
       -0.09451722 -0.056025352 -0.117363736

momentum_buffer f4 [32]
000000 40 78 a6 bd 99 b1 0e bd 73 a4 9f bc 3a 67 8c 3a
       -0.081284046 -0.03483734 -0.019487595 0.0010711916
000010 f3 3c a4 bd 10 54 71 3b a5 cf 4f bd 7d bb 3d bd
       -0.08019438 0.0036823787 -0.050735135 -0.04632138
000020 e8 fa 91 bc 91 a6 7f 3a 1f f6 aa 3d 6a e9 9f 3c
       -0.017819837 0.00097522984 0.08347725 0.01952048
000030 56 bf 49 3c 34 87 44 bd 4a 00 ba 3d 9e 23 4b 3d
       0.012313684 -0.047980502 0.090820864 0.049594514
000040 2b 16 04 bd 0c f1 2b bd 68 b9 8f bd 57 5a 9f 3c
       -0.032247704 -0.041977927 -0.07017785 0.019452257
000050 79 5e 3c bd 1e d7 4c 3b 21 5f 24 bc f5 ad b4 bd
       -0.045988534 0.003125615 -0.010032446 -0.08822242
000060 82 a8 4f bc da 0f 92 bd 68 86 c1 bc 41 a3 03 bd
       -0.012674453 -0.0713193 -0.02362366 -0.032138113
000070 97 9d 4f bc ae a4 12 bd 2e 89 a0 bc 80 97 4f 3c
       -0.01267185 -0.035801582 -0.019596662 0.012670398

momentum_buffer f4 [32]
000000 47 a4 2a bd c1 fb b8 bc bc a7 6e 3c 9e 28 e8 bb
       -0.041660573 -0.022580983 0.014566358 -0.00708492
000010 6a 77 cb bd 8f 2e 56 3a a6 07 4e bd a1 2c 20 bd
       -0.09934886 0.000817039 -0.050300263 -0.03910506
000020 ba e2 c3 bc 3c 56 08 3d ee 7f 07 3d 7a 3a 65 3d
       -0.023911823 0.033285365 0.033080988 0.05596397
000030 10 01 df 3c c6 5b 1a bd f5 f6 40 3d b0 29 a6 3c
       0.027222186 -0.03768518 0.047110517 0.02028355
000040 b1 66 c5 bc 6d 7a 1c bd a9 6c 49 bd 9d 96 a9 bb
       -0.024096819 -0.03820269 -0.049175892 -0.005175425
000050 30 a8 f4 3b 80 5c e9 3a cb 9d 08 bc be 6c b8 bd
       0.0074663386 0.0017804056 -0.008338402 -0.09005116
000060 96 26 4f bc 46 2e 89 bd f0 b3 db bc 0e e3 4c bc
       -0.012643477 -0.06698279 -0.0268192 -0.012505306
000070 80 31 a3 bc 9a c3 22 bd b2 c0 39 bc 9e 0a 70 3c
       -0.019921064 -0.03973732 -0.011337446 0.014650969
