examples/toy_examples/outputs/last_model_20231127-121448.pth (torch, 6834 bytes, 14 tensors)

enc.lins.0.weight f4 [16, 2]
00000000: 4002 09be 74e6 00bf 3b19 bf3e fe53 523f
00000010: 8df7 133f 2495 2c3e c5ee 79be 35d4 c63e
00000020: 8f01 4fbe 3a58 0abf 69d8 0d3f 65c4 953e
00000030: a63e e4be da55 203f 454d b33d a66a f83e
00000040: 7704 28bf 8eda ec3d 2477 093f 14a0 193e
00000050: 3e3d 0fbf a7c1 ef3e 1ca7 ac3e e44c a33e
00000060: fbf5 863e 6fe0 e2bc cbb3 a53e 1a4f a5be
00000070: eb0b cebe 7564 e63e 444b 7e3e f7a3 9e3e
-0.13379765 -0.50351644 0.37323937 0.8215941 0.5779961 0.16853768 -0.2440749 0.38833776
-0.20215438 -0.54040873 0.5540834 0.292514 -0.44579047 0.62631 0.08754972 0.48518866
-0.6563181 0.115651235 0.5369742 0.15002471 -0.55952823 0.46827433 0.33721244 0.318946
0.26359543 -0.027694909 0.32363734 -0.32286912 -0.40243468 0.44998518 0.24833399 0.3098447

enc.lins.0.bias f4 [16]
00000000: 2cd9 a0bd 392d c0bd f131 66bd 3ced 3e3e
00000010: 1de8 0abf 84b8 28bf 3079 873e 9e37 c6be
00000020: 13a5 73bd 2ebc 483e 0a1e cb3d 7064 e93e
00000030: 4ad4 bd3d 8043 333e 2ca0 81bd 7cc3 d53d
-0.07853922 -0.093836255 -0.05619997 0.18645185 -0.54260427 -0.6590655 0.26459646 -0.38714308
-0.0594836 0.19603035 0.09917839 0.4558444 0.092690066 0.17506218 -0.063293785 0.10437676

enc.lins.1.weight f4 [3, 16]
00000000: 7c28 413e d668 2c3f b1c0 b8be 9412 50be
00000010: c4b2 4abf 193d a1be 5583 f1bd 8ab7 f9be
00000020: 2241 b9be 0b68 d03e 553b f9be 0dc6 fa3d
00000030: 23e4 aabd 291f 103d 253a 563e 8f0a ffbe
00000040: 0237 0e3f 74fd 623f d466 ccbe 7c67 943d
00000050: 6fca 97be 8cd3 c0be 9751 d4bd 0046 adbe
00000060: c10a 753e 8b71 603f e447 ccbd fa27 2ebf
00000070: 2f16 9ebd 2a46 1b3d c4c6 403e 0ac4 94be
00000080: ff71 91bd 8e0c 96bc f426 aebe e496 f1be
00000090: b41e ccbe 0ea5 1dbe 3abf 673e 5001 d23c
000000a0: 6650 ba3e 6220 b23e 131a d7be 82bd 963d
000000b0: 0abf 00be 1e30 6cbe 9030 493f b13a bd3a
0.188631 0.67347467 -0.36084512 -0.20319587 -0.79179025 -0.31491926 -0.11792628 -0.48772842
-0.36182505 0.40704378 -0.4867808 0.122448064 -0.08344295 0.035185967 0.20920618 -0.49812743
0.55552685 0.8866799 -0.39922202 0.072463006 -0.29646632 -0.37661397 -0.103671245 -0.33842468
0.23929884 0.8767325 -0.099746495 -0.6802975 -0.07719075 0.03790871 0.18825823 -0.29055816
-0.07101821 -0.018316533 -0.34014094 -0.47185433 -0.39867175 -0.15394995 0.22631541 0.025635391
0.36389464 0.3479033 -0.4201208 0.073603645 -0.12572876 -0.2306523 0.78589725 0.0014437047

enc.lins.1.bias f4 [3]
00000000: 7e44 673f faf3 5e3e 42ba 84be
0.90338886 0.21772757 -0.25923353

enc.norms.0.module.weight f4 [16]
00000000: 5db3 643f 358b aa3f ce9a 823f 1c9a 823f
00000010: bec6 9c3f 5f12 7c3f d70f 573f f320 7e3f
00000020: 5654 673f c5f0 a43f cc18 8b3f a395 6d3f
00000030: f212 683f c5b3 663f ae94 653f 933d 803f
0.89336187 1.3323733 1.0203493 1.020328 1.2248151 0.9846553 0.84008545 0.99269027
0.9036306 1.2885977 1.0866942 0.9280645 0.9065391 0.90118057 0.8967999 1.0018791

enc.norms.0.module.bias f4 [16]
00000000: 0f8f e43e 37e8 13bf f543 753e 1e18 7cbd
00000010: d99c 89be 859d 6d3e 42a9 b83e a826 9d3e
00000020: 4e98 a83e a215 fcbe fc4b babc 101c 093f
00000030: 7c84 0a3e ad5a 583e a2e2 343f 5cfd 6c3e
0.44640395 -0.57776207 0.23951705 -0.061546437 -0.26877478 0.2320462 0.36066633 0.30693555
0.329287 -0.49235255 -0.02274131 0.53558445 0.13527101 0.2112834 0.70658314 0.23143524

enc.norms.0.module.running_mean f4 [16]
00000000: 3867 cabd c6f9 63bd c8e6 02bd 5a50 433e
00000010: e2f8 10bf 58b6 21bf 2f23 8a3e 67e6 bcbe
00000020: 7853 9ebd ad95 5f3e 28ec c33d fe33 f43e
00000030: 30b4 cd3d 4ca9 333e 59f3 7ebd f375 fa3d
-0.09882969 -0.055658124 -0.03195837 0.1907362 -0.56629765 -0.6316886 0.26979968 -0.36894533
-0.07730764 0.2183444 0.095665276 0.47695917 0.10044134 0.1754505 -0.062243793 0.12229528

enc.norms.0.module.running_var f4 [16]
00000000: f37f da3b a1a9 a23c 6a11 ee3b f80d 933b
00000010: 86a0 053c e878 083c 532b 4b3c 3468 c33b
00000020: 6b7b 063c 878a cb3b 5cbb 2a3c ea35 a13b
00000030: b30d ab3a f713 893b a4c9 f23b da31 733b
0.0066680848 0.019856276 0.0072652595 0.004487749 0.008155948 0.008329608 0.012400466 0.0059633497
0.008208136 0.006211582 0.0104206465 0.004919757 0.0013050347 0.004183288 0.0074092913 0.0037108571

momentum_buffer f4 [16, 2]
00000000: 9621 c8bc 46db da3b 1c3a 4dbe 367a ba3d
00000010: 6599 78bc f216 533d 0066 a83d 52af 573d
00000020: 0010 fcbc 2ca1 333c 00e1 1b3c 86ae 93bc
00000030: 65bc 03bd 6e43 bcbc f6f9 e93d 6c43 aabc
00000040: cb16 1dbc 0080 5dbd c00e 10bc ddc8 fc3c
00000050: d017 7c3d 92f6 963d 4fff b53e ce53 c0be
00000060: 8085 eb39 3499 6e3c 40b1 37ba 00a0 ca36
00000070: 1a71 c7bb 008d c3bb 3ae2 273e 4490 06be
-0.024430078 0.0066789715 -0.20041698 0.09105341 -0.015173291 0.051535554 0.0822258 0.052657433
-0.030769348 0.010963719 0.009514093 -0.018027555 -0.03216209 -0.022981372 0.114246294 -0.020784102
-0.009587954 -0.05407715 -0.008792579 0.030857498 0.061546147 0.07371248 0.35546347 -0.37563938
0.00044922158 0.014562894 -0.00070073083 6.0386956e-06 -0.006086481 -0.0059677362 0.16394892 -0.1314097

momentum_buffer f4 [16]
00000000: 3b1e 30b4 c8cc 3335 d83d 5fb3 5c9a d932
00000010: f606 fbb4 e02c ddb4 b4a2 53b3 dd6e c1b4
00000020: 8c46 a633 8520 fdb3 1066 7533 df16 55b5
00000030: 204e e7b2 26e3 3834 6cbb 9cb4 add2 4db4
-1.6402275e-07 6.698069e-07 -5.197748e-08 2.533232e-08 -4.6757458e-07 -4.119711e-07 -4.9275243e-08 -3.6029715e-07
7.74281e-08 -1.1787146e-07 5.7136333e-08 -7.9381965e-07 -2.6927466e-08 1.7218971e-07 -2.9193632e-07 -1.9168756e-07

momentum_buffer f4 [3, 16]
00000000: ab45 b2be fe2b 8dbd 4033 9a3d 9a0b b33c
00000010: 59ad 0bbe acf5 7b3d 192b 833c d8d5 993c
00000020: 55a2 44bd 8118 763d 2f11 c73d 88c2 39bd
00000030: 1396 9f3d 2477 dabd b019 8cbd 7769 243d
00000040: b829 29be 05ab 413e 8d49 51bd 904e 383e
00000050: 30df 13bc a821 fb3b 81ca c53d 05f3 513e
00000060: ea36 94bd 52e8 b7bc 9b9c bb3d 4440 903d
00000070: 8495 bdbd adb1 26be 04d5 033d 9251 f83d
00000080: 8042 803e 91ff 95bc 3092 873e d521 17be
00000090: 02dd 363e 96da 2d3e 0478 74be aa17 1abe
000000a0: 8ad7 f2bd 2f9b 4f3e 3380 0ebe cbe9 363d
000000b0: aa62 a03e 7d8c ab3e aa09 a4be c8f8 02bc
-0.34818777 -0.068931565 0.075293064 0.021856118 -0.13640346 0.061513588 0.016011762 0.018778726
-0.048006374 0.060081962 0.097200744 -0.045351535 0.07792296 -0.106672555 -0.06840837 0.04013964
-0.1651982 0.18912895 -0.051095534 0.17998719 -0.00902538 0.0076639242 0.09657765 0.20502861
-0.072370365 -0.022449646 0.091607295 0.07043508 -0.092570335 -0.16278715 0.03218557 0.12124933
0.25050735 -0.01831034 0.2647872 -0.14759 0.17857745 0.16977915 -0.23873907 -0.1504809
-0.11857517 0.20274042 -0.13916092 0.044656556 0.31325275 0.33505622 -0.32038623 -0.007993884

momentum_buffer f4 [3]
00000000: b016 7bbe 14fa 62be dc37 e93c
-0.24520373 -0.2216571 0.028469019

momentum_buffer f4 [16]
00000000: eddc c8bd dcc7 e73d 9d23 dabd 3526 a13d
00000010: 20be 9d3d a455 70bd d99c 8bbd 3eab cabd
00000020: fa47 3abd 2bba 363d f27d 6c3b 4a33 3cbd
00000030: c657 29bd fee9 a3bd a924 08be 8545 6ebd
-0.09807763 0.11317417 -0.10651324 0.078686155 0.07702279 -0.058675423 -0.06817026 -0.09895943
-0.0454788 0.044611137 0.0036085811 -0.04594735 -0.041343473 -0.08003615 -0.13295235 -0.058171768

momentum_buffer f4 [16]
00000000: 18ff 48be 8fe1 4e3d 8290 4a3d e3fb 073d
00000010: 74fc 503e 8f90 253d 58be c4bc 5149 533d
00000020: 081e c7bb e443 14bd c2ff ab3d 18af 66bc
00000030: f2d4 18bc 2d29 92bd 4411 4cbe ba90 573c
-0.1962856 0.05050808 0.04945422 0.033199202 0.20408803 0.040421065 -0.024016544 0.05158359
-0.006076578 -0.036197558 0.08398391 -0.014079832 -0.009328114 -0.0713676 -0.19928461 0.013157064
