examples/toy_examples/outputs/last_model_20231127-124125.pth (torch, 7346 bytes, 14 tensors)

enc.lins.0.weight f4 [16, 6]
-0.39818478 0.33782962 0.24505848 0.4252387 0.121457934 -0.2715512 0.32019824 0.15460896
0.128398 0.18080238 -0.33213714 -0.16684821 0.19239204 -0.38541505 -0.1433217 -0.24402368
0.294141 -0.007081369 -0.4614794 0.51716715 0.17736702 -0.22871107 -0.3270826 0.26515844
0.32248256 -0.39995176 0.27905127 0.25033242 -0.06735425 -0.13646588 -0.4918438 0.1307691
-0.07483295 -0.3304176 0.30680352 -0.043806273 0.22589469 0.34949493 -0.26363 -0.15784857
0.1917274 -0.31177443 0.37588525 -0.12119464 -0.24338871 -0.34917033 0.18975817 0.25254667
0.08991895 -0.39403626 -0.18866529 0.17069198 -0.031129103 0.13946818 -0.49700022 0.12724686
0.18685035 0.21398003 0.3016109 0.31218085 -0.10626988 -0.15242258 -0.04849483 0.12808725
0.17331098 -0.035209835 -0.23586477 -0.31873092 0.39759126 -0.07484241 -0.09644995 -0.26225263
-0.34145033 0.3888417 0.12598646 -0.110553086 -0.20611942 0.16942029 -0.26977628 -0.31023133
-0.06389012 0.37333253 0.020199038 0.00977938 0.013501397 0.26569712 -0.024069782 0.3932797
0.065093726 0.022796145 -0.031399846 -0.19703685 0.31373513 0.2538998 -0.34624207 -0.36859503
00000000: e0de cbbe 01f8 ac3e 9cf0 7a3e e3b8 d93e
00000010: f0be f83d c208 8bbe 06f1 a33e d051 1e3e
00000020: c47a 033e 4224 393e e10d aabe 42da 2abe
00000030: 6b02 453e 1f55 c5be ecc2 12be 58e1 79be
00000040: a699 963e d40a e8bb 0747 ecbe 1165 043f
00000050: b39f 353e 3c33 6abe 5f77 a7be d9c2 873e
00000060: 6f1c a53e 7ac6 ccbe cfdf 8e3e 922b 803e
00000070: 06f1 89bd b6bd 0bbe f3d2 fbbe 56e8 053e
00000080: 0542 99bd 7f2c a9be 5a15 9d3e 356e 33bd
00000090: f050 673e 00f1 b23e 83fa 86be 0ea3 21be
000000a0: 3054 443e e6a0 9fbe 0874 c03e e534 f8bd
000000b0: e43a 79be 74c6 b2be f74f 423e cc4d 813e
000000c0: 6d27 b83d 1fbf c9be 7931 41be e1c9 2e3e
000000d0: 7602 ffbc bfd0 0e3e d076 febe 004d 023e
000000e0: b355 3f3e 951d 5b3e be6c 9a3e 2bd6 9f3e
000000f0: 06a4 d9bd aa14 1cbe 84a2 46bd 4e29 033e
00000100: 6f78 313e 3038 10bd 8986 71be b330 a3be
00000110: 1591 cb3e fa46 99bd 8d87 c5bd fa45 86be
00000120: 94d2 aebe 4216 c73e 9802 013e a869 e2bd
00000130: f810 53be 837c 2d3e 1e20 8abe a4d6 9ebe
00000140: d3d8 82bd 7125 bf3e 7478 a53c b139 203c
00000150: f734 5d3c 7409 883e fe2d c5bc f55b c93e
00000160: dc4f 853d fbbe ba3c 209d 00bd 07c4 49be
00000170: e4a1 a03e 28ff 813e a446 b1be 7db8 bcbe

enc.lins.0.bias f4 [16]
-0.105095 0.27122062 -0.20099355 0.37837964 -0.20525736 -0.36877167 0.17958331 -0.24672242
-0.06435558 -0.12733427 -0.032439083 -0.35573658 -0.37444586 0.17549646 -0.046260834 -0.24626783
00000000: 0c3c d7bd 6edd 8a3e 41d1 4dbe faba c13e
00000010: fc2e 52be a4cf bcbe b0e4 373e cda4 7cbe
00000020: dccc 83bd ea63 02be d8de 04bd 1b23 b6be
00000030: 5eb7 bfbe 58b5 333e 007c 3dbd a22d 7cbe

enc.lins.1.weight f4 [3, 16]
0.15857947 -0.42129353 0.09254148 0.2861635 0.5442327 -0.5075301 -0.19788377 -0.32656062
0.29758126 -0.5167121 0.012518774 -0.028360276 0.23091628 -0.19481847 0.062145576 0.008294404
-0.4165726 -0.04479933 0.14584605 -0.17124122 0.13229081 0.0622746 0.016924959 0.435051
0.040003676 0.07270452 -0.020340951 0.071802996 -0.10273999 0.11597215 -0.17782432 0.041378554
0.098537624 -0.3942401 -0.23062816 0.07324707 -0.2664181 0.25057194 -0.08169065 0.046020836
0.23562303 -0.0761119 -0.04566426 0.2376895 0.077271365 0.40668595 -0.30933347 0.16593565
00000000: a862 223e c9b3 d7be 6386 bd3d 0684 923e
00000010: d652 0b3f 7eed 01bf 0ba2 4abe f432 a7be
00000020: 925c 983e 3f47 04bf 8b1b 4d3c cf53 e8bc
00000030: 5175 6c3e 7e7e 47be 5c8c 7e3d 40e5 073c
00000040: 0149 d5be 817f 37bd ab58 153e dc59 2fbe
00000050: 3e77 073e a713 7f3d 36a6 8a3c 01bf de3e
00000060: e5da 233d 1be6 943d 11a2 a6bc 730d 933d
00000070: 5869 d2bd ce82 ed3d 9417 36be 8f7c 293d
00000080: 18ce c93d d7d9 c9be ca29 6cbe 8f02 963d
00000090: f467 88be f74a 803e 6d4d a7bd 5880 3c3d
000000a0: 2a47 713e 8ee0 9bbd 720a 3bbd e064 733e
000000b0: 7340 9e3d 2439 d03e f560 9ebe 09eb 293e

enc.lins.1.bias f4 [3]
0.22504126 -0.08241033 -0.09772122
00000000: 3771 663e bfc6 a8bd 1022 c8bd

enc.norms.0.module.weight f4 [16]
0.98962355 1.0545986 0.9465786 0.95779085 1.0566849 1.0599654 0.9447319 1.0583192
0.96523535 1.0305374 0.92354286 0.9600545 0.93335027 1.0033438 0.9540385 0.9471311
00000000: f857 7d3f 16fd 863f fa52 723f c831 753f
00000010: 7341 873f f2ac 873f f3d9 713f 0177 873f
00000020: aa19 773f a6e8 833f 4e6d 6c3f 22c6 753f
00000030: 0bf0 6e3f 926d 803f de3b 743f 2f77 723f

enc.norms.0.module.bias f4 [16]
0.22183 0.12065155 0.039659496 0.11184422 0.10028562 0.052874323 0.025027934 -0.06004785
0.1656039 -0.21498835 -0.072198644 0.07901904 0.048925217 0.1351237 0.17361046 -0.017005514
00000000: 6727 633e 2918 f73d ff71 223d 950e e53d
00000010: 8c62 cd3d bf92 583d 6207 cd3c bcf4 75bd
00000020: 1294 293e e825 5cbe e2dc 93bd bcd4 a13d
00000030: cf65 483d de5d 0a3e f1c6 313e 264f 8bbc

enc.norms.0.module.running_mean f4 [16]
42.042202 23.895903 -44.39901 13.472658 15.292243 -32.313972 -33.75015 -52.308228
15.557362 19.781122 5.1585336 3.7487557 12.472545 41.571022 31.609823 40.49523
00000000: 372b 2842 cf2a bf41 9698 31c2 0290 5741
00000010: 07ad 7441 8241 01c2 2700 07c2 a03b 51c2
00000020: f4ea 7841 bd3f 9e41 b512 a540 9deb 6f40
00000030: 8b8f 4741 ba48 2642 ebe0 fc41 1efb 2142

enc.norms.0.module.running_var f4 [16]
246966.3 562821.75 292775.44 457337.22 274501.22 439025.7 885003.6 235789.83
396704.62 455657.78 176200.27 825754.0 256602.69 866647.3 269325.25 173304.2
00000000: 932d 7148 5c68 0949 eef4 8e48 274f df48
00000010: a708 8648 365e d648 ba10 5849 7543 6648
00000020: 14b4 c148 397d de48 1112 2c48 a099 4949
00000030: ac96 7a48 7595 5349 a881 8348 0d3e 2948

momentum_buffer f4 [16, 6]
-0.008873361 -0.023004444 0.022373626 0.0053728814 0.029729187 0.026293833 0.09102094 -0.12849121
-0.049068168 -0.045053024 -0.029735345 0.028224044 0.09561175 0.07028832 0.014637556 -0.010482321
0.028220685 0.009274568 -0.18190141 -0.15549953 0.013141477 0.014942592 0.010196088 0.0033835128
0.028323703 -0.018834738 0.009072704 -0.038916264 0.07938899 0.030114312 -0.014384563 -0.07723892
-0.0024199318 -0.013358158 -0.0081518 -0.021267068 0.038657125 -0.022349674 -0.008612715 -0.0023596496
-0.009156259 0.0058018696 -0.01702483 -0.06591669 -0.044849366 0.0043971147 -0.061073534 0.0024523458
-0.048113532 -0.0026126206 -0.0069482448 -0.00094379624 0.004165918 0.016324382 0.020378232 -0.056789298
0.024270121 0.010317083 0.014287373 0.020188449 0.0122138485 -0.0028727073 0.0031673107 0.0042875535
0.003477156 0.003922629 -0.016518906 0.015820907 -0.008273067 -0.010777225 -0.011430724 -0.009634234
-0.24105377 -0.20718049 0.014309574 0.011181217 0.009706225 -0.0018509015 -0.028700113 0.010476886
-0.01231936 -0.012262488 -0.025269657 -0.019534316 0.14041066 0.025926996 -0.024440091 -0.023658544
-0.0067864065 0.016381478 0.016328711 0.016403021 -0.0119334 -0.008425465 -0.014984765 -0.012044452
00000000: 9361 11bc d173 bcbc e548 b73c ff0e b03b
00000010: a08a f33c 2a66 d73c 3069 ba3d 3393 03be
00000020: b4fb 48bd 8589 38bd 8a97 f3bc 1c36 e73c
00000030: 18d0 c33d 53f3 8f3d 5cd2 6f3c 0abe 2bbc
00000040: 112f e73c 5cf4 173c 5d44 3abe 453b 1fbe
00000050: 594f 573c c6d1 743c 7e0d 273c edbd 5d3b
00000060: 1c07 e83c 4f4b 9abc aea5 143c a966 1fbd
00000070: b296 a23d 4ab2 f63c 3bad 6bbc 702f 9ebd
00000080: b897 1ebb 2ddc 5abc 218f 05bc 4638 aebc
00000090: ef56 1e3d aa16 b7bc 581c 0dbc 5aa4 1abb
000000a0: 2204 16bc 9c1d be3b a877 8bbc 54ff 86bd
000000b0: f8b3 37bd ac15 903b 3e28 7abd 89b7 203b
000000c0: b212 45bd 8038 2bbb 1aae e3bb 1869 77ba
000000d0: 4182 883b b6ba 853c 40f0 a63c e59b 68bd
000000e0: 22d2 c63c fc08 293c 9615 6a3c 3f62 a53c
000000f0: 981c 483c 0844 3cbb a892 4f3b 9b7e 8c3b
00000100: ffe0 633b 6689 803b a852 87bc d99a 813c
00000110: c28b 07bc f592 30bc ee47 3bbc e8d8 1dbc
00000120: cdd6 76be 1f27 54be b472 6a3c 6c31 373c
00000130: dc06 1f3c f399 f2ba 801c ebbc 3fa7 2b3c
00000140: 24d7 49bc 9ae8 48bc 5002 cfbc 6e06 a0bc
00000150: d0c7 0f3e da64 d43c 9636 c8bc 90cf c1bc
00000160: 8160 debb 7332 863c cac3 853c a15f 863c
00000170: 4f84 43bc f60a 0abc a982 75bc 1856 45bc

momentum_buffer f4 [16]
-7.355798e-12 5.8557954e-12 1.0288104e-11 -2.2557568e-12 -9.2485065e-12 -3.0821916e-13 -3.184954e-12 -1.6334479e-11
-7.138768e-12 -9.50607e-12 -1.0663528e-12 1.2988342e-11 1.11049815e-11 3.6277814e-11 -1.843464e-12 -1.128811e-12
00000000: 9267 01ad 5108 ce2c 80fd 342d 1abc 1eac
00000010: 92b3 22ad 1083 adaa 081f 60ac faad 8fad
00000020: 4e2c fbac 893b 27ad 6913 96ab 4b7e 642d
00000030: 645c 432d 308d 1f2e e5b8 01ac b4dd 9eab

momentum_buffer f4 [3, 16]
0.028774813 -0.34632018 -0.0018035956 -0.012866508 -0.091758475 0.06942977 -0.2275077 -0.23266035
-0.031887714 0.063496664 0.025486626 -0.004475549 0.0032092277 0.0061325617 -0.20119272 -0.051618546
0.013752423 0.07011891 0.029248126 0.004568916 -0.0025246227 0.013099216 0.059961434 0.058448568
-0.027964532 -0.0072788857 -0.014489703 -0.023724334 0.0029441714 -0.049580246 0.05986289 -0.049322214
0.15615924 -0.5234865 0.056850124 -0.019780133 0.021988787 0.1961281 -0.45148945 -0.4616838
0.112154275 0.12841322 0.09474101 0.13092859 -0.020040058 0.1288907 -0.3932171 0.13551465
00000000: 28b9 eb3c e150 b1be a066 ecba 0cce 52bc
00000010: deeb bbbd 3231 8e3d c7f7 68be 843e 6ebe
00000020: b19c 02bd 8a0a 823d 54c9 d03c a0a7 92bb
00000030: e851 523b a8f3 c83b 7705 4ebe f86d 53bd
00000040: d851 613c 819a 8f3d c499 ef3c d8b6 953b
00000050: 2474 25bb 189e 563c 1f9a 753d c467 6f3d
00000060: e015 e5bc b883 eebb 3866 6dbc 8959 c2bc
00000070: 00f3 403b a814 4bbd ca32 753d 1706 4abd
00000080: 35e8 1f3e 3603 06bf addb 683d f209 a2bc
00000090: d421 b43c ced5 483e a029 e7be d261 ecbe
000000a0: 24b1 e53d c17e 033e 9307 c23d 2512 063e
000000b0: 0c2b a4bc ecfb 033e c053 c9be 5ac4 0a3e

momentum_buffer f4 [3]
-0.2496943 0.010771334 -0.24033186
00000000: ddaf 7fbe 407a 303c 8e19 76be

momentum_buffer f4 [16]
0.00868402 0.30409294 -0.008137422 0.0043061906 -0.046188556 0.011703575 0.085968606 0.07776607
0.015175397 -0.04199756 -0.004058567 0.029787239 0.0018965448 0.042233855 0.09068284 0.021420682
00000000: 6b47 0e3c 12b2 9b3e d252 05bc f21a 8d3b
00000010: 3630 3dbd 5ac0 3f3c 4f10 b03d d143 9f3d
00000020: 3aa2 783c a205 2cbd bafd 84bb 5e04 f43c
00000030: 7c95 f83a 68fd 2c3d edb7 b93d 6d7a af3c

momentum_buffer f4 [16]
0.025370458 0.23575854 -0.03302329 -0.08974541 -0.07302502 0.043818705 0.06793067 0.035680134
0.0070679095 -0.00077945273 -0.00049586536 0.011977635 -0.05886568 0.022929862 0.06895902 0.0159063
00000000: b5d5 cf3c b06a 713e 6e43 07bd 71cc b7bd
00000010: 248e 95bd 3e7b 333d 3c1f 8b3d 5525 123d
00000020: ec99 e73b 3054 4cba f6fc 01ba d83d 443c
00000030: 241d 71bd 68d7 bb3c 633a 8d3d ee4d 823c
