examples/model_large/best_model_20231023-104715.pth (torch, 17148 bytes, 34 tensors)

inner_products.O_mat.0.weight f4 [3, 3]
000000 ac 00 d6 3f f1 76 4d 3d 06 d7 a0 3b 57 6f 22 bf
       1.6718955 0.05016226 0.0049084453 -0.6345114
000010 cf 2d c5 3e 47 e5 dc 3b c1 3d 90 bd 90 f2 bc 3c
       0.38511512 0.006741199 -0.070430286 0.023064882
000020 83 74 7c 3f
       0.9861528

inner_products.O_mat.1.weight f4 [3, 3]
000000 9b 28 69 3f 78 bd 14 bf aa 12 93 be 95 d9 ab 3c
       0.91077584 -0.58101606 -0.28725177 0.020977775
000010 96 23 9a 3f 4c 4e a6 3e a4 e6 8e 3e 2a 88 75 bd
       1.204211 0.3248161 0.2791034 -0.05994431
000020 62 43 42 3f
       0.7588407

inner_products.O_mat.2.weight f4 [3, 3]
000000 ed ce 28 3f 62 4c 80 3e 04 4e e2 3e 83 cb 14 3d
       0.65940744 0.25058275 0.44200146 0.036326896
000010 29 bb a4 3e be 53 a8 3e 85 36 e7 be f0 cb a8 bd
       0.32174042 0.3287639 -0.45158783 -0.08242023
000020 1b ae 8d bd
       -0.069179736

inner_products.O_mat.3.weight f4 [3, 3]
000000 74 62 7c 3f 9e 28 69 bc 4e 77 74 bb 43 9e f7 bb
       0.9858773 -0.014230875 -0.0037302556 -0.007556708
000010 ab ed 82 3f b0 7d 13 bc 4d 0e 4d 3b a6 3c 20 bc
       1.022878 -0.009002134 0.0031289042 -0.009780085
000020 52 29 81 3f
       1.0090735

inner_products.O_mat.4.weight f4 [3, 3]
000000 f3 7c 77 3f 6e 6f 0d be bc dd a1 bd 79 ec e7 3d
       0.9667503 -0.13812038 -0.079036206 0.113244005
000010 d1 d1 72 3f 71 78 c5 3c 5b 15 a4 bd e9 67 3e 3d
       0.94851404 0.024105283 -0.08011886 0.046485815
000020 da d3 77 3f
       0.96807635

inner_products.O_mat.5.weight f4 [3, 3]
000000 36 bc 5e 3f 30 16 19 3e d1 d0 1b bc 35 d0 8d bd
       0.8700594 0.1494987 -0.009510235 -0.06924478
000010 5f 04 59 3f 14 39 10 be 49 69 5f 3d 43 69 02 be
       0.84772295 -0.14084274 0.054543767 -0.12735467
000020 bf 52 5e 3f
       0.8684501

inner_products.O_mat.6.weight f4 [3, 3]
000000 82 68 71 3f 4c 86 1b 3e 1a f9 65 3d 8e 5d ca 3d
       0.9430009 0.15187949 0.056145765 0.098811254
000010 03 1b 25 3f 73 5a b5 bd 85 b9 25 be fb 7a 3a bd
       0.6449434 -0.088551424 -0.16184051 -0.04552744
000020 15 af 41 3f
       0.7565778

inner_products.O_mat.7.weight f4 [3, 3]
000000 ea 12 cc 3e de 7c 67 3e 01 fe 09 3e 26 d4 2a bf
       0.3985818 0.22606227 0.13475801 -0.6672996
000010 a3 63 00 40 12 cf 36 bd 04 ff 8e 3d 09 ef af bd
       2.0060813 -0.04463107 0.06982234 -0.08590514
000020 ad af 17 3f
       0.59252435

inner_products.O_mat.8.weight f4 [3, 3]
000000 87 59 81 3f 1b 4c b6 be cf e6 6e be f4 8a ab 3f
       1.0105447 -0.3560494 -0.23330234 1.340178
000010 9e 45 95 3f fc 1b 43 be 33 d7 9d be 8b a4 d4 bd
       1.166187 -0.19053644 -0.30828246 -0.103829466
000020 70 30 1d 3f
       0.61402035

inner_products.O_mat.9.weight f4 [3, 3]
000000 f4 01 6d 3f 2f 6c 33 be 6b 79 cb be 41 84 49 3d
       0.92581105 -0.17521738 -0.39741072 0.049198393
000010 c9 c6 28 3f 02 1a 59 bb ee 6a 3c be 23 0f cb bb
       0.6592832 -0.0033127074 -0.18400165 -0.006196873
000020 16 ad 34 3f
       0.7057661

inner_products.O_mat.10.weight f4 [3, 3]
000000 e0 f9 80 3f d1 90 d2 3b 26 14 1b 3c cf dd 57 ba
       1.0076256 0.006425955 0.009465253 -0.0008234651
000010 a7 b7 80 3f a6 f7 fa bb e7 9a 70 bc 1c ac bb bb
       1.0056046 -0.0076589165 -0.014685369 -0.005727304
000020 c9 2b 80 3f
       1.0013362

inner_products.O_mat.11.weight f4 [3, 3]
000000 08 af 80 3f 8f dd 1c 3b 63 2c 92 3a c4 3e f0 39
       1.0053415 0.002393577 0.0011152144 0.0004582313
000010 77 df 7e 3f 6c 9a e9 bb 58 58 29 ba fd 47 a8 3b
       0.9955973 -0.007129004 -0.00064600026 0.005135535
000020 1d 4e 80 3f
       1.0023838

inner_products.O_mat.12.weight f4 [3, 3]
000000 2a ca 80 3f 28 da 99 3b b9 da 41 3b 96 a2 3b ba
       1.0061696 0.0046951957 0.0029579832 -0.0007157711
000010 2f 16 7e 3f 16 3f 19 bc 03 c1 57 bb 7a 74 91 3b
       0.992526 -0.00935342 -0.003292144 0.004438934
000020 db 77 7f 3f
       0.9979226

enc.lins.0.weight f4 [32, 13]
000000 47 34 99 3c e8 cb f1 3e 16 11 7b 3e 19 da 59 3e
       0.018701686 0.4722588 0.24518237 0.21274604
000010 29 af 38 be ad 62 ef bc a7 aa 55 be 16 53 9f 3c
       -0.18035568 -0.029221857 -0.2086588 0.019448798
000020 27 f0 59 be 6a 65 19 3d 54 c4 6e 3d 93 c3 14 3e
       -0.21283017 0.03745023 0.0582927 0.1452773
000030 0d b4 c6 be 93 0c f7 3e b7 d4 8d bd 2e 97 b8 3e
       -0.38809243 0.4825178 -0.06925338 0.3605284
000040 fc 3b 7c bc cf 0e 13 be 35 d8 ea 3d 92 aa e3 3e
       -0.015395161 -0.14361118 0.114670195 0.44466072
000050 05 49 fe be 22 a7 b1 be 30 f2 0a 3e a4 75 8e 3e
       -0.49665084 -0.34697825 0.1356895 0.27824128
000060 8f fe 6a 3d bd 8f 94 be a2 14 22 be 8b 18 8b be
       0.057371672 -0.29015914 -0.15828183 -0.27167162
000070 f5 1e 8d 3e dd 00 a4 bb 40 36 57 3e 6d 7b f9 3d
       0.2756268 -0.0050049857 0.21016788 0.12181745
000080 fc 43 ec 3d 79 d7 94 be 30 38 d5 3e 45 aa 11 3e
       0.115364045 -0.29070643 0.4164443 0.14225109
000090 e6 76 46 be 1c c7 ec 3d eb 26 9d be 02 6c 52 3e
       -0.19381294 0.115614146 -0.30693755 0.20549014
0000a0 c8 43 c8 3e 61 72 2b be f6 03 17 3d d3 ed 5c 3d
       0.39114213 -0.16742851 0.03686901 0.053937744
0000b0 57 96 92 be 07 11 6d 3e 18 e9 07 3f 32 23 be 3d
       -0.28630325 0.23151027 0.5309005 0.09284057
0000c0 64 35 df 3d 89 ae 66 3e a4 c0 47 bd 0f b5 f2 3d
       0.10898855 0.22527517 -0.0487677 0.118509404
0000d0 fa 94 77 be 53 6f 9b be dd f3 8b 3e c4 16 3d 3e
       -0.24177924 -0.3035837 0.2733449 0.18465716
0000e0 17 62 5d be 65 30 f8 bd 20 f3 22 3e de dd 2e 3e
       -0.2161945 -0.121186055 0.15913057 0.17076823
0000f0 cd 56 36 3d 2a 57 96 3e 4c 54 09 be 01 f0 2b 3d
       0.044516373 0.29363376 -0.13411063 0.041976932
000100 45 98 73 3e fa 81 0f 3e 08 f8 57 3e 75 01 17 bb
       0.23788555 0.14014426 0.2109071 -0.002304164
000110 07 f0 00 3e 85 94 6e 3e 9f f8 63 be 60 2f ee bd
       0.12591563 0.23298843 -0.2226281 -0.1163013
000120 43 e1 0a bf 8f 91 80 3e c2 ff 88 be 00 38 9e 3e
       -0.5424997 0.25111052 -0.26757628 0.309021
000130 b4 23 71 be 76 9f 78 3d 5b 91 d3 bd 0b 3f 2f 3e
       -0.23548776 0.06069895 -0.10330459 0.17113893
000140 95 60 6f be e8 d7 53 be 59 bb f2 bd 5d ac 55 be
       -0.23376687 -0.2068783 -0.1185214 -0.20866533
000150 d1 40 b2 3e 50 0d 68 3e 6f 16 81 bd ad bc 85 be
       0.34815076 0.22661328 -0.06303107 -0.2612051
000160 01 20 25 be 20 ee c1 bb 3b 23 e9 bd 91 0c e3 bd
       -0.1612549 -0.0059182793 -0.11383673 -0.11086381
000170 50 02 9a 3e a0 7b 2e 3e c5 de f4 3d eb d7 b5 be
       0.3007989 0.17039347 0.119565524 -0.35516295
000180 33 67 96 be 0e 62 88 be 26 2c e6 3e a3 3b 8e bd
       -0.2937561 -0.2663731 0.44955558 -0.069449686
000190 8d a4 6d be 36 d3 06 3d 52 15 72 3e 61 ca 95 3e
       -0.23207302 0.03291627 0.23640946 0.29255965
0001a0 11 36 c9 bd d1 43 0a 3e 10 0e b6 3d 6d af f8 bb
       -0.098247655 0.13502432 0.08889401 -0.0075892718
0001b0 b7 75 81 3e 2d 2c 4f bc 5a 13 12 3e e7 c8 d7 3e
       0.25285122 -0.01264481 0.14265195 0.42145464
0001c0 a3 41 5d 3e 77 e4 9b be 70 38 0a bd 15 3f 80 be
       0.2160707 -0.30447742 -0.03374523 -0.25048128
0001d0 3e c3 49 3d 72 13 20 3c fd 6d aa be 2f 1c e7 bc
       0.049258463 0.009770261 -0.3328704 -0.028211681
0001e0 cf 24 53 3d 6c e9 2c 3e 00 51 4d 3e 55 93 c8 3d
       0.051548775 0.16885918 0.2005043 0.09793726
0001f0 c0 be b2 be 11 71 d2 3e 91 95 e6 3e 6a 63 68 3c
       -0.34911156 0.41101888 0.45035985 0.014183858
000200 e5 db 6a be e6 0f 43 be dd ba 68 be 97 4b 11 bd
       -0.22935446 -0.19049034 -0.22727533 -0.03547248
000210 1c fd 38 3e 99 8e 2c 3e 7c 2c 09 be e6 06 c2 bd
       0.18065304 0.16851272 -0.13395876 -0.09473972
000220 9f fa c7 3d 83 ce 90 be a5 94 7e bd ca 08 e0 3d
       0.09764599 -0.28282556 -0.062153477 0.109391764
000230 80 f8 da bd 65 c8 ce 3d 8a 2f 11 bd fe 11 04 3f
       -0.10691929 0.10096816 -0.035445727 0.51589954
000240 36 73 1e bf 04 8f 85 3e 83 86 ee 3d a4 62 48 be
       -0.6189455 0.26085675 0.1164675 -0.19568878
000250 94 3f 22 3e db 16 ae 3d f8 d7 c0 3d 88 13 59 be
       0.15844566 0.08500453 0.09416193 -0.21198857
000260 e5 47 db be 8b e4 4a be ad b6 87 be 2c 6e 83 3e
       -0.4282829 -0.19813745 -0.26506558 0.25669992
000270 ae bf 80 be 32 f2 44 be c2 b8 84 3e bd 03 11 3e
       -0.2514624 -0.19233015 0.2592221 0.14161582
000280 a3 b2 2c 3e 1b f6 7e 3e 39 e0 6a be 5b bc 0a bd
       0.1686502 0.2489857 -0.22937097 -0.033871036
000290 92 9b b1 3c 02 65 9a 3e 8d 05 9a bd 2a ab 86 bc
       0.021680627 0.30155188 -0.0752059 -0.01643904
0002a0 8f a3 21 3e 33 33 d4 3c 2d 20 39 be c6 57 dd bd
       0.15785049 0.02590332 -0.1807868 -0.10807757
0002b0 eb f3 70 bd 66 d7 0b bd 13 d3 9b 3e 0d bf 11 3e
       -0.05882637 -0.034140967 0.30434474 0.14233036
0002c0 67 bc 11 3f b1 5b ac 3e c0 b4 c5 bd 63 51 92 be
       0.56928104 0.33663705 -0.09653616 -0.28577718
0002d0 48 c2 de 3d dc 81 df bd 59 05 ad 3e f7 d8 0a 3f
       0.108769 -0.109134406 0.33793142 0.5423731
0002e0 8e af c6 3d e7 ca 65 3e 13 74 c1 bd 2c 64 b2 bd
       0.09701453 0.22440682 -0.094459675 -0.087105125
0002f0 43 b3 73 be 4f 13 c9 be dc 05 20 be 71 dc 7d 3e
       -0.23798852 -0.39272544 -0.15627235 0.24791123
000300 a1 7d 95 bd 3a a2 a4 3e 81 e7 5d be 1e 7f 55 be
       -0.072993524 0.3215502 -0.21670343 -0.20849273
000310 f6 85 14 3e ac a2 80 be 27 f4 da bd a5 b6 b3 3c
       0.14504227 -0.2512411 -0.106910996 0.021937678
000320 db d1 81 be fb 11 31 3d 12 51 44 3e f1 13 62 bf
       -0.2535542 0.043230038 0.19171551 -0.8831168
000330 e0 a8 05 be 09 b8 8e 3e 3f 51 b4 3d 07 0c 91 be
       -0.13052702 0.27874783 0.08804559 -0.2832949
000340 64 88 49 bd b7 4f 27 3e 04 b4 b0 3e 8d 3b 0f 3e
       -0.049202338 0.16339003 0.3451234 0.1398756
000350 e9 0e 4e 3d e0 f0 96 3e dd 6b 28 3e 62 9a 52 3e
       0.05030719 0.29480648 0.16447397 0.20566705
000360 2a 75 62 be f5 23 22 3e e7 ea b8 3c 99 2d 39 3e
       -0.22115007 0.15834029 0.022572948 0.180838
000370 9e dd 56 3e 61 08 74 be 11 c2 88 3d 4e 12 ca bd
       0.20982978 -0.23831321 0.0667764 -0.098667726
000380 f6 e2 4f be 04 f3 47 3d be 8a a7 3e dc 70 02 3e
       -0.20301422 0.048815742 0.3272304 0.12738365
000390 d3 a3 00 3d fb aa ad 3d e8 7e 90 be 9b c5 9d be
       0.031406235 0.084798776 -0.28221822 -0.30814824
0003a0 bb 3f a6 be 49 ba 76 3e 53 34 0d be 56 54 80 bd
       -0.32470497 0.240945 -0.13789491 -0.06266086
0003b0 f6 56 81 3e c5 55 73 3b 10 d5 51 3c bd 4b 8e 3e
       0.25261658 0.003712998 0.012807146 0.2779216
0003c0 cd eb 00 be f7 7b c9 be 5a 9f 67 3e 2c 51 9f 3c
       -0.12589951 -0.3935239 0.22619382 0.019447885
0003d0 38 8b 30 be 08 20 c8 3c a9 16 29 3d 8b c0 81 3c
       -0.17240608 0.024429336 0.041281376 0.015838882
0003e0 df 28 e8 3d a2 37 0f 3f 61 fd 8e bd 0b de 87 bd
       0.113359205 0.55944264 -0.06981922 -0.06634148
0003f0 e6 92 6e 3e 32 72 37 3e f0 c5 9f be c6 c9 7b bd
       0.23298225 0.17914656 -0.31205702 -0.061471723

enc.lins.0.bias f4 [32]
000000 bd e8 d4 3d 36 41 8c bc 15 12 b6 3e fb 67 92 be
       0.10395954 -0.017120939 0.3556067 -0.28594956
000010 c0 75 36 bd ce b5 84 bd 54 b5 c6 3d 9b 2c 22 bd
       -0.04454589 -0.06479989 0.09702554 -0.03959332
000020 9e 38 38 be 15 65 8a be 0a b4 87 3d 38 d6 75 be
       -0.17990348 -0.27030244 0.066261366 -0.24007499
000030 b1 c7 41 be cc 38 a2 3d 84 fe 64 bd 05 ab 92 3d
       -0.18923832 0.079209894 -0.055906788 0.07161526
000040 63 8d fb 3e 3e 63 57 3e 13 71 b3 3e be 53 36 be
       0.49131307 0.21033952 0.35047206 -0.17805383
000050 d6 08 7d bd 55 2d f3 3e 16 85 06 3e 8e 74 61 3d
       -0.061776005 0.47495523 0.13136706 0.055042796
000060 88 b1 09 be 85 b2 83 3e 85 1d 92 3e 10 dd e6 bc
       -0.13446629 0.25722137 0.28538147 -0.028181583
000070 5f 33 91 bd 41 4e 41 be b9 72 74 3e 24 05 29 be
       -0.070898764 -0.18877508 0.23871888 -0.16505867

enc.lins.1.weight f4 [5, 32]
000000 e9 54 1a 3e 67 6f 24 be 95 19 c9 be 9e a5 93 3d
       0.15071453 -0.16058122 -0.3927733 0.07209323
000010 59 5e 9a 3e 32 a7 4b 3e 94 f7 4d 3d d5 5a c0 3c
       0.30150107 0.19887999 0.050284937 0.023480812
000020 d5 83 00 3e 24 43 0e be 74 76 b8 3d 08 08 7d 3e
       0.1255029 -0.138928 0.09006968 0.24710095
000030 f0 5e 23 3e 98 cb bb 3d 88 6f 15 3e 51 39 bf be
       0.15954185 0.09169692 0.14593327 -0.37348416
000040 f4 61 e2 be ac 5b a0 3d 39 85 cb be 6a 4c 35 bd
       -0.44215357 0.07829985 -0.39750078 -0.044262327
000050 16 f2 17 be 06 63 09 3d 3f c0 00 3d b0 ff 57 bd
       -0.14838442 0.0335417 0.03143334 -0.052734077
000060 ae 4c 94 be 2d 7e 5c 3e 2f 7a 05 3f 33 b6 75 3e
       -0.28964752 0.21532507 0.5213956 0.23995285
000070 ec 5d 03 3f 0f fc 9c 3e b8 88 1c 3f 0c e5 10 3e
       0.5131519 0.30661055 0.61146116 0.14149874
000080 d4 99 0b bf c6 88 a1 be 13 08 21 3e 3b bb 39 bd
       -0.545316 -0.31549662 0.15725736 -0.045344573
000090 e6 02 1e 3e dc 78 70 3d 60 f4 97 3e d9 1a 86 bd
       0.15430793 0.05870901 0.2967863 -0.065480895
0000a0 4e 79 08 3e 96 9b a7 be 84 80 f4 3d 88 94 81 bd
       0.13327524 -0.3273589 0.11938575 -0.06327158
0000b0 eb b8 0a 3a 37 cc cd 3e fc aa 14 bf 12 10 2f 3c
       0.0005291837 0.40194866 -0.580734 0.010684984
0000c0 6d 93 1f bd 30 25 dc 3e 8a c5 11 3e 8f 88 13 bd
       -0.038958956 0.42997122 0.14235511 -0.036018904
0000d0 6a 4f c6 be 84 5f 7b be d3 10 a8 3e 04 f4 92 3e
       -0.38732463 -0.24548155 0.32825336 0.28701794
0000e0 f3 7e bb 3c 9b c3 10 be 56 1a e1 3e 04 35 51 be
       0.022887683 -0.14137118 0.43965405 -0.2043038
0000f0 4f 8b b9 be d8 da 8f be ee 3c df 3d 8d b0 32 bd
       -0.36239097 -0.28096652 0.10900293 -0.043625403
000100 0d a8 f1 bc ef 62 d0 be 31 12 74 be 2d 82 d8 be
       -0.029499078 -0.4070048 -0.23835064 -0.42286816
000110 42 b2 59 3d f6 9e 0f bf 6f b3 81 3c 25 d0 09 be
       0.053148516 -0.5610193 0.01583263 -0.13458307
000120 20 ee 87 be 61 be 67 be a2 45 e7 bd 07 2e e1 be
       -0.26548862 -0.22631218 -0.11292578 -0.4398043
000130 4d 31 63 bc 7c de c7 be 4c a3 db be 0b 09 49 bf
       -0.013866735 -0.3903693 -0.42898023 -0.78529423
000140 dc 04 b6 3e ca ff 89 3e 35 05 0a be fd be d4 be
       0.35550582 0.26952964 -0.13478549 -0.41551962
000150 1a da 91 be 2e 3c e4 3e 1f 8b 7a be 3f da f9 be
       -0.2848671 0.44577163 -0.24467133 -0.4879932
000160 db 18 cc be 16 be ac 3e ed 4c e7 bd b9 18 b5 be
       -0.39862713 0.33738774 -0.11293969 -0.35370424
000170 f1 2e 2e be 93 8d 54 3e 50 35 68 3e d4 ce 04 bf
       -0.17010094 0.20757131 0.22676587 -0.51878095
000180 45 8e af bd 19 e1 07 bf 6f b0 05 3e 98 cf d9 bd
       -0.08572058 -0.53077847 0.13055585 -0.106352985
000190 5c a7 82 3e 75 66 14 3e 55 a5 be bd 21 fa 15 bf
       0.2551831 0.1449221 -0.09308878 -0.5858479
0001a0 78 9a 6c be 75 79 34 bd bd 06 93 3d 4a 3a 31 bf
       -0.231058 -0.044061143 0.071790196 -0.6922957
0001b0 ac 9e 3f 3d 89 e0 a0 3e 41 2d 9d 3d ad c6 99 3c
       0.04678218 0.31421307 0.07674647 0.018771494
0001c0 df dc 02 be fb 4e 10 bd df 4d 61 3d c0 b3 c6 be
       -0.12779568 -0.03523157 0.055005904 -0.38809013
0001d0 8c b2 1f 3e 0b 70 6e 3e df 43 11 bf 1c cf d0 3a
       0.15595454 0.23284929 -0.5674419 0.0015930864
0001e0 a8 2d 06 3e 4b 86 41 3e cc 49 1d 3c 7a 0d 84 3e
       0.13103354 0.18898885 0.009600114 0.25791532
0001f0 49 c5 c0 3d 1d 4c db bc 4a 25 b1 bc 74 41 eb 3d
       0.09412629 -0.026769692 -0.021624226 0.114870936
000200 54 60 80 be ac 2e ce 3d ae 48 d3 3e a9 f1 fa be
       -0.25073493 0.10067496 0.41266388 -0.49012497
000210 38 3f e5 3c 80 e0 b4 3d b7 80 27 be 78 62 ac be
       0.027984247 0.088318825 -0.16357695 -0.33668876
000220 f1 86 95 be 28 f7 c7 be 9e 46 2c be 24 1b 58 3e
       -0.29204515 -0.39055753 -0.16823813 0.21104103
000230 48 9d 32 bd c7 b1 09 be c0 f7 1d 3e c1 98 fe 3d
       -0.043607026 -0.13446723 0.1542654 0.12431479
000240 11 8e 28 be ca ae c1 bd 53 83 13 be 9f 0c 86 be
       -0.16460444 -0.094571665 -0.14405565 -0.26181504
000250 27 75 1e be d4 d4 c5 bc 5b f1 b8 3e 9f 87 97 be
       -0.15474378 -0.024149336 0.3612164 -0.29595658
000260 17 35 05 be a2 eb fc 39 b5 02 49 3e 67 86 6f 3e
       -0.13008533 0.00048240746 0.19629939 0.23391114
000270 07 1a e7 3d a5 97 24 3e 5e 97 49 be dd 56 d3 bc
       0.11284261 0.16073473 -0.19686648 -0.025798256

enc.lins.1.bias f4 [5]
000000 34 46 bf be 7e f4 60 3e 98 c8 9e 3f a3 2c b9 3e
       -0.37358248 0.21968266 1.2404966 0.36166868
000010 fa 5c bb 3e
       0.36594373

momentum_buffer f4 [3, 3]
000000 ed 10 d4 3d b6 2d a9 3c 20 c1 6c 39 a6 0c 24 3e
       0.10354791 0.02065168 0.00022578659 0.1602045
000010 d1 be 92 3d 7f 76 7f bb 8c b7 84 be 50 46 3b bc
       0.071653016 -0.0038980541 -0.25921285 -0.011430338
000020 2c 27 42 3a
       0.000740635

momentum_buffer f4 [3, 3]
000000 e1 3e 8b 3c 26 06 f6 3c 54 a2 60 bd 3f ef 68 3d
       0.016997756 0.030032229 -0.05484231 0.056868788
000010 c4 42 22 3e 20 15 e8 bd db aa 51 bd 30 e8 66 bd
       0.15845782 -0.11332154 -0.05118833 -0.056373775
000020 44 70 1d 3e
       0.15374857

momentum_buffer f4 [3, 3]
000000 37 35 9a bd 1e a0 6f bd 22 6c 7a bc a4 4b 4c bd
       -0.07529681 -0.05850231 -0.01528457 -0.049876824
000010 2a 38 0b bd 55 d1 8e bb fe b1 02 3d 21 05 48 3d
       -0.03398911 -0.0043584504 0.031908028 0.048833016
000020 5a 06 6a 3d
       0.057134964

momentum_buffer f4 [3, 3]
000000 ee 4e 82 3a 04 0e c3 39 fa e8 aa b9 b8 e7 e6 39
       0.0009941736 0.0003720374 -0.00032598508 0.00044041662
000010 77 00 96 b9 8e aa 5f 3b c9 b2 b2 3a 2d 26 17 3b
       -0.00028610576 0.0034128758 0.0013633604 0.0023063526
000020 a6 64 16 39
       0.00014342609

momentum_buffer f4 [3, 3]
000000 11 0e 69 3c e7 7e 31 3d ad c9 45 bd ae 63 be 3c
       0.014224545 0.043333914 -0.048288036 0.02324089
000010 db d2 ac 3d 11 e0 b0 bd c2 fb 21 bd d1 ec b8 bd
       0.08438655 -0.08636487 -0.039546736 -0.09029544
000020 14 0c b4 3d
       0.08791366

momentum_buffer f4 [3, 3]
000000 01 be 2e 3d 33 a8 95 3d 62 bc 81 bd ec ec 9e 3d
       0.04266167 0.07307472 -0.06334759 0.07760033
000010 e6 e6 1d 3e 62 98 1d be 93 21 af bd 85 11 20 be
       0.15420112 -0.1539016 -0.08551326 -0.15631683
000020 a9 41 25 3e
       0.16138329

momentum_buffer f4 [3, 3]
000000 a4 13 1e bd 74 60 81 bd b9 b3 a6 3d 32 50 c1 bd
       -0.03859295 -0.06317225 0.08139748 -0.09439124
000010 c0 0c 18 be 64 44 1b 3e a2 5d ac 3d 0d 54 07 3e
       -0.14848614 0.15162808 0.084162965 0.13215657
000020 9c 12 29 be
       -0.16511005

momentum_buffer f4 [3, 3]
000000 3f 53 fd bc 42 6c 75 bc 86 67 eb 3c 02 c8 0c bc
       -0.030923484 -0.014979424 0.028735887 -0.008592607
000010 84 51 c2 bd 62 6a 81 3d 4b 2a 16 3d 20 af c5 3d
       -0.09488204 0.06319119 0.036661427 0.09652543
000020 62 c2 fb bd
       -0.12292935

momentum_buffer f4 [3, 3]
000000 66 6b 90 3c 12 ac 7f bd 3e 49 d2 3d e6 41 da bc
       0.017629337 -0.06241996 0.10267876 -0.026642751
000010 ec a6 d4 bd 72 88 57 3d fd c1 23 3d 38 2b b5 3d
       -0.103834 0.05262036 0.039979924 0.08846134
000020 d3 9d 8a bd
       -0.06768384

momentum_buffer f4 [3, 3]
000000 ee 8e 28 bc b3 1b b2 3d d9 93 5c bd 70 3a 84 3b
       -0.010287983 0.086966895 -0.053851936 0.0040352866
000010 60 0a c0 3d 1a ee c4 bd ed 21 8e bc 11 e8 a2 bd
       0.09376979 -0.09615727 -0.017350161 -0.079544194
000020 4b 76 b2 3d
       0.08713969

momentum_buffer f4 [3, 3]
000000 1f 57 94 b9 27 f1 de b9 c0 66 d9 b9 b7 c5 9a ba
       -0.0002829367 -0.00042522812 -0.0004146602 -0.0011808191
000010 59 a9 79 ba 30 31 0b b7 00 40 e7 b5 55 bb 81 b9
       -0.0009523831 -8.296498e-06 -1.7229468e-06 -0.0002474437
000020 26 be 95 ba
       -0.0011424467

momentum_buffer f4 [3, 3]
000000 90 bf f4 b9 4c 72 e0 39 98 3c 71 37 a2 8f b3 ba
       -0.00046682032 0.00042809767 1.43788275e-05 -0.0013699422
000010 e3 d8 69 ba 19 20 06 3a 76 83 1d 3a 38 be 17 3a
       -0.0008920563 0.0005116477 0.0006008664 0.00057885377
000020 20 ff bb ba
       -0.0014343001

momentum_buffer f4 [3, 3]
000000 b9 94 d1 b9 a0 df 84 b9 6e 22 fa 39 0a 0a 28 3a
       -0.00039974393 -0.00025343616 0.00047709368 0.00064101873
000010 e1 36 4d 39 77 c0 96 ba db 15 9a ba 40 3c 88 ba
       0.00019570767 -0.0011501451 -0.0011755781 -0.0010393932
000020 70 7c dd 39
       0.00042245118

momentum_buffer f4 [32, 13]
000000 a4 6e d4 3c e0 4c 1a 3c 0c 65 9a bd 8c 9f cc ba
       0.025931664 0.0094177425 -0.075388044 -0.0015611514
000010 3c fa c7 bb 98 a0 04 3c 3a 17 97 3c 56 31 b0 3b
       -0.0061028283 0.008094929 0.018443692 0.005376975
000020 e8 a6 96 3a 40 02 be 3b 22 99 52 3b 1e a9 86 bb
       0.0011493834 0.005798608 0.0032134731 -0.004109516
000030 98 27 a1 3b a6 2c 97 bc e8 72 68 bd da 2e 41 bd
       0.00491805 -0.018453907 -0.05675021 -0.04716382
000040 47 c7 39 bb 7a 75 09 bd 19 bf 18 3c 09 36 b3 3c
       -0.0028347538 -0.0335593 0.009322905 0.021876352
000050 f3 47 96 3c e9 12 74 bd fc 9c 03 3c 53 4a 68 bb
       0.018344855 -0.059588347 0.008033033 -0.0035444691
000060 11 cf e8 ba 70 20 56 37 ed c0 78 3d 50 b1 1a bd
       -0.0017761906 1.2762946e-05 0.060730863 -0.037766755
000070 04 d0 13 3d 8c bd f1 bb af 53 17 3d c5 51 77 3c
       0.03608705 -0.007377332 0.03694504 0.015095179
000080 e8 85 d7 3c 20 80 de 3d b8 d2 dc 3d 52 26 38 3d
       0.026308969 0.10864282 0.10782379 0.04495842
000090 06 32 ab 3b 6f bf 87 3c 93 c2 31 3c 16 6c 20 be
       0.005224469 0.016570775 0.010849613 -0.15666232
0000a0 2e 92 d5 bc 08 8a 61 ba 3c a8 08 3d 92 8c 63 bd
       -0.02607068 -0.0008603637 0.033363566 -0.05555398
0000b0 ef c6 dd bb a6 f8 fa 3c 55 af b6 bd 7e c6 bc bd
       -0.0067680995 0.030636143 -0.08920161 -0.09217547
0000c0 94 84 65 bd 51 08 69 3c 53 3d 9a bb c8 ab 50 bc
       -0.05603464 0.014223174 -0.0047070174 -0.012736268
0000d0 a2 e3 cc bc eb fe 6b 3c 9c a7 9e bb 5a ac 26 3c
       -0.025010888 0.014404039 -0.004841758 0.010172928
0000e0 19 19 02 bc b9 f0 86 bc f8 f1 3b bb 40 3c 21 3a
       -0.007940554 -0.016472207 -0.002867816 0.00061506405
0000f0 c8 cd 1d 3b 4c 0c 0d bc b6 69 8f bb e6 60 9d ba
       0.0024078954 -0.008608889 -0.0043766154 -0.0012007027
000100 ec 10 fd bb 58 aa 99 bc 92 18 ab 3d c0 76 98 3b
       -0.0077229645 -0.018757984 0.08354296 0.004652828
000110 b6 42 38 3c 9b df 89 bd 61 47 12 3c 9c 2d 50 bc
       0.011246374 -0.067321025 0.008928151 -0.012706187
000120 47 7e d5 bd 48 3d 2c bd 22 03 a1 3c a0 98 19 bc
       -0.10424476 -0.04205063 0.019654814 -0.009374768
000130 10 8f d7 39 a2 57 31 bc c7 86 ee bc f9 4e 26 3d
       0.00041114585 -0.010824116 -0.029117001 0.040602658
000140 9b b8 b8 3c c0 e9 99 37 6e f5 47 bc 11 b3 35 3c
       0.022548964 1.834787e-05 -0.012204511 0.011090056
000150 b8 5b b2 bc 82 9b 78 bd 50 69 2e 3a c0 94 b6 bb
       -0.02177225 -0.06069518 0.0006653266 -0.0055719316
000160 27 af 85 3b 35 61 3b bb cb 5f 86 ba c5 aa 14 3d
       0.0040797177 -0.0028591875 -0.0010251937 0.03629567
000170 e2 d4 ab bc f7 8b 54 bd 5e 73 74 3b 50 b4 77 3a
       -0.020975534 -0.051891293 0.003730021 0.0009449171
000180 80 fe 1f ba b1 f3 33 3d 26 20 34 3d 22 ca 9f 3c
       -0.0006103292 0.043933574 0.04397597 0.019505564
000190 28 03 b5 bb 64 af 99 3c 5a 95 09 3c 9a ce ec 3b
       -0.005524058 0.01876039 0.008397425 0.0072267773
0001a0 48 60 bc bd 29 b0 54 3d f5 18 8a bc 09 16 89 3b
       -0.09198052 0.051925812 -0.016857604 0.004183535
0001b0 c2 67 5a bd d5 b9 b1 3c ec 36 b8 bc de 4d 7b bd
       -0.053321607 0.021695057 -0.022487126 -0.061353557
0001c0 96 cd 6d bd 5e c0 0a bd 48 21 89 3b 52 0e 4d 3b
       -0.05805739 -0.033874862 0.0041848756 0.0031289053
0001d0 30 79 bd bb 72 f1 27 3c 60 0f 29 ba 5d a6 a1 bc
       -0.005782269 0.010250436 -0.00064491294 -0.019732649
0001e0 3b 95 0b 3c 88 39 91 bb 8c 7b ac bc 76 33 75 bc
       0.008519466 -0.004431907 -0.021055005 -0.0149658825
0001f0 b8 3d b2 bd f8 f8 2c bd 94 1a 26 bc 1f 64 cc bb
       -0.08703178 -0.042229623 -0.010138173 -0.0062375213
000200 9a 41 d2 bb e9 89 9d bb 32 4d 0e 3d 51 8b d0 3a
       -0.0064165117 -0.0048077 0.034741588 0.001591066
000210 e4 bf 4f 3c d8 12 cc 3a 96 fd 22 bb 60 27 28 3b
       0.012680028 0.0015569581 -0.0024870387 0.0025658235
000220 96 01 22 3c 4c ae 8a bc b4 53 88 bc 88 cb ed 3b
       0.009888073 -0.016928814 -0.016641475 0.007256929
000230 48 d1 ef b9 f7 56 9d 3a 28 5d cc ba c6 44 90 bd
       -0.0004574156 0.0012004067 -0.0015591728 -0.070443675
000240 d0 e5 ed bb 8c 0a c3 bd 1c bb 1b 3c 95 62 64 bd
       -0.007260062 -0.09523496 0.00950506 -0.055758078
000250 44 14 9c 3c e8 69 e9 3b ba f3 3a bd e4 c4 ce bd
       0.019052632 0.0071232207 -0.045642592 -0.10096148
000260 25 00 0e 3d 90 82 42 3c 29 07 18 3c ed 62 21 bc
       0.034668107 0.011871949 0.009279051 -0.009850246
000270 c8 48 4a bb 1f 07 bb 3b 59 b5 da 3a 3a 91 5b 3a
       -0.0030866135 0.005707636 0.0016686126 0.00083758275
000280 18 81 85 bb 5e 6c 5a 3a 6b 4a 13 bb 99 7c 22 bc
       -0.004074227 0.0008332188 -0.0022474776 -0.009917402
000290 79 41 88 bb 42 f8 20 bc 42 ea 1b ba dd d7 c8 ba
       -0.0041581956 -0.009824814 -0.0005947688 -0.0015323121
0002a0 e8 1a a5 ba 16 5c 48 be 84 68 aa bd 70 20 49 bc
       -0.001259652 -0.19566378 -0.08320716 -0.0122758
0002b0 3e f4 05 3d ba 75 34 bd 79 47 b1 3b b1 ec 57 3d
       0.03270363 -0.044057585 0.0054101315 0.05271596
0002c0 70 53 71 bd eb c2 73 bd be e7 08 3d 40 b5 48 ba
       -0.058917463 -0.05951206 0.03342413 -0.0007656403
0002d0 b2 78 78 bb 68 0c c7 bc bd 93 48 bd 98 cc 3c 3c
       -0.0037913737 -0.024297908 -0.04896902 0.011523388
0002e0 50 61 91 bb 20 61 7c 3b 1a 77 37 bd cb 97 66 bc
       -0.0044366494 0.003851004 -0.04479132 -0.014074276
0002f0 ec 1d 5a 3c 29 2c 77 bd de 1a 3e bc a2 3b d9 bc
       0.013312798 -0.06034485 -0.011603085 -0.026517693
000300 9b 44 0e bc da 7a bc bb 93 14 2f 3b 8c f6 d3 bd
       -0.008683349 -0.0057519497 0.0026715144 -0.103497595
000310 fe df ce bd c4 e4 93 3c cf a9 01 3d 10 c8 d8 3c
       -0.10101317 0.01805342 0.031656083 0.026462585
000320 ca f1 3d bd 1e 6b 83 3d a6 d6 f3 bc e8 06 df ba
       -0.046373166 0.06416915 -0.029765438 -0.0017015608
000330 9e 52 21 bd 1c 0b 96 3b e0 4a 9c 39 90 f4 de bb
       -0.03938543 0.004578961 0.00029810425 -0.0068040565
000340 dc 3f a2 3d 54 a9 6b bc c8 76 63 3c 71 36 8a bc
       0.079223365 -0.014383633 0.0138833 -0.016871663
000350 03 b7 d0 3d 39 d0 3d bd 38 71 1f bc 34 66 3d 3d
       0.10191157 -0.046341155 -0.009731583 0.046240047
000360 60 16 9c 3d 5c 1b 3b 3c 49 40 1f 3c 00 54 79 b8
       0.07621455 0.011420097 0.009719917 -5.9444457e-05
000370 d1 88 af 3c 00 78 af 3d a1 b1 97 3c e0 ef 83 3c
       0.021427544 0.0856781 0.018517317 0.016105592
000380 1a a6 36 bc f4 3d e4 3c 16 35 39 bc 7d 5d 8a bc
       -0.011148 0.027861573 -0.011304161 -0.016890282
000390 c7 5a 1e bd a8 e2 17 3b 90 13 7a 3b 88 87 f2 bb
       -0.03866079 0.002317587 0.0038158633 -0.0074014105
0003a0 00 8e b4 37 4e f3 88 b9 37 fc 8d 3d 14 80 44 bd
       2.1523796e-05 -0.00026121218 0.06932872 -0.047973707
0003b0 66 66 0b 3d 4e fa 79 3a 7f 76 3b 3c 43 1a 82 bc
       0.0340332 0.00095358945 0.011441826 -0.015881663
0003c0 c1 10 87 3c 54 e8 2a 3b c0 bb 27 3d 95 0c ba bb
       0.016487481 0.002607842 0.040950537 -0.0056777694
0003d0 0b 78 0f 3c c7 e1 0e 3a ce 89 86 3b 61 6e 82 bd
       0.008756648 0.00054505136 0.004105783 -0.06368709
0003e0 35 70 0e 3d 6c ee c2 bc 18 e5 31 3c de 60 2a bd
       0.034774978 -0.023795329 0.010857843 -0.041596286
0003f0 cc ef 94 bb 0a 06 9b bb 6e 3d 0c bd fb c2 8b bd
       -0.0045451876 -0.0047309445 -0.03423827 -0.06824299

momentum_buffer f4 [32]
000000 ae 8b 39 3d 00 c2 b7 b8 b8 77 35 3e fc 8b cb bd
       0.045299225 -8.762255e-05 0.1772145 -0.09938809
000010 b2 4e c2 bc 99 52 9e 3b 40 70 9e bd 54 a6 8b 3d
       -0.023719165 0.0048316238 -0.07736254 0.06818834
000020 44 2d 43 bd 42 e1 1c bc de 5f bf 3c b4 c7 83 bd
       -0.04765059 -0.00957519 0.023361143 -0.06434575
000030 e8 f0 00 bc d7 98 78 bd 67 46 85 3c 38 1a 72 3d
       -0.0078699365 -0.060692634 0.016268922 0.059107035
000040 0b 7e 83 bd b3 bf 13 bd ab c4 d8 3d 66 86 b0 bc
       -0.06420525 -0.03607149 0.105843864 -0.021548461
000050 8a 9e 01 3d ea 59 2c bc 26 e8 a4 bd 9e f7 97 bd
       0.031645335 -0.010519484 -0.08052091 -0.07420276
000060 99 5c 19 3d 74 34 1c 3c 7a 17 95 bd 50 f9 bd ba
       0.037441824 0.00953399 -0.072798684 -0.0014493857
000070 79 6a 9c 3d ea df 0f bc 64 03 37 bd de cd 17 3d
       0.076374955 -0.008781413 -0.044680968 0.037061565

momentum_buffer f4 [5, 32]
000000 73 a4 a1 3d 80 30 96 bb ce c5 fe bd ba ba 47 bd
       0.07892694 -0.0045834184 -0.12440072 -0.04876206
000010 1f d6 12 bd e0 fb b3 bc 29 8b f8 3c 34 d6 51 3d
       -0.035848733 -0.02197069 0.030339794 0.05122967
000020 00 a6 26 b8 32 7a 17 bd 98 ac 54 3a c6 bb 39 bd
       -3.9732084e-05 -0.03698177 0.00081128767 -0.04534509
000030 f3 67 38 bc 0f 97 0b bd d6 be 74 3d 65 e3 a4 3c
       -0.011255252 -0.034079608 0.059752308 0.020127961
000040 68 1b 05 bc 64 1b f0 3b 86 b0 d3 bc 86 52 b5 3c
       -0.00812421 0.007327484 -0.025841009 0.022134077
000050 24 65 18 bd 6e 08 61 3d b6 41 8a bd b4 8e c9 3c
       -0.03720583 0.05493968 -0.067508146 0.024604179
000060 bb ff e9 bd 8e 59 de 3c 48 fe ab 3c 61 7f 30 bd
       -0.1142573 0.027142312 0.020995274 -0.043090228
000070 11 98 15 3d f0 1b 75 3b e4 0f 5a 3d ef 66 3e bd
       0.036521975 0.0037400685 0.05323781 -0.046484884
000080 67 68 12 3d 1e 65 36 3c e4 2e 03 3d 4e e5 07 bd
       0.035744097 0.011132507 0.03202714 -0.033177666
000090 aa dc c7 bc ba 46 22 3d 48 42 8f bd 94 11 01 bd
       -0.024397213 0.03961823 -0.06995064 -0.031510904
0000a0 48 06 dc bc 03 66 3f 3c a4 3d 64 bc c4 8f c9 bd
       -0.026858464 0.011682036 -0.013930712 -0.09841874
0000b0 ab b4 30 3a 18 b3 60 bd 16 51 00 3d 9c 1b 97 bd
       0.0006740789 -0.054858297 0.03132733 -0.07378313
0000c0 ba e2 ac bc 6a 77 17 bd bf 5b 38 3d 9a fd b6 3c
       -0.021104205 -0.036979116 0.04500937 0.022337724
0000d0 fe 2a fb 3b b8 ad 96 bb e4 76 15 bd fa 77 bd bd
       0.007665037 -0.0045983456 -0.036490336 -0.09251399
0000e0 b4 8a a1 3c 2c 5f 9e bc a8 73 a2 bd dd f4 b1 bc
       0.01971946 -0.01933249 -0.07932216 -0.021723205
0000f0 40 be fb 3b fe 7b 97 bc de a9 d6 bd c6 16 48 bc
       0.0076825917 -0.018491741 -0.10481618 -0.012212461
000100 8c 64 9d bd c4 71 07 be a2 d6 01 bd 14 30 01 3e
       -0.076851934 -0.13226992 -0.03169883 0.12615997
000110 eb 59 13 bd 53 a6 59 bd 1a 11 02 bd 99 e5 0b bd
       -0.035974424 -0.053137135 -0.03175459 -0.03415451
000120 9f 14 ed 3c 7c b9 98 bd 09 0f de bc d8 24 00 3d
       0.028940497 -0.07457253 -0.027106779 0.031285137
000130 d9 66 c8 bb dc 05 61 bc 8c 61 0b bd 44 14 24 bd
       -0.006115776 -0.013734307 -0.034028575 -0.04005839
000140 52 b3 a1 bd 74 ec 5c bd f8 cf bb bd 28 45 8a bd
       -0.07895531 -0.053936437 -0.09170526 -0.06751472
000150 83 19 27 bd f2 ea e1 bd 8b 72 1d be 30 77 86 ba
       -0.040795814 -0.110311404 -0.15375726 -0.0010258909
000160 12 cf 72 3d 11 68 2a bd 88 55 a6 bd a0 9a ee bc
       0.05927951 -0.04160315 -0.081217825 -0.029126465
000170 3e 49 a5 3d e5 f5 26 bc ac e7 76 bc 3d 05 6a 3c
       0.080706105 -0.010190462 -0.015069883 0.0142834755
000180 cf 1f 90 3d 62 d8 9b 3d 41 1f e1 3d 42 b6 68 bd
       0.07037317 0.07609631 0.10992289 -0.05681444
000190 59 d2 93 3d 9f 3f a4 3d 8e 18 16 3d f6 a2 f2 3c
       0.07217855 0.08019947 0.03664451 0.029618721
0001a0 de e0 cd 3c 48 4d 16 3c 98 c8 bf 3c ad ec 00 3d
       0.02513164 0.009173699 0.02341108 0.03147571
0001b0 2f cf 7c 3c a6 cb 83 3c c1 fd a7 3d 11 6f 44 3d
       0.015430256 0.016088318 0.082026966 0.047957484
0001c0 42 48 c3 3d 6b ac 12 3d f2 fe d2 3d 5a 2e 86 3d
       0.095352665 0.03580896 0.10302533 0.065518096
0001d0 a2 cf f6 bc fd 57 a6 3d d6 41 fe 3d 18 54 1e 3b
       -0.030128304 0.08122251 0.12414901 0.002415901
0001e0 50 3d b6 bb 77 bc 3f 3d 91 6a ac 3d 00 96 28 ba
       -0.0055615082 0.046810593 0.084187634 -0.0006431043
0001f0 9c e7 b2 bb 18 48 4d 3d 2b 91 16 3d 0c 6b b6 bc
       -0.005459739 0.050117582 0.036759537 -0.02226784
000200 78 6b 4d 3c 1e ec 60 bd e6 6f 8b 3d b9 df 0e 3d
       0.01253783 -0.05491268 0.06808452 0.034881327
000210 6e 33 17 3d ec ba d0 bc a8 ce c1 3b 68 09 02 bb
       0.03691428 -0.025479756 0.005914528 -0.0019842032
000220 d0 62 a9 3c ba 37 c7 3c ae 42 b1 bb 50 81 43 3d
       0.020677 0.024318565 -0.00540956 0.047730744
000230 f3 7e 19 3b f3 46 38 3e 69 a6 94 bc 24 12 40 bc
       0.0023421615 0.17995815 -0.018145757 -0.011723075
000240 67 56 83 3d 12 41 00 bc 60 aa 0f bd d6 86 d3 bc
       0.06412964 -0.007828014 -0.03507459 -0.02582113
000250 63 b5 f9 3d 13 f8 6f bd dc a8 b1 bd 86 4f 81 3d
       0.121928 -0.05858619 -0.086747855 0.06313996
000260 e3 9c 05 3e 9f 34 00 bd aa df c1 bd 55 73 96 bc
       0.13048129 -0.031300183 -0.09466489 -0.018365541
000270 48 29 21 3d 16 40 09 3d 54 2c ce 3b 4c 7f 1a 3c
       0.03934601 0.033508383 0.0062919054 0.009429764

momentum_buffer f4 [5]
000000 fe 49 6b bd 64 5c c8 bd 32 6d 1a be 6e 6d 20 3e
       -0.05744361 -0.09783247 -0.15080717 0.15666744
000010 86 55 2e 3d
       0.04256203
