examples/spiking_analysis/per_session_analysis_20ms/outputs/best_model_20230306-212032.pth (torch, 131271 bytes, 8 tensors)

enc.lins.0.weight f4 [100, 155]
00000000: 0031 bf3d b64e f0bd 0296 f7bd 5bea febb
00000010: 945e bf3d b973 173c 863f c7bd 8d24 3b3c
00000020: c7d3 4cbb dd5f 213d 379d 90bc 43fa 893d
00000030: e3d0 803c f205 30bc 936d 28bd a664 f0bd
00000040: bbdf 4b3d 64c6 42bd 9626 23bc 23bf 45bb
00000050: 4c46 fcbc 8e1f e63d 6032 78bd 3d18 70bd
00000060: a384 ccbc 0f21 6b3d 11fd 6ebd c935 f6bb
00000070: 84be 8fbb 3cd0 3dbb 4227 ec3b 7f31 a5bd
00000080: d710 863c 7e1c 323c 3bad 453d 54fc 55bc
00000090: 8faa 743d c0d2 d8bc 38eb d43a 38cc 5f3c
000000a0: 8e38 753c 2152 ecbc eb94 553d 1bd9 05bd
000000b0: fc03 1f3c c42b 67bd 4ff0 95bd 57da 4ebd
000000c0: 26b4 973d 0ba7 8d3d bae7 763c 8c75 c33d
000000d0: 610d 923d 13a0 9cbc d50a 54bd 9f42 c33c
000000e0: e62d 4cbd f9e0 0a3d a035 553d 8ca0 3c3d
000000f0: 1161 58bc 6cfa 563c 0149 4f3b 7962 bc3d
00000100: cfa2 513d 2eb4 36bb d251 00bd c8ac d1bd
00000110: 8b52 353b 85df 613d 0954 79bd 8fe0 dd3b
00000120: 5e6a 8fba 3737 b5bd 2a47 383d e95c 57bd
00000130: 0311 d4ba 8ba1 24bd c39a debc 4ea7 5e3d
00000140: 3c29 7d3d 12ce 983d 7b90 e03c 7d32 3c3d
00000150: 9f80 fa3b 0b8e 95bb b411 98bd 1b98 8e3d
00000160: 6a95 c0bd 4572 5dbd 5f67 7d3d cff9 82bc
00000170: ecf5 89bc 89ad 2b3c 7c95 4c3d 24b2 243d
00000180: d2f1 05bd 3221 003d 6667 893d 97ab 5abc
00000190: 9661 73bd 2466 e83c b52c 893d cb74 bb3c
000001a0: be9a 843d bb12 3d3b 4bc6 983d 2b22 35bb
000001b0: 5709 943d 7e22 a4bd d146 d13c 79e4 1bbd
000001c0: aa70 a8bc f7d2 853c ceca 9a3d feaa 18bc
000001d0: 335e 4d3c 4048 7a3d 91b7 853d 4afe 603d
000001e0: 9dd1 713d 8255 8cbd acf5 603d ad75 123d
000001f0: 893f a8bc 622a 0ebc 9829 acbc 375a 78bd
00000200: 79f5 893c 78fb 893d bc26 c4bb 0ca0 3a3d
00000210: 0f85 fb3b bc66 a5bd b869 2b3d 7548 0e3b
00000220: 8246 a13c a53f 88bd 15a9 893d 4c6e 133d
00000230: 4d35 e3bc 5742 7e3d ae59 afbc 9677 77bc
00000240: 6d97 963d 7457 6abd a53f 353d e50a e1bc
00000250: 8338 9b3d 0c84 e53b 6e59 4dbd 56ff 703c
00000260: 7671 973c ca8b 973b 04fd 533b 1deb b2bc
00000270: 3632 d23d febd f03d 0bcd 393d c6b2 d53d
00000280: 2cfc 77bd bf93 96bc b03d 51bd 18d0 94bb
00000290: 12d3 a2bd 1876 80bd 73fa 98bd 3aaf 1f3c
000002a0: d682 d1bd f526 303c e652 ad3c 8aa2 11be
000002b0: ff8e 7d3d 4f19 8f3d 9a31 42bd 03a6 173d
000002c0: 310f a23d a3fc a1bd 4a63 53bc 9f3b fd3c
000002d0: 21da e7bc 6e9f 81bd f62b 14bd faa5 13bd
000002e0: e093 213d eaf8 533d bf26 313c d67a 7ebd
000002f0: 7516 aeb9 0dd4 283d 9fd5 b63b 69cb 4b3d
00000300: 274b a53d c63e 51bd 9300 90bd c62f 933d
00000310: 5a1c bf3c 07af 26bd 50c0 c6bd c836 54bd
00000320: fa30 8dbd 4b8f 4c3c ebd4 14bd 187a af3d
00000330: 7876 6a3c 1912 ef3c b39c b7bc ea91 25bc
00000340: acd1 b53c eb03 f8bc 6278 92bd 9321 b93d
00000350: fb91 a93c c6c7 7e3d 7528 00bd 3d66 a8bb
00000360: 8993 e1bd 067d 133d 6201 9f3d 4cec 9dbd
00000370: a654 1c3d 3f86 25bd 9867 30bc 02fa 7b3c
00000380: ec92 d8bd 4146 4c3d 2d7a 44bb dfd7 cdbd
00000390: 8477 96bd cadb 22bd 76d3 e7bc 3538 4dbd
000003a0: 7480 bf3b 36e1 e9bc e9ec 8abd 395f 9fbd
000003b0: 2c6c 4b3d d3e9 2abd d84f d03c fdae c43d
000003c0: 3dbc a23a 5502 babc 5008 d53c 6f33 943c
000003d0: 1c66 c43d 509e f33b f00b 503d 0108 473d
000003e0: b46a 593d e0a4 223d a717 8cbd 305c 853d
000003f0: 658d 11bd fd44 44bd 37fd 683b 8f1e 703c
0.09335518 -0.11733763 -0.120891586 -0.007779402 0.09344211 0.009243899 -0.09728913 0.011422289
-0.0031254159 0.039398063 -0.01765309 0.06737187 0.015724605 -0.010743605 -0.041120123 -0.11737947
0.049773913 -0.04755248 -0.00995793 -0.003017374 -0.030795239 0.11236487 -0.060594916 -0.058616865
-0.02496559 0.057404574 -0.05834681 -0.007513736 -0.004386725 -0.0028963229 0.0072068283 -0.08066081
0.016365452 0.010871051 0.04826091 -0.013060648 0.05973297 -0.02646768 0.0016244417 0.013659529
0.014967097 -0.028847756 0.052143972 -0.03267775 0.00970554 -0.056438223 -0.07321226 -0.050501194
0.074074075 0.069166265 0.015069896 0.09543905 0.07131458 -0.019119298 -0.051768143 0.023835478
-0.04984846 0.033905957 0.052053094 0.046051547 -0.013206736 0.013121229 0.0031629207 0.0919847
0.051180657 -0.0027878392 -0.03132803 -0.102380335 0.0027667608 0.055144805 -0.060871158 0.0067711542
-0.0010941734 -0.08848422 0.044989742 -0.05257884 -0.0016179386 -0.040193122 -0.027173406 0.054358773
0.061806902 0.0746118 0.027412644 0.045946587 0.0076447274 -0.004564052 -0.074252516 0.069626056
-0.094034985 -0.054064054 0.06186616 -0.015988259 -0.016840898 0.010478386 0.049947247 0.04020895
-0.03270132 0.031281658 0.06709175 -0.013346574 -0.059419237 0.028369017 0.0669798 0.02288284
0.06474827 0.0028850276 0.074596964 -0.0027638774 0.07228344 -0.08014391 0.025546463 -0.038059685
-0.020561535 0.016335947 0.07558213 -0.009318111 0.012534666 0.06110406 0.06529153 0.05493001
0.059037793 -0.06852247 0.05492179 0.035756756 -0.020538108 -0.008677097 -0.021015927 -0.06063291
0.016840683 0.06737417 -0.005986063 0.04556279 0.007675774 -0.08076236 0.041848868 0.0021710668
0.019686941 -0.06652764 0.06721703 0.03599386 -0.027735377 0.062074985 -0.021405067 -0.015104195
0.07353101 -0.057212308 0.04425015 -0.027471015 0.07579138 0.0070042666 -0.050134115 0.014709314
0.01848672 0.0046248185 0.0032346854 -0.021840626 0.10263483 0.11754988 0.04536156 0.10434489
-0.060543224 -0.018380998 -0.05108422 -0.0045414083 -0.07950415 -0.062725246 -0.074696444 0.009746367
-0.10230033 0.010751476 0.021157693 -0.1422216 0.06190395 0.06987249 -0.047410585 0.037023555
0.07913054 -0.07909515 -0.01290209 0.030912219 -0.028302254 -0.06329237 -0.036174737 -0.03604696
0.039447665 0.051751055 0.01081246 -0.062128864 -0.00033204598 0.041217852 0.005579665 0.049754534
0.08070975 -0.051085256 -0.070313595 0.071868464 0.023328949 -0.040694263 -0.097046494 -0.051810056
-0.06894107 0.012485336 -0.036335867 0.085682094 0.014310472 0.029183434 -0.022413587 -0.010105589
0.022194706 -0.030275306 -0.071518674 0.09039607 0.020699492 0.062202238 -0.031288583 -0.005139141
-0.11014468 0.036007904 0.077639356 -0.07711086 0.038166665 -0.04041123 -0.010766886 0.015379431
-0.10574898 0.049871687 -0.002998005 -0.1005094 -0.073470145 -0.03976039 -0.028299075 -0.05010243
0.00584417 -0.028549772 -0.06783468 -0.07781834 0.049663708 -0.0417269 0.025428697 0.09603689
0.0012415719 -0.02270619 0.02600494 0.018090932 0.09589788 0.007434644 0.050792634 0.048591617
0.053080276 0.03970802 -0.06840449 0.06511724 -0.035535235 -0.047917355 0.0035551318 0.014655723

enc.lins.0.bias f4 [100]
00000000: 22ce 9f3b 0693 1a3e 2107 5c3b 79cf c63d
00000010: 30a0 a53c 0b25 373d 9050 843d 8776 133d
00000020: ae9d a83c 41e2 0a3e 71e3 7c3d 45c2 853c
00000030: 6819 0cbd 771d 513e 6f11 523b e1c2 853b
00000040: 8298 083e 0f1c 71bd 327d 043e 3821 15bd
00000050: 9752 67bc 4e74 4c3b 6605 a03d 00d3 8b3d
00000060: 8b55 2e3e 1237 b13c 7f5d d53d 26d6 033e
00000070: 271d efbc afc9 07bd 4d25 e23c acec 213c
00000080: 2230 723d 8d55 bf3d 4e9c f63d 697d 163d
00000090: 3254 163e 8230 8f3d e0ac d03d d1bd 293d
000000a0: fe35 cc3d b921 bc3d d079 beba 726e c63c
000000b0: 19ce 873d 0ed6 b8bd 5c37 a33c 9eb8 9f3d
000000c0: bbc1 4f3d ca05 843d 84fb 813d a49f 7d3e
000000d0: 0002 0abd 020f 843d bb55 873d 9386 173e
000000e0: 4e52 563b 79ab 1f3d 4681 61bb feae 833d
000000f0: ef6e bf3b edd9 88bd e962 293a 516a d73c
00000100: 88ba 4d3d 8169 b53d e9f3 413d 4e3a 9c3d
00000110: dc26 8dbc 4073 5dbc 0abb 873e 503d 943c
00000120: 691b ce3b b3b6 05bd 5991 1d3e aa58 b03d
00000130: f2ea 873d 15af 59bc 3419 d8bc c84c 84bb
00000140: 54c7 773d 9ac2 04bd eae7 9c3b 233b 813c
00000150: 19a0 9c3d 8c70 213d fd11 c63c 97c0 2b3d
00000160: f28d a63d a231 daba ab53 8a3d 503e b7bc
00000170: d686 043b e1f4 69bd 5812 a83d b0a9 8d3d
00000180: 2bd9 be3d 6e4a 2e3b 1bc2 07bd 10de ba3c
0.004876868 0.15095147 0.0033573585 0.09707541 0.020217985 0.04471306 0.064606786 0.03600171
0.020583 0.13562872 0.061740343 0.016327986 -0.034203917 0.20421396 0.0032053848 0.0040820693
0.13339427 -0.05886465 0.12938383 -0.036408633 -0.014118812 0.0031197253 0.0781353 0.068273544
0.1702482 0.021632705 0.104182236 0.1287466 -0.029188706 -0.033151325 0.027605677 0.009883087
0.059127934 0.093424894 0.120415315 0.036740694 0.14680555 0.06991674 0.10189223 0.04144079
0.09971236 0.091861196 -0.0014532153 0.024222586 0.06631107 -0.09025203 0.019923858 0.07798885
0.050721865 0.06446417 0.06346801 0.2476793 -0.033693314 0.06448175 0.06608149 0.1479743
0.0032702866 0.03898189 -0.0034409328 0.064298615 0.0058420817 -0.06682191 0.0006461577 0.026295813
0.05022672 0.08858014 0.04735175 0.07628308 -0.017230444 -0.013516247 0.26509887 0.018095642
0.0062898886 -0.03264494 0.15387477 0.08610661 0.06636609 -0.013286372 -0.026379205 -0.0040374734
0.06049283 -0.03241215 0.0047883885 0.015775269 0.07647724 0.039413974 0.0241785 0.041931715
0.08132543 -0.0016646872 0.0675424 -0.02236858 0.002022197 -0.0571183 0.08206624 0.06917131
0.09318765 0.0026594657 -0.033144098 0.022810966

enc.lins.1.weight f4 [3, 100]
00000000: c988 68be f7ea fb3d 1e04 0a3b d0aa 533e
00000010: 1eb5 a33b 6d40 ce39 7f7c 72bc e6af a2bd
00000020: 960b 553e a49e bbbe fed3 b13d 2614 44bd
00000030: cc38 603d 69c6 e63d 6ef6 19bd 1fd3 3bbd
00000040: b76b 03be 6d68 fdbc 85d4 d2bc 41df 963d
00000050: 9923 acb9 d592 373e 898d 8a3e f323 a93e
00000060: 9b5c 533e df57 783a bc89 65be 6f03 823e
00000070: 6432 053e a363 16be 7f62 cfbc b3cb 12be
00000080: faf7 9a3e 5e98 84bd 29cf a1be 6557 64be
00000090: 113c db3d 6813 b23d b664 66bd 0ea3 71be
000000a0: 5cda 85be e9ad 52be 4531 31bd 85aa 503c
000000b0: c7b4 39be 3181 f73b e93d 97bd 4722 88be
000000c0: dd1f 673d 7460 cc3d 7d6c 09be d153 723e
000000d0: fae2 883c 8b94 863b f67d 6fbe 4a0c a33e
000000e0: 6e8d debd d37e 8e3c 383e f73d 974a 21be
000000f0: e2ba 893d bc48 e3bd 2d10 c4bd 9ecb 4fbd
00000100: 3500 c23c de8a 583d 3e03 49be 13a7 e2bd
00000110: 5e96 033e a90b 4d3d 89f4 333e 1106 c93c
00000120: c6e3 083e 8e59 2a3d e40c 2ebd 5ea3 7a3d
00000130: c141 283e 6e6c 37be ce8f 33bd ea34 2cbe
00000140: 4f44 abbc b2d7 1b3d b5dc 103e 9f0b 4d3d
00000150: 0f2d bbbd 256e 253e 2758 07be ec5f 5b3c
00000160: 98c1 503e 9386 8fbd 35cb 793d 9db0 4d3d
00000170: 4e6c 80bd ca93 3e3e 9ffa 1d3e 8c31 13be
00000180: 5e56 553d 7b9c 593d cde3 2bbd 1d22 70be
00000190: ed6c 2cbd 8bbb 48be 7a5f 293e d943 8a3c
000001a0: 564b dabc 5db5 813e ea40 ffbd 321d 60be
000001b0: 60cf 053f e0dc 8cbe 66c4 713c 96c9 a53c
000001c0: 0788 cc3d 127d b6be 4765 1e3c 3710 f13d
000001d0: e50e e0bd 2b61 85bc 77f7 00be 96f7 86bd
000001e0: 705e 74bd 37c7 f33c 73c8 e1bd 0b74 973d
000001f0: 5e82 19be 88de 0dbd 0e35 fc3c 01d0 dfbd
00000200: 1f9f 293e d33f 5abd 8277 223e d3d3 443e
00000210: b24e b3bb 6727 10be 3ac5 fa3d 5a53 31be
00000220: 9278 4fbe 6275 5bbe 9333 81be 9852 253e
00000230: 6997 393e 360b dbbd 47e9 71be 82c4 1e3e
00000240: 5ea9 3dbc 7a81 ae3e da9a 593d c858 213e
00000250: e1fb 04bd 31fb 7fbe e3c7 8abe ea19 86be
00000260: c1d8 b4bd d11d 92be 7155 1c3e d0dd 54be
00000270: c2c9 073e 623a 7ebd 9b98 7b3e 26d2 e13d
00000280: 928b 8a3d 147a 4c3e e402 273e f07a 8d3e
00000290: c2bd 263e 6cd6 18be 6f8f b53c e859 bf3d
000002a0: bb75 a73e dcc0 0d3e b254 9cbe da40 33bd
000002b0: 8153 1cbe e6cd ce3d ba81 00be 13ce 153e
000002c0: 2ee1 14bd d1d7 9d3e d93c 4bbc 8a80 ff3d
000002d0: aceb 463e 8eac ce3c bab1 443d 3788 32bd
000002e0: bea6 d9bd c623 013e 2e5e b43d 54f3 c33c
000002f0: e146 013e 6f96 a7bc 1cfd 4cbc e013 753e
00000300: 44e9 08be 6e0a 503e bb76 853e 9477 16be
00000310: cc23 0ebe 1f53 b0bd 24c3 bebd 1b81 413d
00000320: 522e 16bc 1ad0 16be a2dd 133e ecf4 acbd
00000330: 30ed e7bd ba1b b63d b040 a83d 0b56 fc3c
00000340: 89df 7f3d c65c 00be c88d 083e 0633 36bd
00000350: 8b89 463d fe32 5c3e d0f5 083e 9348 58bd
00000360: 5623 513e aed3 833d 19e0 8b3e 4691 9cbd
00000370: 7532 563d 5dc1 c03b 849b 37be 377c 843e
00000380: 6769 873e a271 943d 6ece 91be 92fa 813d
00000390: 9ff1 31be a9e3 34ba 5043 5db7 dd6d 68bc
000003a0: b81d 32bd 5ba8 573d c27a 6fbe 5477 38be
000003b0: b5d3 4cbe fbfd 2f3d eba7 573e 71d7 7f3d
000003c0: a1a6 1e3d 18b2 1b3e cbcd 62be 6219 823e
000003d0: 7f55 8e3c 073d 283e 78d7 12be f045 47bb
000003e0: 76be 2d3e 85df cc3d da4c 8ebd edf5 823e
000003f0: 4573 f93c af40 1fbe 0b68 5ebe a831 7d3e
-0.2270843 0.12300675 0.0021059583 0.20670629 0.004995956 0.00039339383 -0.01480019 -0.07943706
0.20805201 -0.3664447 0.086830124 -0.047870778 0.054741666 0.112683125 -0.03758853 -0.045855638
-0.12834059 -0.030933583 -0.025736103 0.07366801 -0.0003283292 0.17927106 0.27061108 0.3303524
0.20640795 0.0009473543 -0.22415823 0.25393245 0.13007504 -0.14686446 -0.025315521 -0.14335518
0.30267316 -0.06474374 -0.31603363 -0.22298963 0.10704816 0.08695108 -0.05624839 -0.23597357
-0.26143157 -0.20574154 -0.043259878 0.0127359675 -0.18135367 0.0075532426 -0.07384855 -0.26588652
0.05642687 0.099793345 -0.13420291 0.23664786 0.016709793 0.004107063 -0.23387894 0.31845313
-0.10866819 0.017394459 0.12072414 -0.1575111 0.06725098 -0.11097857 -0.09573398 -0.050731294
0.02368174 0.05286681 -0.19630143 -0.11067023 0.1285033 0.050059948 0.17573752 0.024539026
0.13368139 0.041589312 -0.042492762 0.061190955 0.16431333 -0.17912456 -0.043838315 -0.1681706
-0.020906596 0.0380475 0.14146693 0.05005991 -0.091394536 0.16155298 -0.13217221 0.013389569
0.2038635 -0.0700809 0.06098481 0.05021726 -0.062706575 0.18611065 0.15427636 -0.1437437
0.05208432 0.053127747 -0.041965295 -0.23450513 -0.042096067 -0.19602792 0.16540328 0.016878055
-0.026647251 0.25333682 -0.12463553 -0.21886137 0.52269554 -0.27512264 0.014756298 0.020237725
0.09986883 -0.35642296 0.009667701 0.11770671 -0.10940341 -0.016281685 -0.125944 -0.06590192
-0.059660375 0.029758079 -0.11024561 0.0739518 -0.14991137 -0.03463605 0.030787017 -0.109283455
0.16564606 -0.053283524 0.15865901 0.1922143 -0.0054720277 -0.14077531 0.12244649 -0.17316952
-0.20260838 -0.21431497 -0.2523466 0.16144788 0.18124165 -0.10695498 -0.23624144 0.1550465
-0.011576025 0.34083158 0.053126194 0.15756524 -0.032466773 -0.24998166 -0.27105626 -0.26191646
-0.08830405 -0.28538373 0.15266968 -0.2078774 0.13260558 -0.062067397 0.24569933 0.11026411
0.06764902 0.19968444 0.16309696 0.27632856 0.16283324 -0.14925545 0.022163121 0.0934332
0.3270701 0.13843101 -0.30533367 -0.04376302 -0.15266229 0.10097866 -0.12549487 0.14629392
-0.03634756 0.30828717 -0.012404644 0.12475689 0.19425839 0.025228765 0.048021056 -0.043586936
-0.10627507 0.12611303 0.08807026 0.023919739 0.12624694 -0.020457475 -0.012511518 0.23933363
-0.13370234 0.20316479 0.26067147 -0.14694053 -0.13880843 -0.08609604 -0.09314564 0.047242265
-0.009166317 -0.14727822 0.14440015 -0.08445153 -0.11324537 0.08892007 0.08215463 0.030802747
0.06246904 -0.1253539 0.13335335 -0.044482253 0.048471015 0.21503827 0.1337502 -0.052803587
0.20423636 0.06436859 0.2731941 -0.07644896 0.052294213 0.0058824257 -0.17930418 0.25876018
0.26447603 0.07248236 -0.28477806 0.063466206 -0.17377327 -0.0006900379 -1.3188299e-05 -0.01418635
-0.043485373 0.05265079 -0.23386672 -0.1801427 -0.20002635 0.042966824 0.2106015 0.06246132
0.03873313 0.15204656 -0.22148816 0.2540999 0.017374752 0.1642953 -0.14340007 -0.0030406676
0.16967186 0.100035705 -0.06948252 0.2557825 0.030450473 -0.15552019 -0.21719377 0.24725974

enc.lins.1.bias f4 [3]
00000000: 67a8 4b3d 3921 9dbe d328 623a
0.049721148 -0.3068941 0.0008627299

momentum_buffer f4 [100, 155]
00000000: aca3 0ebd 013a 09bc e4b7 1c3b 9e73 d33c
00000010: 50c5 30bd 26c1 b43c 1d93 b53c 024c 65bb
00000020: ec70 3d3c 4036 a93c 885c a2bc fad7 b8bc
00000030: ba54 843c 439a d2ba b450 5cbc c052 10bc
00000040: 67f7 c7bc b8c5 d63a 5c62 2cbb 4da8 4c3a
00000050: c8cc 1fba 01e6 81bb c636 3d3b 36e9 c3b9
00000060: ab9e c83b 9ae7 9abc 047e 9c3b 1d21 ae3c
00000070: 829e d03b bcc2 26bc 2e8d 053c 57d7 1e3c
00000080: 2fc8 283c 03a3 503c 46de 94bb 64f4 613c
00000090: f157 1f3d bf2e a33c 45b2 a33c 747c 88bc
000000a0: 8bbf 013c 5c77 8b3c f4bb 09bc e5b4 9f3b
000000b0: bec9 3dbc 6f13 523c ea46 0a3c 8d44 e83b
000000c0: 0c8b 22bb c03c de3b 8728 07bc df0b a6bc
000000d0: 338b 6bbc df76 adbb bc26 8c3b 8aa2 63bc
000000e0: c6ab 80bc ec72 9fbb ee80 56bc 247b a13b
000000f0: c25b 7abc 537b 1ebc 0e19 31bb d8c4 67bc
00000100: e855 333c 2897 e2ba 769b ecba ee3f 1fbc
00000110: 188e c538 74ef 9abb 8e54 13bc 48ce 51bc
00000120: 7552 1c3a d2aa 25bc 195d 913c dc3a 7c3b
00000130: 04b7 663c cac3 dcba 6c54 a33c 7414 d9bc
00000140: fb0d f2bb 5d74 58bb 74ee 473b e941 17bb
00000150: 757c 3c3b bfd6 33bb 94bb 64ba 40ed 23b7
00000160: 54b9 2aba ac2d 8c3b e0a0 d83a ac0b 8cbb
00000170: b25d 00bc c055 b13a 4601 1039 8216 69bb
00000180: 48c1 b13a fc57 203b 6be9 9bbb ba8e 173b
00000190: 1684 303b d204 7b3b 38a2 2bbb f5c5 5a3b
000001a0: 20e4 d7bb a482 bdbb b2b0 a2bb ac23 3e3b
000001b0: 5042 0739 a43b 783a 1add 6ebb 1858 893a
000001c0: 4d2f d73a 4f13 a83b 2bd9 e03a 6e42 273a
000001d0: b99d 5f3b eeef 1bbb 542d 0aba f203 42bb
000001e0: 7593 073b aa1f 0a3b 20db c2b7 e39c a9ba
000001f0: b674 333b eb06 6c3b 5c55 d23b 0710 87bb
00000200: 291e 463b 7afe 19bb 38f6 ad3b 6a20 dd3b
00000210: 6d8a 833b a6b0 e93b 46f7 febb f340 0d3c
00000220: d382 b33c dcb1 d53b 0a0b 7e3c 018f aebc
00000230: 0132 d33b 14d5 0f3b d16b eabb a152 853b
00000240: 00ea ff36 ee32 d33b a378 533c 8d09 ee3b
00000250: a830 4a3c 9434 ffbb 71c9 36bc abbe 9fbc
00000260: 267a a6bb 7ce6 39bc 0678 0d3c 1e13 473d
00000270: 9beb f5bc 2c9f cabc f632 833c 3853 c33b
00000280: b5a7 843c 428b 163b 378a b03b ea4f b1bb
00000290: 6346 6a3c c2fa 9b3c cb37 1a3c 9b7a 64bc
000002a0: 330f 913c fb2c fbbc 5dcb 7bbb b6f4 303d
000002b0: bf74 d83b 6426 64bb 899e 22ba a33a c0bb
000002c0: 629f c8bb c7f5 8c3b f0fa 553a 28d0 2ebc
000002d0: 6082 133b 365e ec3b 98a6 aebb e857 483b
000002e0: 7d73 b53b 1dc3 bebc fe7b 19bc 7a08 46bc
000002f0: 20c0 2dbc aa06 9f3c 58c9 ed3a 2c99 c7bc
00000300: a6c6 29bc cc26 4fbb d3b0 5c3c 6cd2 c1bb
00000310: 1c82 f23a 7ce6 b13b d9ca 0dbc 9672 9b3c
00000320: 9c82 98bb e41c 973c 67ed 42bc 487c 95bb
00000330: ccf6 b0ba 28a1 923b d0b2 303a e8c8 b13c
00000340: f6c6 563c 8beb 84bc ead3 e03b 04ef 0b3c
00000350: 0b6d 403c b074 143c 2c1d 8aba 189c 473c
00000360: fc5c 853b 162e 253c da97 753b 7c37 19bc
00000370: 14a7 b73a acc0 0f3b b549 17bc 6c43 e83b
00000380: 681f 503b ad39 363b 0363 cabb 7d8e ee3b
00000390: 263a 26bc 601e 45bb 0996 3e3c e234 efba
000003a0: 8612 6fba b913 8ebb ce32 2abc fa89 083c
000003b0: c5aa 09ba b387 a9bb ba4d f63b 8091 07bc
000003c0: 4b54 ce3b 5402 78ba b26e 99b9 03a1 d1ba
000003d0: 182a c139 2b20 86bb 6057 7339 768f cdba
000003e0: b472 14bb 3203 283b 4df0 ab3b 06c6 2abb
000003f0: 5beb 40bb 9b43 b83a b086 c839 30db 9bbb
-0.03482406 -0.008375646 0.0023913318 0.025811967 -0.043156922 0.022064757 0.022164876 -0.003498793
0.011562567 0.020655751 -0.019819513 -0.022563923 0.016153682 -0.0016067702 -0.0134469755 -0.008808792
-0.024409963 0.0016385829 -0.0026303744 0.0007807061 -0.00060958834 -0.003964186 0.002887176 -0.00037367054
0.0061224303 -0.018909264 0.0047757644 0.021256024 0.006366552 -0.010178264 0.008151336 0.009694896
0.010301634 0.0127341775 -0.0045430986 0.013791177 0.038902227 0.019919751 0.019982466 -0.016660906
0.007919203 0.017024688 -0.008406628 0.004873859 -0.011583744 0.012822016 0.008439759 0.00708825
-0.0024802117 0.0067821443 -0.008249409 -0.020269332 -0.014376449 -0.0052937116 0.0042770784 -0.013893733
-0.015706908 -0.0048659947 -0.013092263 0.0049280096 -0.015280666 -0.0096729575 -0.002702299 -0.014146052
0.010945775 -0.001728748 -0.0018051702 -0.009719832 9.420159e-05 -0.004728252 -0.008992327 -0.012805529
0.0005963215 -0.0101115275 0.017744588 0.0038487231 0.01408172 -0.0016843018 0.019937716 -0.02649901
-0.0073869205 -0.0033028342 0.003050712 -0.0023080057 0.0028760706 -0.002744123 -0.0008725461 -9.770796e-06
-0.00065126014 0.0042779054 0.0016527437 -0.0042738523 -0.007834839 0.0013529584 0.00013733385 -0.0035566394
0.0013561631 0.0024466505 -0.00475805 0.0023125843 0.0026934198 0.0038302434 -0.002618922 0.0033382152
-0.006588474 -0.005783396 -0.0049649114 0.0029012961 0.00012899307 0.00094693364 -0.0036447705 0.0010478524
0.0016417295 0.005129255 0.0017154565 0.0006380443 0.003412111 -0.0023794132 -0.00052710366 -0.0029604402
0.0020687256 0.0021076002 -2.322864e-05 -0.0012940433 0.0027382798 0.0036014866 0.006418867 -0.0041217837
0.003023038 -0.0023497627 0.0053088926 0.006748249 0.0040143044 0.007131654 -0.007780942 0.008621442
0.021912968 0.0065214466 0.015505562 -0.021308424 0.00644517 0.0021947073 -0.007153966 0.004068688
7.6268334e-06 0.0064452803 0.01290718 0.007264322 0.012340702 -0.00778825 -0.011156426 -0.019500097
-0.005080479 -0.011346456 0.008634573 0.048602216 -0.030019572 -0.024734102 0.016015511 0.005960848
0.01619325 0.0022971188 0.0053875702 -0.005411138 0.014299008 0.01904047 0.009412716 -0.013945247
0.017707443 -0.030661097 -0.0038420775 0.043202125 0.006605714 -0.0034812922 -0.0006203433 -0.005866365
-0.0061225155 0.00430176 0.0008162698 -0.0106697455 0.002250813 0.0072133793 -0.005329918 0.0030569974
0.005537449 -0.023286397 -0.009367941 -0.012086982 -0.010604888 0.019412357 0.001814167 -0.02436503
-0.010362303 -0.0031608818 0.013469893 -0.005914977 0.001850191 0.005429087 -0.00865432 0.018975537
-0.0046542417 0.018446393 -0.011897421 -0.0045619346 -0.0013501286 0.0044747777 0.00067405123 0.021702245
0.013108959 -0.016225597 0.0068611996 0.0085408725 0.011744748 0.009061024 -0.0010537258 0.012183212
0.0040699225 0.0100817885 0.0037474544 -0.009351607 0.0014011585 0.002193491 -0.009233882 0.0070881154
0.0031757 0.0027805374 -0.006176354 0.0072801695 -0.0101457 -0.003007792 0.011632451 -0.0018250013
-0.00091198867 -0.004335847 -0.010388089 0.008333677 -0.0005251582 -0.0051736473 0.00751659 -0.008274436
0.0062966696 -0.0009460796 -0.00029264909 -0.001599342 0.0003684319 -0.00409319 0.00023206836 -0.0015683013
-0.0022651376 0.002563667 0.005247152 -0.0026057973 -0.0029437158 0.0014058234 0.00038247323 -0.004756354

momentum_buffer f4 [100]
00000000: 60bf 99bc 5e28 c8bc d9de b13d 63e7 dbbd
00000010: a8e2 d4bb 309a b53c 48a3 12bd f25e 30bc
00000020: d413 f73c 4f8d 5cbd 3793 a33c afbe 39bb
00000030: 881b 223d a03a 9fbd 5c30 6c3d 8296 d2bc
00000040: fa04 f83c e21d a0bb a47e e3bc d25f 12bc
00000050: f6d2 a33b d6fc f9bc 23b3 74bd fc66 d4bd
00000060: d257 b7bd c6a9 2b3c f86a f3bd fda2 1ebe
00000070: dcca 0abc 28d0 97bb 982f 1bbd 24e7 83bd
00000080: 38d1 09be 1ace 10bd a008 1dbe a694 10bd
00000090: dbc9 68bd f730 04bd 5241 4bbd 8ea7 053d
000000a0: aa95 c33c a64c 483c 169b a0bd bad4 ed3d
000000b0: 2b2d ba3b 0f21 b63d ce85 f4bc e699 893c
000000c0: 691b d9bc 8659 6ebd ea57 72bd a8d1 e0bb
000000d0: 3eed f03b c83e bdbc fba6 8dbd fe34 4fbe
000000e0: 04d0 7abd 4685 3d3d 98fc 853b 9599 b7bd
000000f0: 80b4 973d 3366 513d edfb cfbc b861 e4bb
00000100: c358 dbbd f879 26bd ceb5 2cbd a308 a3bd
00000110: e24a 043d f8f8 953b e5a1 aebd 9d66 70bc
00000120: 0358 62bd 8419 cb3b d435 86bc 4320 dcbc
00000130: 5861 60bd e6d5 373e 5e8c b23c b881 273d
00000140: ce60 113d 20b3 80bc cece c3bc 0e4f ae3c
00000150: 5472 a43b 0054 7c38 37ea 7cbd 48b0 a1bc
00000160: 3b4b 6bbd ac34 e73b c522 bb3c 7cb7 56bc
00000170: 3a9f 833c e785 743d 7200 d0bc b263 adbb
00000180: 21fa 9bbc 05e9 68bc 20e6 c03b ae4c 19bd
-0.018768013 -0.024433311 0.08685083 -0.10737493 -0.006496746 0.022168249 -0.03580025 -0.010764824
0.030160822 -0.0538457 0.019967658 -0.0028342416 0.039577037 -0.07774854 0.057663307 -0.025706533
0.03027581 -0.004886375 -0.027770348 -0.008933978 0.0049995137 -0.03051607 -0.05974115 -0.10371205
-0.08952297 0.010477489 -0.11885637 -0.15491863 -0.008471217 -0.0046329685 -0.037887186 -0.06440571
-0.13458717 -0.035352804 -0.15335321 -0.035298012 -0.05683313 -0.03227326 -0.04962284 0.032630496
0.023875076 0.012225306 -0.0784208 0.1161284 0.005681654 0.08893024 -0.02984896 0.016797017
-0.026502328 -0.058190845 -0.059165873 -0.0068609305 0.0073525 -0.023101225 -0.069166146 -0.20235059
-0.061233535 0.046269678 0.0040889494 -0.0896484 0.074074745 0.051122855 -0.025388682 -0.006969657
-0.10710289 -0.040643662 -0.04216557 -0.07960632 0.032297976 0.0045767985 -0.08526973 -0.014672902
-0.055259716 0.00619811 -0.01638309 -0.026870852 -0.054780334 0.1795269 0.021795448 0.040895194
0.03549271 -0.015710413 -0.023902323 0.02127793 0.005018512 6.0159713e-05 -0.061746802 -0.019737378
-0.057444792 0.0070558395 0.022843728 -0.0131052695 0.016067136 0.05969801 -0.025390837 -0.0052914256
-0.01904017 -0.014215712 0.005886808 -0.037426643

momentum_buffer f4 [3, 100]
00000000: 76d1 a23d f05e 5dbd bc32 adbc c24d 99bd
00000010: 62fe 96bd cc58 21bc 57fb 59bc be6d cdbb
00000020: 548d 0cbe 5c57 113e 9821 71bd 60dc 983b
00000030: 8c17 9fbb 0cbd 84bd 866d a8bc b139 8d3d
00000040: c29c 87bc a715 a6bb 28a6 28bd e0f3 66bc
00000050: d5a5 95bc 7a3b 95bc d461 7fbd 98d2 edbd
00000060: 9071 bcbd b4ea 7bbd fac7 823d 061e 98bd
00000070: c24a 0bbd 905e 913a 9afe 7c3c fdaa 073d
00000080: e248 95bd e686 52bd 2f5f 163e 928b 5c3d
00000090: 66d3 50bd f0e4 42bd dd03 11be 8987 9c3d
000000a0: 5397 183e d6fa fe3c 3f26 923c d2db 25bd
000000b0: ee4b b33d 011d 19bd 6dd3 51bb eef9 c63d
000000c0: a7f1 1ebd 2832 8b3b 94a7 a3bd 9fb6 32be
000000d0: eed7 ffba 38e7 85bd 29d4 9a3d a4aa 3ebe
000000e0: 76a0 843d b94d 52bd 79fb e8bc 06e7 0b3d
000000f0: e9d6 c63c 4066 533b ed8e 493d ae91 ea3c
00000100: be46 5d3c 700b ddbb 3a8c 2f3d 3e97 c43d
00000110: 88af d3bd acb2 2ebd d07a 8fbd c5a7 d3bc
00000120: 503a e8bd 62e1 ce3c 8012 153c 3e80 74bd
00000130: 9f74 c5bc 0edb c1bd cfbe 11bd 191d 433c
00000140: 5080 c0bc d051 c6bc 242c bbbc 775c eabd
00000150: 2d4b 823c 5b12 2dbd c00d 9cba 3014 bdbc
00000160: a0ef 99bd dccf c93a 8fcf 14bd 746a 19bc
00000170: 19e3 b0bb 2c91 00bd 6423 3fbd c0a0 bdbc
00000180: a782 4dbc 5ef6 93bc 43cc a0bd d27c 8d3d
00000190: 2c1c 57bd c46d a43d 28c5 d33c 8b66 133d
000001a0: 70d9 963a fdc6 40bd df49 893c ee6b 533b
000001b0: 90fe e83c f19b 2abd 80ff 913a 04e3 843b
000001c0: ba75 c7bc 325d b83d 242e 653b 60ca 53bc
000001d0: 9922 b23d 2ed9 973a edf5 af3d 54ec e23c
000001e0: 27eb 00bc e807 d5bb b61c 34bc 5505 183d
000001f0: 4c11 2d3d d319 bd3c 7ae6 9ebc 9511 2b3d
00000200: e8d4 4a3c 75c9 88bc fa54 1ebd d818 9dbd
00000210: a806 343d bb1d a03d c364 80bd 3f56 44bd
00000220: 90b8 4a3d 1af3 f03c 9ed9 fc3d 2a07 423d
00000230: 99c0 75bd da59 b83c 6998 b43c e8ea 763c
00000240: c407 8cbc 401e 1c3a 6a51 733c e448 55bd
00000250: 08ce faba 2c87 7e3d 643c 883d e36a eb3d
00000260: 6c24 ac3c fed2 973d 809e db3c 2c2f 5a3d
00000270: b4a8 9cbc a4c0 8a3c 4c36 0abc 10ce 53bc
00000280: 7133 793d 3aca 5a3d a19b 443d 8445 40bd
00000290: 6870 f2bc 60e4 9d3d 90e8 e5bb 9ae4 c2bd
000002a0: 5783 173e c01f 4b3c a8a0 703d d5b7 28bc
000002b0: 3a7b 983d eec3 20bd 204c 9c3c e043 f9bb
000002c0: 792c c03c 523a bb3d 4f89 1bbc 2c4f 5ebc
000002d0: 661a 553d d012 bc3b 2e62 4d3c fa3d 933d
000002e0: b636 8c3b e37f 83bd 1a6b 2bbc 23b0 d9bc
000002f0: e591 a13c 9a34 1d3d a534 3e3d 8455 30bd
00000300: 7e23 133d 28b9 90bc 54fd f9bc 603d 973c
00000310: e22a 043d 72a3 083c dfe3 3ebc 9865 c1bc
00000320: 8ae1 023d 19cc e13c 6e39 343d 329c f63c
00000330: ea65 ba3c b590 383d dd61 b2bc 740b 47bc
00000340: 4a5f 063e 56d0 d23d 8c02 0fbd f67d c13b
00000350: 11e0 7c3d 0060 a03a a0de 5fbb 8a89 923d
00000360: 00b4 123b 99e2 89bc 105a 2dbc 1096 a5bc
00000370: 2206 05bc 6437 c0bb 29be 703d 3ce7 06bd
00000380: 5056 5ebd 54c5 18bc da40 9d3d 9add 0fbd
00000390: 30cb 093d c0a1 7c3c 6a9e e53c 06c8 4f3d
000003a0: f682 08bd 3024 243c c82b af3d d7af dd3d
000003b0: 3c84 4f3d 0334 18bd fc7e f63c 4ef2 013e
000003c0: 14fd a03d 555c ef3d 1074 ba3d 83b8 5b3d
000003d0: 3ecc b43d c2b5 4c3d a713 073d 3872 d63d
000003e0: cc47 0cbd afb6 d0bc b765 723d 5494 0cbd
000003f0: 02b2 0bbd 15d0 253d 0419 053e df5a cebd
0.07950108 -0.054045618 -0.021142356 -0.07485534 -0.073727384 -0.009847831 -0.013304553 -0.006269186
-0.13725787 0.14193481 -0.058869928 0.0046649426 -0.004855102 -0.0648137 -0.020560037 0.068957694
-0.01655424 -0.005068499 -0.041174084 -0.01409623 -0.018267551 -0.018216837 -0.062349156 -0.11612433
-0.09201348 -0.061503127 0.06385799 -0.074276015 -0.03400684 0.0011090804 0.015441561 0.03312205
-0.07289292 -0.05139818 0.14684747 0.053844042 -0.050982855 -0.047581613 -0.1416163 0.07643039
0.14901476 0.031125467 0.017840503 -0.04049284 0.08754717 -0.037381176 -0.0032016889 0.09715639
-0.038804676 0.0042479225 -0.07990947 -0.17452477 -0.0019519308 -0.06538242 0.075599976 -0.18619782
0.06475918 -0.051343653 -0.028440224 0.034155868 0.024272399 0.003225699 0.04920857 0.028633919
0.013505636 -0.006745748 0.04285834 0.0959916 -0.10336214 -0.042650864 -0.070058465 -0.025836835
-0.11339247 0.025253955 0.009098649 -0.059692614 -0.02410346 -0.094656095 -0.03558236 0.011908793
-0.023498684 -0.024208933 -0.022848196 -0.114434175 0.015904987 -0.042253833 -0.0011905953 -0.023080915
-0.07516408 0.001539703 -0.036330756 -0.009363759 -0.005398166 -0.031388447 -0.04666461 -0.02314794
-0.012543357 -0.018061813 -0.0785146 0.06908573 -0.0525171 0.08028749 0.025850847 0.035986464
0.0011508893 -0.04706477 0.016758857 0.0032260376 0.028441697 -0.041652624 0.0011138767 0.0040553827
-0.024348129 0.090021506 0.003497013 -0.012926668 0.08698005 0.001158511 0.085918285 0.02770058
-0.007868565 -0.0065011866 -0.010993173 0.03711446 0.042252824 0.023083603 -0.01939701 0.041764814
0.012379862 -0.016697625 -0.03865526 -0.07670754 0.04395166 0.07818171 -0.06269219 -0.047933813
0.04949242 0.029412795 0.12346195 0.047370113 -0.05999813 0.022503782 0.022045331 0.015070654
-0.017093547 0.00059554353 0.014850954 -0.052071467 -0.0019134888 0.06214063 0.066521436 0.114949964
0.021013461 0.074132904 0.026808977 0.053267643 -0.019123413 0.016937561 -0.008435797 -0.012927547
0.060840074 0.053415515 0.04799998 -0.046941295 -0.029594615 0.07709575 -0.007016249 -0.095162585
0.14796196 0.0123977065 0.058746964 -0.010297735 0.074453786 -0.039249353 0.019079268 -0.0076069683
0.023458706 0.09141983 -0.009493186 -0.013568681 0.05202713 0.0057395473 0.012535615 0.071895555
0.004278983 -0.06420877 -0.010462547 -0.026573246 0.019722888 0.038380243 0.046436924 -0.043050304
0.03592252 -0.017666414 -0.030516304 0.018461883 0.03226746 0.00833975 -0.011651008 -0.023608014
0.031953372 0.027563142 0.04400008 0.030103777 0.022753675 0.04505988 -0.02177518 -0.012148727
0.13122287 0.10293643 -0.03491454 0.0059049083 0.061737124 0.0012235641 -0.0034159794 0.0715514
0.002238512 -0.016831683 -0.010580555 -0.020213157 -0.008119138 -0.005865978 0.0587751 -0.032935366
-0.054281533 -0.00932439 0.07678385 -0.035123445 0.03364104 0.015419424 0.02802964 0.050727867
-0.03332802 0.010018393 0.085532725 0.108245544 0.050663218 -0.037158977 0.030089848 0.12690088
0.07860771 0.11687533 0.091041684 0.05364276 0.088280186 0.049978025 0.032977726 0.10471004
-0.03424816 -0.025477735 0.059179034 -0.034321144 -0.03410531 0.040481646 0.12997824 -0.10075926

momentum_buffer f4 [3]
00000000: 7786 1dbe 0d24 3e3e 8ffa 9c3e
-0.15383326 0.1856844 0.3065991
