examples/outputs/best_model.pth (torch, 9995 bytes, 21 tensors)

inner_products.O.0.weight f4 [2, 2]
0.48189074 0.22891533 0.28131863 0.23706605
00000000: 62ba f63e c868 6a3e ff08 903e 71c1 723e

inner_products.O.1.weight f4 [2, 2]
1.4101322 -0.18855803 -0.22781621 1.1486961
00000000: 367f b43f 5b15 41be a748 69be 7908 933f

inner_products.O.2.weight f4 [2, 2]
1.3407342 -0.35049656 -0.047163267 1.3312901
00000000: 2e9d ab3f 4974 b3be 452e 41bd b767 aa3f

enc.lins.0.weight f4 [16, 3]
0.93357843 -0.1063188 -1.046939 0.64907104 -0.563676 -1.1198941 0.20382601 0.5377964
-0.39008576 0.6407496 -0.8874463 -1.2342553 0.30584505 -0.6458224 -0.5567146 0.27644312
-0.45673224 -0.027101576 0.50028217 -0.16203433 0.5769292 -0.40149048 0.5652576 0.41299996
-0.091005184 0.1487323 -0.32392257 0.5386746 0.107252605 -0.43069947 -0.5347968 -0.4617812
-0.21342126 0.3686214 0.4767475 -0.4525153 -0.71611524 0.77778673 -0.18465842 0.70283276
-0.28965586 -1.0601935 -0.54972017 -0.34889105 0.6353081 -0.18895926 0.33519053 0.60428673
00000000: fffe 6e3f acbd d9bd 1902 86bf 8529 263f
00000010: 124d 10bf b158 8fbf c4b7 503e 06ad 093f
00000020: 52b9 c7be 2a08 243f ae2f 63bf 14fc 9dbf
00000030: b997 9c3e 9e54 25bf d984 0ebf f489 8d3e
00000040: cfd8 e9be 2004 debc 7e12 003f 54ec 25be
00000050: a2b1 133f 2990 cdbe b9b4 103f bb74 d33e
00000060: ed60 babd 484d 183e 2ed9 a5be 94e6 093f
00000070: 41a7 db3d a484 dcbe 71e8 08bf 966e ecbe
00000080: 1a8b 5abe f2bb bc3e 4018 f43e 16b0 e7be
00000090: 5453 37bf 081d 473f 1917 3dbe d9ec 333f
000000a0: c64d 94be 6cb4 87bf 76ba 0cbf d9a1 b2be
000000b0: 8da3 223f 897e 41be 189e ab3e 89b2 1a3f

enc.lins.0.bias f4 [16]
0.049556043 0.16778442 -0.46632767 -0.19043884 0.15735109 -0.37401277 -0.5056659 0.7162286
0.4921263 0.031497102 -0.46373826 -0.5278598 0.64078224 -0.22873344 0.58040535 0.18449584
00000000: 47fb 4a3d aecf 2b3e 80c2 eebe 6602 43be
00000010: a520 213e 9a7e bfbe 5273 01bf c25a 373f
00000020: faf7 fb3e 1b03 013d 1a6f edbe d221 07bf
00000030: 4e0a 243f 1939 6abe 7295 143f 7aec 3c3e

enc.lins.1.weight f4 [3, 16]
0.32953665 0.3195843 0.24006951 0.54687244 0.014619812 0.13511923 -0.233913 -0.44459125
-0.025298482 0.19954565 0.0022478402 0.05655828 -0.48153728 0.38155288 -0.18452662 -0.42971972
-0.17720857 -0.1672659 0.18268144 -0.8652051 -0.21196975 -0.2074736 -0.01684177 0.42151532
0.22170193 -0.19159457 -0.046752393 -0.030904114 0.49218813 -0.62100244 0.4967721 0.32864717
0.29263514 0.29252923 0.15237409 0.71515197 0.18393683 -0.17580712 -0.1832323 -0.27958778
0.08338336 -0.008028428 -0.1501525 -0.028106987 -0.5420521 0.18051036 -0.20525077 -0.08977679
00000000: 07b9 a83e 8ea0 a33e c8d4 753e d5ff 0b3f
00000010: f087 6f3c b25c 0a3e e486 6fbe 77a1 e3be
00000020: c33e cfbc b255 4c3e 8050 133b a8a9 673d
00000030: 0e8c f6be e65a c33e 8cf4 3cbe 3904 dcbe
00000040: 2a76 35be c147 2bbe d810 3b3e 157e 5dbf
00000050: 990e 59be f673 54be c0f7 89bc dbd0 d73e
00000060: d505 633e 5e31 44be 707f 3fbd a02a fdbc
00000070: 1500 fc3e 04fa 1ebf ea58 fe3e 7144 a83e
00000080: 46d4 953e 64c6 953e f407 1c3e 3314 373f
00000090: f059 3c3e c806 34be 40a1 3bbe 2126 8fbe
000000a0: e5c4 aa3d ab89 03bc 94c1 19be a040 e6bc
000000b0: edc3 0abf b5d7 383e 422d 52be e5dc b7bd

enc.lins.1.bias f4 [3]
-0.10894508 -0.045680195 -0.19847576
00000000: 991e dfbd 281b 3bbd 3b3d 4bbe

exp_avg f4 [2, 2]
0.012621041 0.03919609 0.029718146 -0.1536805
00000000: 7cc8 4e3c 148c 203d 7873 f33c 6c5e 1dbe

exp_avg_sq f4 [2, 2]
0.006344814 0.0059947856 0.0055418722 0.01547827
00000000: 28e8 cf3b e86f c43b 9898 b53b 9298 7d3c

exp_avg f4 [2, 2]
-0.0012847608 0.0058411597 0.0019849285 0.003440165
00000000: 6b65 a8ba 3367 bf3b 9315 023b 6474 613b

exp_avg_sq f4 [2, 2]
1.5216624e-05 9.326214e-05 2.2030175e-05 3.9208615e-05
00000000: e74a 7f37 bb95 c338 71cd b837 ee73 2438

exp_avg f4 [2, 2]
-0.00011591264 0.001966838 -0.002534743 0.0008901759
00000000: 2016 f3b8 11e6 003b ee1d 26bb b25a 693a

exp_avg_sq f4 [2, 2]
4.8193284e-05 1.6720769e-05 0.00013574047 1.6148146e-05
00000000: 2523 4a38 9443 8c37 8e55 0e39 e175 8737

exp_avg f4 [16, 3]
-0.0057106563 -1.5460171e-05 -0.001102569 -0.0052536177 0.00013612161 -0.00085593114 0.0 0.0
0.0 -0.0011112171 0.0007077792 0.00018307484 -0.0026570188 7.331792e-05 -0.0004463606 0.0
0.0 0.0 0.0 0.0 0.0 0.008754536 0.0010277124 0.0035736787
0.0016091958 0.00018573782 0.0006570419 -0.0028436508 -2.1709424e-05 -0.000576368 0.0 0.0
0.0 0.0 0.0 0.0 0.011250676 0.0013300044 0.0046252613 0.0024449732
0.0005706511 6.377264e-05 0.0068645338 0.0008208796 0.0028674805 0.0066315867 0.0007776382 0.002698644
00000000: 7520 bbbb 77b0 81b7 1484 90ba 8a26 acbb
00000010: debb 0e39 9160 60ba 0000 0000 0000 0000
00000020: 0000 0000 42a6 91ba 428a 393a c7f7 3f39
00000030: 6121 2ebb 42c2 9938 8105 eab9 0000 0000
00000040: 0000 0000 0000 0000 0000 0000 0000 0000
00000050: 0000 0000 2f6f 0f3c 4eb4 863a 6134 6a3b
00000060: a7eb d23a 9ec2 4239 563d 2c3a 8b5c 3abb
00000070: a21c b6b7 6717 17ba 0000 0000 0000 0000
00000080: 0000 0000 0000 0000 0000 0000 0000 0000
00000090: c154 383c 8b53 ae3a 818f 973b d83b 203b
000000a0: bf97 153a adbd 8538 e2ef e03b 4c30 573a
000000b0: 57ec 3b3b c84d d93b 6bda 4b3a bcdb 303b

exp_avg_sq f4 [16, 3]
0.0008776297 1.049739e-06 1.3843036e-06 0.0008603231 9.549613e-07 1.2825419e-06 0.0 0.0
0.0 0.0066354442 1.8018604e-06 2.0054651e-06 0.00024568258 2.831837e-07 3.8997317e-07 0.0
0.0 0.0 0.0 0.0 0.0 0.0022554859 4.46373e-06 6.4012e-06
7.6383636e-05 1.5427842e-07 2.1806056e-07 0.00021554413 3.4488792e-07 4.3011673e-07 0.0 0.0
0.0 0.0 0.0 0.0 0.0035154847 7.1582485e-06 1.0288446e-05 0.001928251
6.7358803e-07 6.3713134e-07 0.0013418685 2.6530606e-06 3.8051573e-06 0.0012601016 2.496275e-06 3.576095e-06
00000000: bb10 663a c2e4 8c35 4fcc b935 4e87 613a
00000010: 382c 8035 ce23 ac35 0000 0000 0000 0000
00000020: 0000 0000 246e d93b 74d7 f135 a195 0636
00000030: f5ce 8039 7908 9834 815d d134 0000 0000
00000040: 0000 0000 0000 0000 0000 0000 0000 0000
00000050: 0000 0000 c6d0 133b 26c7 9536 e4c9 d636
00000060: 2730 a038 bba7 2534 0824 6a34 b003 6239
00000070: 0929 b934 cbea e634 0000 0000 0000 0000
00000080: 0000 0000 0000 0000 0000 0000 0000 0000
00000090: 0c64 663b e330 f036 8a9c 2c37 5ebd fc3a
000000a0: 9ed0 3435 5507 2b35 a3e1 af3a 3c0b 3236
000000b0: 1b5c 7f36 fe29 a53a ae85 2736 d8fc 6f36

exp_avg f4 [16]
-0.034046292 -0.032361146 0.0 -0.0019458766 -0.0171727 0.0 0.0 0.060096
0.010764642 -0.017500008 0.0 0.0 0.07769766 0.008794168 0.04763688 0.04550338
00000000: 2074 0bbd 1f8d 04bd 0000 0000 c90c ffba
00000010: c3ad 8cbc 0000 0000 0000 0000 3927 763d
00000020: 2e5e 303c 2d5c 8fbc 0000 0000 0000 0000
00000030: f31f 9f3d 6a15 103c e41e 433d c161 3a3d

exp_avg_sq f4 [16]
0.0017769836 0.0017557618 0.0 0.009297303 0.00050833053 0.0 0.0 0.0047991253
0.00016320967 0.00045260251 0.0 0.0 0.0076581393 0.0027382735 0.0028803726 0.0026988077
00000000: ade9 e83a 9721 e63a 0000 0000 b753 183c
00000010: 7c41 053a 0000 0000 0000 0000 fb41 9d3b
00000020: 4323 2b39 484b ed39 0000 0000 0000 0000
00000030: 21f1 fa3b 9b74 333b a2c4 3c3b 7bde 303b

exp_avg f4 [3, 16]
-0.007603735 -0.010586695 0.0 -0.00035115582 -0.008296453 0.0 0.0 -0.035853114
-0.02409366 -0.0046503334 0.0 0.0 -0.027992737 -0.0002212977 -0.02760077 -0.010422577
0.007912755 0.011264007 0.0 0.0006794349 0.00892757 0.0 0.0 0.040049504
0.026686577 0.0048552 0.0 0.0 0.031353205 0.000557142 0.030982183 0.011795063
-0.0065609994 -0.009139656 0.0 -0.00040976788 -0.007171646 0.0 0.0 -0.031195203
-0.020920964 -0.004013752 0.0 0.0 -0.024329832 -0.00029873458 -0.02403759 -0.009103626
00000000: c128 f9bb d173 2dbc 0000 0000 561b b8b9
00000010: d9ed 07bc 0000 0000 0000 0000 b7da 12bd
00000020: 1160 c5bc d361 98bb 0000 0000 0000 0000
00000030: 0651 e5bc 260c 68b9 031b e2bc 75c3 2abc
00000040: 80a4 013c ab8c 383c 0000 0000 1b1c 323a
00000050: f144 123c 0000 0000 0000 0000 f30a 243d
00000060: cf9d da3c 5f18 9f3b 0000 0000 0000 0000
00000070: 386c 003d 2b0d 123a 59ce fd3c 1440 413c
00000080: a7fd d6bb 7fbe 15bc 0000 0000 1dd6 d6b9
00000090: 2100 ebbb 0000 0000 0000 0000 158d ffbc
000000a0: 7162 abbc cb85 83bb 0000 0000 0000 0000
000000b0: 5b4f c7bc 7a9f 9cb9 7bea c4bc 6027 15bc

exp_avg_sq f4 [3, 16]
0.0016435442 0.001192698 0.0 0.0003123477 0.00040093198 0.0 0.0 0.001131673
0.00076342607 0.0005506235 0.0 0.0 0.0006448257 0.00033957968 0.0005542281 7.185981e-05
0.0021233044 0.0015400393 0.0 0.00040974814 0.0005182289 0.0 0.0 0.0014558854
0.0009846292 0.0007080263 0.0 0.0 0.00083482685 0.00044405943 0.0007156436 9.266659e-05
0.0012729408 0.0009225565 0.0 0.00023850802 0.00030826897 0.0 0.0 0.00087019167
0.0005839775 0.00043250792 0.0 0.0 0.0004907059 0.00026262397 0.00042247536 5.4533815e-05
00000000: 316c d73a 4e54 9c3a 0000 0000 99c2 a339
00000010: 2e34 d239 0000 0000 0000 0000 a554 943a
00000020: a820 483a b857 103a 0000 0000 0000 0000
00000030: 8509 293a 9d09 b239 9e49 113a 71b3 9638
00000040: 2327 0b3b 25db c93a 0000 0000 77d3 d639
00000050: c1d9 073a 0000 0000 0000 0000 68d3 be3a
00000060: ac0e 813a d79a 393a 0000 0000 0000 0000
00000070: 48d8 5a3a a6d0 e839 079a 3b3a ff55 c238
00000080: ced8 a63a b8d7 713a 0000 0000 0218 7a39
00000090: 299f a139 0000 0000 0000 0000 931d 643a
000000a0: 1116 193a 3bc2 e239 0000 0000 0000 0000
000000b0: b7a2 003a cbb0 8939 af7f dd39 3dbb 6438

exp_avg f4 [3]
-0.051552627 0.057148628 -0.044801917
00000000: d928 53bd ae14 6a3d 3782 37bd

exp_avg_sq f4 [3]
0.0035969142 0.0046296194 0.0027715801
00000000: 35ba 6b3b 10b4 973b 66a3 353b
