examples/outputs/best_model.pth (torch, 16530 bytes, 33 tensors)

inner_products.O.0.weight f4 [2, 2]
000000 77 14 4d 3f 32 48 44 be 0f bd 4c be de a1 51 3f
       0.8010935 -0.19168165 -0.19993995 0.81887615

inner_products.O.1.weight f4 [2, 2]
000000 d5 a1 6f 3f 3a 02 d1 3d e5 55 51 3d 97 46 54 3f
       0.9360631 0.10205503 0.051107306 0.8292021

inner_products.O.2.weight f4 [2, 2]
000000 2d 52 5d 3f 73 7d 91 3d 12 c7 9b 3d ca 2a 75 3f
       0.86453515 0.07104006 0.07606329 0.95768416

enc.lins.0.weight f4 [16, 3]
000000 0c 63 03 bf f3 a8 00 bf d0 96 da 3e 9c ab 27 bf
       -0.5132301 -0.50257796 0.42693186 -0.6549623
000010 ae eb cb 3e 28 9a 54 be 02 3d bf be 30 10 7b 3e
       0.39828247 -0.20761931 -0.37351233 0.24517894
000020 d2 36 98 be ac 20 14 bf 6c c7 e3 be 71 38 ca ba
       -0.29729325 -0.57862353 -0.44488084 -0.0015428198
000030 1b 10 95 3e c6 3f 8c be 8b 40 8d 3e a6 a9 b5 be
       0.2911385 -0.27392405 0.27588305 -0.35480994
000040 94 85 06 bc 8d 3d ca 3e 36 1c e6 3e dd 7f ec bd
       -0.008210558 0.39500085 0.44943398 -0.115478255
000050 d3 14 b7 3d e8 fe d0 be e0 aa eb 3c 68 6a 24 be
       0.08939519 -0.40819478 0.028768003 -0.16056216
000060 dc 3b e3 bd b0 a6 a0 3d 50 f0 16 bd 45 4a e1 3e
       -0.11095402 0.07844293 -0.036850274 0.44001976
000070 77 24 cc be 26 8e 83 be c2 d5 72 3e a5 92 02 be
       -0.3987157 -0.25694388 0.23714355 -0.12751253
000080 33 c3 64 bc 10 2d 07 3f 10 1f 05 bf 5e 3c 99 3e
       -0.013962555 0.52803135 -0.5200052 0.2992887
000090 f9 21 04 3e 0e cc c3 3d 08 f8 45 be c1 42 af be
       0.12903585 0.09560405 -0.19332898 -0.34230617
0000a0 b8 cc ef 3e 68 bf 0d 3f a4 53 1b 3e f5 fc 91 3e
       0.46835876 0.5537019 0.15168625 0.28513303
0000b0 6f 43 71 3c 2a 33 2b be 00 f4 cc 3c 1e e4 59 be
       0.01472555 -0.16718736 0.025018692 -0.21278426

enc.lins.0.bias f4 [16]
000000 f7 4b 94 be 4a 98 0b 3f d0 61 4b bd 7f c1 f9 3e
       -0.28964207 0.5452925 -0.04965383 0.48780438
000010 7e 42 ad 3e 4d 43 9a 3e f0 9c ad 3e 02 89 db be
       0.33839792 0.3012947 0.33908796 -0.42877966
000020 74 d0 dd be a6 33 61 3e b5 9c fd 3e c2 5d 1a 3e
       -0.433231 0.21992359 0.4953362 0.15074828
000030 b6 59 12 3f 8e 9c d3 3e 7e e3 0c be 16 02 c1 be
       0.5716814 0.4133038 -0.13758656 -0.37696904

enc.lins.1.weight f4 [3, 16]
000000 d0 33 b8 bc bf 41 b5 3e 46 19 3c be 76 04 d8 3e
       -0.022485644 0.35401723 -0.18369016 0.42190903
000010 60 6b 6f be d4 1d ac 3e e1 a3 cc 3d ca 87 16 be
       -0.23380804 0.33616507 0.09992195 -0.14700237
000020 70 14 ac 3c 2e 55 10 3e 69 ca 24 3b bf ef 15 3e
       0.02100584 0.14094993 0.002514506 0.14642237
000030 fd 4a 99 be 43 6d f4 bd 8a 95 ea 3c ac 22 5c 3e
       -0.29940024 -0.119349025 0.028635759 0.21497601
000040 14 81 46 be 77 31 b5 be 60 6e 73 3e cf 26 c6 be
       -0.19385177 -0.353893 0.23772573 -0.38701484
000050 18 eb 16 3b bb d3 0b bf ec ef 08 3d a8 19 02 3d
       0.002302831 -0.5461995 0.033431932 0.03176275
000060 76 b0 03 be f9 ed 55 3d ad 9a 1e 3e 3f 19 a1 3e
       -0.12860283 0.0522289 0.15488692 0.31464574
000070 03 c7 58 bc 40 76 1b 3d 07 2d 08 3c c4 67 b5 3d
       -0.013231042 0.03795457 0.008311517 0.08857682
000080 e0 81 05 3d 26 ee e8 3e 70 3d 39 3e e2 63 90 3e
       0.03259456 0.45494193 0.18089843 0.28201205
000090 c5 5e 82 3d f2 d0 d2 3e bb bd 4e 3b 0e 79 0a 3e
       0.06365732 0.41175038 0.0031546194 0.13522741
0000a0 a8 99 c3 bd a7 84 f7 3d bf 01 13 be 46 27 11 be
       -0.09550792 0.12085848 -0.14356135 -0.14175138
0000b0 12 20 49 be f3 19 d2 3e 6d 96 90 3d 34 68 72 3e
       -0.1964114 0.41035423 0.070599414 0.23672563

enc.lins.1.bias f4 [3]
000000 75 08 b3 bd 71 ef b3 bc b5 2a 1b bd
       -0.087418474 -0.02196476 -0.037882525

dec.lins.0.weight f4 [16, 3]
000000 aa 6b 2e be 6b 6b ae be 7a 5e f9 be 4b 1e 05 be
       -0.17033258 -0.34066328 -0.48704892 -0.12999837
000010 fa 30 01 bf a2 f7 0a bf 88 7a d5 be 66 b6 9d 3e
       -0.5046536 -0.5428411 -0.41695046 0.3080322
000020 07 b1 b1 3e b8 ea f2 3d 48 1f ba be 3e 99 3f be
       0.34705374 0.11861175 -0.3635199 -0.18710801
000030 14 a3 c8 3e 9f 51 ec 3e f0 71 c1 3e 6d 33 21 3e
       0.3918692 0.46156022 0.3778224 0.15742274
000040 da b7 04 3f 75 a7 02 bf 26 8c 82 3e 00 7a a5 3a
       0.51843035 -0.5103677 0.2549755 0.001262486
000050 ca ee 08 3f fa 04 15 be 32 25 53 3f 14 0a 19 be
       0.53489363 -0.1455268 0.8247863 -0.14945251
000060 ec df 04 3e 5b e3 b9 3e 24 9c c4 bd 44 2e 07 3e
       0.12976044 0.3630627 -0.09600094 0.13201243
000070 90 9f 4d be d4 5a ab be 9a 17 26 3e 29 12 ee be
       -0.200804 -0.33467734 0.16219941 -0.4649823
000080 e5 21 3e bd 12 4b 04 3f c6 1c f7 be b1 74 90 be
       -0.046419043 0.5167705 -0.4826414 -0.28214028
000090 93 4d 0f 3e fb 38 ce be db 79 8d 3e a6 73 1a bf
       0.13994436 -0.40277848 0.2763203 -0.60332716
0000a0 b7 75 51 3e 4d 29 f6 be d4 dc 9f bd 2c 21 e8 3e
       0.20455061 -0.48078385 -0.078057915 0.45337808
0000b0 cc 84 5c 3e c4 b6 6c be 78 2c 1a 3f 9f 2c 46 be
       0.21535033 -0.23116595 0.60224104 -0.19352959

dec.lins.0.bias f4 [16]
000000 90 7b 8e bc 0e 00 39 bb c5 3e a9 be 0a 5e aa be
       -0.017392904 -0.0028228792 -0.33055702 -0.3327487
000010 79 99 90 3e 46 70 aa 3e 94 51 01 bf fd 90 1a 3f
       0.2824209 0.33288783 -0.50515103 0.60377485
000020 05 e5 6c bd 20 e9 a9 3e 7f 1d 9d bc e2 3d ab be
       -0.057835598 0.33185673 -0.019179104 -0.3344565
000030 be e5 dc bd eb 73 0f 3f 3e 12 c9 be c6 92 ba 3e
       -0.10786007 0.5603625 -0.3927173 0.36440104

dec.lins.1.weight f4 [3, 16]
000000 6c d8 50 be 14 54 e8 bd 81 90 4d 3e f6 ed 30 be
       -0.20395058 -0.11344162 0.20074655 -0.17278275
000010 52 a4 63 bc a7 33 51 3e 70 80 4f bd ee 32 43 3e
       -0.0138941575 0.2042986 -0.050659597 0.19062397
000020 56 c6 16 3e 2b 02 a4 bd f8 04 20 be 36 e7 7a be
       0.14724097 -0.08008226 -0.15626895 -0.24502262
000030 8d d8 35 3d f8 5c d4 3e f0 58 24 bd 84 70 b7 3e
       0.044395972 0.4147718 -0.04012388 0.3582803
000040 11 45 80 3d 59 bb 35 be 9d 61 3f be 90 67 8a 3c
       0.06263173 -0.17747249 -0.1868958 0.016895086
000050 a5 c9 2b 3e 62 e3 f3 3d 6e aa 04 be 63 aa 6a bd
       0.1677614 0.11908604 -0.12955639 -0.0572914
000060 75 3b 9f 3e 91 87 0b 3d bb 16 1f bd 78 f9 05 bd
       0.3110005 0.034064833 -0.038840037 -0.032708615
000070 04 89 1f be c0 d6 89 bd 94 52 24 3e 8a 93 ba bd
       -0.15579611 -0.067304134 0.16047126 -0.09110172
000080 0b 65 13 be 9a d2 8e 3d 4f 6f ae 3d 84 1e 5c be
       -0.14394014 0.06973763 0.08517324 -0.21496016
000090 38 63 42 be 19 a6 92 bc 34 ae 05 3e 02 fb 47 3e
       -0.18983161 -0.017901467 0.13054734 0.19529346
0000a0 0b 6f d4 3a 40 b2 fd bd d1 91 23 3e 00 08 66 3a
       0.001620741 -0.12387514 0.15973593 0.0008774996
0000b0 b8 20 a6 3d 04 64 d5 bd e8 a5 1b bd 77 31 1f be
       0.08111709 -0.10419467 -0.038000017 -0.15546213

dec.lins.1.bias f4 [3]
000000 d3 94 03 bc a0 12 cc 3c a9 39 d9 3d
       -0.008031088 0.024911225 0.10606701

exp_avg f4 [2, 2]
000000 b6 34 72 39 70 24 a9 b9 be fb 23 b9 53 79 2e 39
       0.00023098555 -0.0003226134 -0.00015638673 0.0001663913

exp_avg_sq f4 [2, 2]
000000 bf 19 a6 38 0f 80 fc 37 26 fd fc 37 bf bd 49 39
       7.9202924e-05 3.0100373e-05 3.0158622e-05 0.0001923954

exp_avg f4 [2, 2]
000000 bb b9 cf 36 2d 4a ac b7 5f 8d 99 b6 d5 c4 e2 37
       6.1907026e-06 -2.0538539e-05 -4.576213e-06 2.7032956e-05

exp_avg_sq f4 [2, 2]
000000 e2 d0 0c 32 5e a7 ab 33 f4 00 68 32 3e a4 34 33
       8.196567e-09 7.993252e-08 1.3504394e-08 4.2058893e-08

exp_avg f4 [2, 2]
000000 80 fd 44 37 83 78 fa b6 e6 e7 ac b7 52 1e ad 36
       1.1741533e-05 -7.46461e-06 -2.0611984e-05 5.1593315e-06

exp_avg_sq f4 [2, 2]
000000 43 d0 69 33 bb 37 1b 32 69 7f c3 33 ed e8 4d 32
       5.4438953e-08 9.034859e-09 9.103571e-08 1.1985532e-08

exp_avg f4 [16, 3]
000000 00 00 00 00 00 00 00 00 00 00 00 00 db db 8c b7
       0.0 0.0 0.0 -1.6791679e-05
000010 50 c6 af 36 55 9b dc 36 00 00 00 00 00 00 00 00
       5.238493e-06 6.574594e-06 0.0 0.0
000020 00 00 00 00 a3 e1 b7 b7 fe 7b 99 36 35 14 d5 36
       0.0 -2.192037e-05 4.57419e-06 6.350247e-06
000030 73 5b a9 b7 97 d8 91 36 1a 42 9c 35 56 58 5b b8
       -2.0188954e-05 4.346551e-06 1.1642144e-06 -5.2295938e-05
000040 0e 73 3c 37 c5 e1 29 37 95 33 4e 37 e0 38 3d b6
       1.12324615e-05 1.0125751e-05 1.2290567e-05 -2.81963e-06
000050 50 a1 8c b5 00 00 00 00 00 00 00 00 00 00 00 00
       -1.0477761e-06 0.0 0.0 0.0
000060 00 00 00 00 00 00 00 00 00 00 00 00 bb 99 7e 37
       0.0 0.0 0.0 1.5175373e-05
000070 fe 53 81 b6 66 60 a1 b5 cf 6c c4 37 3c f2 a8 b6
       -3.8542776e-06 -1.202349e-06 2.3415689e-05 -5.03499e-06
000080 bd b1 62 b6 bc 60 68 38 53 e5 50 b7 3f 99 ea b6
       -3.3780082e-06 5.54032e-05 -1.245116e-05 -6.9915836e-06
000090 6d fb b1 b7 e2 ff b4 36 01 13 74 35 02 fe 76 b7
       -2.1217124e-05 5.3942067e-06 9.092474e-07 -1.4721883e-05
0000a0 f8 1f 07 36 c6 de 94 35 09 00 00 00 04 00 00 80
       2.0135176e-06 1.1091695e-06 1.3e-44 -6e-45
0000b0 04 00 00 80 00 00 00 00 00 00 00 00 00 00 00 00
       -6e-45 0.0 0.0 0.0

exp_avg_sq f4 [16, 3]
000000 00 00 00 00 00 00 00 00 00 00 00 00 b5 4e c8 35
       0.0 0.0 0.0 1.4924068e-06
000010 e9 0b c7 31 25 82 00 32 00 00 00 00 00 00 00 00
       5.7930163e-09 7.480172e-09 0.0 0.0
000020 00 00 00 00 72 bc e9 34 37 77 4a 31 8e 06 8a 31
       0.0 4.3536744e-07 2.9462635e-09 4.017074e-09
000030 11 74 ca 35 24 fd e7 2f a1 5c 09 30 86 e7 86 35
       1.5083953e-06 4.2198522e-10 4.9971943e-10 1.005116e-06
000040 2c 89 f7 31 58 c8 21 32 c1 22 09 36 7a a0 15 2f
       7.2042408e-09 9.416986e-09 2.043482e-06 1.3608484e-10
000050 9e 8a 2d 2f 00 00 00 00 00 00 00 00 00 00 00 00
       1.5783505e-10 0.0 0.0 0.0
000060 00 00 00 00 00 00 00 00 00 00 00 00 0a 31 15 36
       0.0 0.0 0.0 2.2231275e-06
000070 c9 9e d3 2f 26 90 00 30 7e c5 46 35 f1 70 9b 30
       3.84935e-10 4.6770976e-10 7.4048137e-07 1.1309834e-09
000080 c7 37 c5 30 d4 12 7b 35 14 90 e3 30 43 f7 0e 31
       1.4349489e-09 9.3532185e-07 1.6557373e-09 2.0804272e-09
000090 47 6d 6a 36 b2 8b 01 31 b2 d6 21 31 b2 d1 01 36
       3.4932325e-06 1.8851378e-09 2.3550624e-09 1.9344557e-06
0000a0 87 62 a8 30 44 16 db 30 6a 6a 93 34 f7 d3 5d 2d
       1.2251612e-09 1.5940675e-09 2.745831e-07 1.2609461e-11
0000b0 22 a2 57 2d 00 00 00 00 00 00 00 00 00 00 00 00
       1.2257336e-11 0.0 0.0 0.0

exp_avg f4 [16]
000000 00 00 00 00 b2 51 c3 b7 00 00 00 00 30 05 e3 b7
       0.0 -2.3283854e-05 0.0 -2.7062924e-05
000010 80 58 17 b8 be 52 a1 b8 eb fe b4 37 00 00 00 00
       -3.6083627e-05 -7.69249e-05 2.1576378e-05 0.0
000020 00 00 00 00 a1 5f e8 37 b4 c4 1b 38 ec b5 bf 38
       0.0 2.7701086e-05 3.7138074e-05 9.141475e-05
000030 8b ff 29 b8 b7 7f c1 b7 0a 00 00 00 00 00 00 00
       -4.0530733e-05 -2.3066865e-05 1.4e-44 0.0

exp_avg_sq f4 [16]
000000 00 00 00 00 1b 00 6c 36 00 00 00 00 7d 5a a1 35
       0.0 3.5166802e-06 0.0 1.202177e-06
000010 9e 20 23 36 c3 e4 15 36 54 c0 4a 36 00 00 00 00
       2.4307878e-06 2.2335887e-06 3.0212295e-06 0.0
000020 00 00 00 00 f2 fd 5c 36 10 5d 87 35 7e 53 a8 35
       0.0 3.293037e-06 1.0085369e-06 1.2541275e-06
000030 1a 6b b3 36 35 18 4e 36 a2 cb d3 34 00 00 00 00
       5.347084e-06 3.0710482e-06 3.9449975e-07 0.0

exp_avg f4 [3, 16]
000000 00 00 00 00 6d 2a b1 37 00 00 00 00 98 2f 0b 38
       0.0 2.11198e-05 0.0 3.3184508e-05
000010 6f 22 a2 38 75 e0 6c 37 5e 09 b9 38 00 00 00 00
       7.731176e-05 1.4118957e-05 8.823232e-05 0.0
000020 00 00 00 00 18 82 a0 38 3d ac c6 38 b4 c0 99 38
       0.0 7.6536264e-05 9.4734576e-05 7.331502e-05
000030 6d e3 c4 38 83 16 bb 37 04 00 00 00 00 00 00 00
       9.38837e-05 2.230262e-05 6e-45 0.0
000040 00 00 00 00 06 7a b5 37 00 00 00 00 81 85 2a 38
       0.0 2.1633703e-05 0.0 4.0655494e-05
000050 c8 20 e7 38 41 43 27 37 a2 ae 07 39 00 00 00 00
       0.00011021044 9.969634e-06 0.00012939659 0.0
000060 00 00 00 00 2b 84 f8 38 9c a7 0f 39 81 d1 e3 38
       0.0 0.0001185018 0.00013699982 0.000108632266
000070 f3 36 0e 39 a1 02 93 37 04 00 00 80 00 00 00 00
       0.00013562645 1.752499e-05 -6e-45 0.0
000080 00 00 00 00 97 e6 ea b5 00 00 00 00 26 21 46 b6
       0.0 -1.7501469e-06 0.0 -2.9523594e-06
000090 c6 1e 95 b7 20 80 3e 32 44 3a b7 b7 00 00 00 00
       -1.7776514e-05 1.1088588e-08 -2.1842432e-05 0.0
0000a0 00 00 00 00 87 b8 a3 b7 ab e5 b9 b7 db 43 96 b7
       0.0 -1.9517041e-05 -2.2160666e-05 -1.7912991e-05
0000b0 d9 24 b9 b7 be 71 1a b6 04 00 00 00 00 00 00 00
       -2.2070877e-05 -2.3013995e-06 6e-45 0.0

exp_avg_sq f4 [3, 16]
000000 00 00 00 00 32 d5 1b 35 00 00 00 00 3d 93 1d 34
       0.0 5.805224e-07 0.0 1.467533e-07
000010 77 df e7 37 47 5c af 33 1f 69 84 38 00 00 00 00
       2.7641405e-05 8.165858e-08 6.313831e-05 0.0
000020 00 00 00 00 40 84 50 38 10 a9 e7 37 5e 6e ab 37
       0.0 4.9714232e-05 2.7616072e-05 2.0436182e-05
000030 3e 07 07 38 0d 8a 30 35 19 c1 80 35 00 00 00 00
       3.2193253e-05 6.5766e-07 9.592942e-07 0.0
000040 00 00 00 00 ff c8 ad 35 00 00 00 00 ea a8 13 35
       0.0 1.2948002e-06 0.0 5.500757e-07
000050 b4 77 a6 37 25 9d 8e 34 62 5a 4a 38 00 00 00 00
       1.9844483e-05 2.65639e-07 4.824473e-05 0.0
000060 00 00 00 00 eb 3b 22 38 41 e3 b1 37 37 dd 8c 37
       0.0 3.8679613e-05 2.1205868e-05 1.6792312e-05
000070 af 07 c5 37 41 6e 92 35 d6 51 82 35 00 00 00 00
       2.3487808e-05 1.0909936e-06 9.709572e-07 0.0
000080 00 00 00 00 0a 44 27 35 00 00 00 00 95 ef 91 34
       0.0 6.231136e-07 0.0 2.7182674e-07
000090 d6 16 dd 36 32 55 04 34 26 de a8 37 00 00 00 00
       6.5889717e-06 1.2324452e-07 2.0130607e-05 0.0
0000a0 00 00 00 00 d3 77 8a 37 f0 1d 0a 37 34 7f f3 36
       0.0 1.650668e-05 8.232411e-06 7.2567727e-06
0000b0 ba b2 0a 37 fd c0 c3 34 88 48 0f 35 00 00 00 00
       8.267054e-06 3.6461998e-07 5.33772e-07 0.0

exp_avg f4 [3]
000000 a9 bb 1a 39 79 42 59 39 18 44 08 b8
       0.00014756493 0.00020719496 -3.2488344e-05

exp_avg_sq f4 [3]
000000 b1 73 dc 38 31 ea 9e 38 4d ad f7 37
       0.00010511967 7.577649e-05 2.9525394e-05

exp_avg f4 [16, 3]
000000 92 4f e1 b1 3c 1a 38 32 96 67 db b1 04 00 00 80
       -6.557408e-09 1.0716175e-08 -6.3855152e-09 -6e-45
000010 04 00 00 00 04 00 00 00 04 00 00 80 04 00 00 00
       6e-45 6e-45 -6e-45 6e-45
000020 04 00 00 80 00 00 00 00 00 00 00 00 00 00 00 00
       -6e-45 0.0 0.0 0.0
000030 83 5c 92 b7 4f e3 05 38 81 e3 32 b7 45 07 ae b6
       -1.7447635e-05 3.192137e-05 -1.0662597e-05 -5.1864504e-06
000040 5f 8c a2 37 d5 7e 13 b6 00 00 00 00 00 00 00 00
       1.937727e-05 -2.1978533e-06 0.0 0.0
000050 00 00 00 00 ab 30 81 37 48 b6 8b b7 d5 7b 2b 37
       0.0 1.5400661e-05 -1.6654973e-05 1.0221226e-05
000060 0f 7d 87 b7 e2 e6 de 37 cd 6c 5f b7 aa 26 26 b7
       -1.6151489e-05 2.6571975e-05 -1.3317168e-05 -9.903373e-06
000070 7f 2c 3d 37 10 c6 de b6 b1 ad 8c 36 96 71 13 b7
       1.1275638e-05 -6.639173e-06 4.1925455e-06 -8.788329e-06
000080 c0 76 17 37 00 00 00 00 00 00 00 00 00 00 00 00
       9.02795e-06 0.0 0.0 0.0
000090 d5 d3 ed b5 84 cb 98 b5 23 08 17 36 72 a1 0a b7
       -1.7719527e-06 -1.1384113e-06 2.250549e-06 -8.26303e-06
0000a0 03 bb 17 37 0e 97 ee b6 00 00 00 00 00 00 00 00
       9.043843e-06 -7.110538e-06 0.0 0.0
0000b0 00 00 00 00 8d cb 54 b7 79 42 3e 37 8c aa 50 b7
       0.0 -1.2683578e-05 1.1340359e-05 -1.2437475e-05

exp_avg_sq f4 [16, 3]
000000 5c 92 0a 36 9e 9e bd 34 1d 41 95 33 ae 5a d8 35
       2.0648795e-06 3.5319403e-07 6.950197e-08 1.6119645e-06
000010 e0 74 83 34 70 37 27 33 b9 7e 29 2f 54 d6 41 2e
       2.448569e-07 3.8933138e-08 1.5415481e-10 4.407348e-11
000020 0b 1b 5a 2a 00 00 00 00 00 00 00 00 00 00 00 00
       1.9371672e-13 0.0 0.0 0.0
000030 c4 cf df 35 c4 c0 a4 34 32 ec 65 33 cc 04 b3 35
       1.6675262e-06 3.0687636e-07 5.3533036e-08 1.3337935e-06
000040 1d 11 66 35 5a b5 d4 33 00 00 00 00 00 00 00 00
       8.570658e-07 9.905007e-08 0.0 0.0
000050 00 00 00 00 52 4d b8 35 e0 95 76 35 c2 52 de 33
       0.0 1.3731571e-06 9.186024e-07 1.0352734e-07
000060 2b d9 8c 32 d3 16 2b 32 77 7e b6 30 55 3a af 36
       1.6396902e-08 9.9587e-09 1.3278186e-09 5.222197e-06
000070 71 b1 a1 35 4b dc 2a 34 d5 49 34 36 f0 4e c3 34
       1.2047077e-06 1.5912626e-07 2.6865066e-06 3.6379015e-07
000080 1e 9d aa 33 00 00 00 00 00 00 00 00 00 00 00 00
       7.944821e-08 0.0 0.0 0.0
000090 4e 29 2f 2f e3 d9 c6 30 37 96 62 31 2e e1 87 37
       1.5930832e-10 1.4468323e-09 3.2972716e-09 1.6198112e-05
0000a0 2d b5 02 37 94 d0 58 35 00 00 00 00 00 00 00 00
       7.790787e-06 8.076979e-07 0.0 0.0
0000b0 00 00 00 00 78 19 11 37 44 ba 9e 36 e6 66 08 35
       0.0 8.648603e-06 4.730451e-06 5.0813685e-07

exp_avg f4 [16]
000000 50 de 0e 33 04 00 00 00 04 00 00 00 00 00 00 00
       3.3264143e-08 6e-45 6e-45 0.0
000010 b8 74 0c 39 76 e9 78 39 00 00 00 00 01 29 cc 38
       0.00013394922 0.00023738094 0.0 9.7351156e-05
000020 22 7d ef 38 d3 e2 56 b8 b6 f5 1c 38 00 00 00 00
       0.00011419716 -5.1232822e-05 3.7422134e-05 0.0
000030 91 28 c6 36 08 ad 32 b8 00 00 00 00 52 89 0d b9
       5.9055824e-06 -4.2599655e-05 0.0 -0.00013497964

exp_avg_sq f4 [16]
000000 ee f4 d8 37 22 3e d3 37 7d 5e 0e 30 00 00 00 00
       2.586326e-05 2.5182093e-05 5.1793575e-10 0.0
000010 3f 1f 29 38 6c 57 9d 37 00 00 00 00 ef 39 86 37
       4.032184e-05 1.8756567e-05 0.0 1.6001022e-05
000020 bc 37 b2 34 56 1d 07 39 cf b4 69 38 00 00 00 00
       3.3195636e-07 0.00012885532 5.571992e-05 0.0
000030 84 a9 1c 33 ba 74 a3 39 00 00 00 00 6c 3c 1d 39
       3.6475754e-08 0.0003117675 0.0 0.00014995196

exp_avg f4 [3, 16]
000000 38 03 f5 a9 04 00 00 80 04 00 00 00 00 00 00 00
       -1.0880744e-13 -6e-45 6e-45 0.0
000010 d0 51 c5 38 ca dd f2 38 00 00 00 00 a0 f0 55 39
       9.408931e-05 0.00011580771 0.0 0.00020402903
000020 87 40 0f 36 6d c0 cf 38 ac 4e 8d 36 00 00 00 00
       2.134622e-06 9.906371e-05 4.211286e-06 0.0
000030 dd 64 62 36 6b 4d 3d 39 00 00 00 00 2f cd 04 39
       3.3735334e-06 0.00018053285 0.0 0.00012664938
000040 86 59 b4 aa 04 00 00 80 04 00 00 80 00 00 00 00
       -3.2036542e-13 -6e-45 -6e-45 0.0
000050 52 0e fc 39 6d 9f 15 3a 00 00 00 00 ba b8 86 3a
       0.00048075855 0.0005707655 0.0 0.0010278441
000060 5d 51 d4 36 26 c7 00 3a 34 ab 98 37 00 00 00 00
       6.3275643e-06 0.0004912488 1.8199535e-05 0.0
000070 5b 10 40 37 53 62 6c 3a 00 00 00 00 d0 50 26 3a
       1.14479e-05 0.0009017337 0.0 0.00063444395
000080 fb a9 7e ab 04 00 00 00 04 00 00 80 00 00 00 00
       -9.0474823e-13 6e-45 -6e-45 0.0
000090 d9 0f 51 39 e2 47 26 39 00 00 00 00 07 4d a2 39
       0.00019937697 0.00015857772 0.0 0.00030956438
0000a0 c7 35 6f b7 c2 ba 67 39 93 6c 02 38 00 00 00 00
       -1.4258031e-05 0.0002209945 3.1095533e-05 0.0
0000b0 74 1d bf 37 b7 7b 8f 39 00 00 00 00 b6 0d 2a 39
       2.278269e-05 0.0002736726 0.0 0.00016217571

exp_avg_sq f4 [3, 16]
000000 34 5e 0a 35 4a 6f ab 36 13 aa a5 28 00 00 00 00
       5.154609e-07 5.109153e-06 1.8392438e-14 0.0
000010 e2 bd 18 3a a9 09 0f 39 00 00 00 00 31 67 7a 3a
       0.00058266346 0.00013641141 0.0 0.000955212
000020 73 69 36 30 0e 40 47 3a 45 97 7d 37 00 00 00 00
       6.6361067e-10 0.00076007925 1.5115195e-05 0.0
000030 b2 ea 64 31 a5 13 85 3a 00 00 00 00 e1 97 aa 39
       3.3311776e-09 0.0010152949 0.0 0.00032538085
000040 12 c6 23 32 ba 32 b7 33 21 3f 3b 28 00 00 00 00
       9.532885e-09 8.530829e-08 1.0394274e-14 0.0
000050 20 ad 9d 36 85 a1 7e 35 00 00 00 00 2c c7 b3 36
       4.699119e-06 9.4857415e-07 0.0 5.3578024e-06
000060 d7 8f b8 2f c3 a1 ce 36 6f d0 77 34 00 00 00 00
       3.357161e-10 6.15811e-06 2.3079495e-07 0.0
000070 57 80 03 32 10 fd 9b 36 00 00 00 00 e4 06 b2 35
       7.654385e-09 4.6488203e-06 0.0 1.3264039e-06
000080 b1 43 21 30 ed 6b 92 31 80 a6 19 28 00 00 00 00
       5.8667654e-10 4.261429e-09 8.52931e-15 0.0
000090 3d 77 f1 34 03 e6 ee 34 00 00 00 00 fd 40 df 35
       4.4976505e-07 4.449831e-07 0.0 1.6633709e-06
0000a0 92 04 7c 30 89 0d f2 34 02 00 b0 32 00 00 00 00
       9.168356e-10 4.508586e-07 2.04891e-08 0.0
0000b0 bf 65 40 32 e3 10 b7 35 00 00 00 00 ca ee 31 35
       1.1199005e-08 1.3639477e-06 0.0 6.628512e-07

exp_avg f4 [3]
000000 7c ca a1 39 31 42 cb 3a ab 69 29 3a
       0.00030859176 0.0015507397 0.0006462584

exp_avg_sq f4 [3]
000000 92 78 96 3b d3 49 08 38 f4 30 91 36
       0.00459201 3.249368e-05 4.3270356e-06
